model.onnx (onnx, 818375 bytes, 8 tensors)

fc.weight f4 [3, 128]
-0.041870173 0.12424785 0.10580757 -0.06858315 0.0694662 0.023962485 0.003879163 -0.06541146
0.09561119 -0.064638555 -0.0058017713 0.009695789 0.022654053 0.054446656 -0.15296309 0.09812358
0.07722238 0.03736173 -0.11062893 0.115801804 -0.014863735 -0.10152756 0.15133883 0.09727375
0.051612493 0.108262174 -0.036950164 0.114854164 -0.08657617 -0.09689686 0.11608584 0.11153121
-0.11618257 0.07867521 -0.045711864 -0.047206886 -0.15639333 -0.0741008 0.06094558 -0.08061404
-0.07820021 0.056091186 0.10542954 -0.08579121 0.056143284 0.18301119 0.007409804 -0.074584894
0.06476935 -0.07887257 -0.026407702 0.02670574 -0.07909289 0.10175412 -0.12081882 0.05437975
-0.06106209 0.082031466 0.030462436 0.02277772 0.030447239 0.065543965 0.023649342 -0.10245877
-0.07830109 -0.024787044 -0.070380874 -0.0633307 -0.03582215 -0.06315098 -0.056178242 0.14787519
0.09300686 0.041306406 -0.013662868 -0.063898794 -0.0746477 -0.0330495 0.057183914 -0.010239754
-0.0923366 -0.06737589 -0.13881636 0.22280258 0.03802912 0.076850004 -0.072018385 -0.023635468
-0.014574577 -0.14895537 -0.08251683 -0.014100243 0.061153565 -0.023981757 0.057058703 0.08208729
-0.031782243 0.11057579 0.043373015 -0.04406492 -0.11669124 0.009246447 -0.12470874 0.07007942
-0.073770836 0.06536121 -0.053500682 -0.07358105 -0.010338094 0.017362174 -0.017086018 0.090380445
0.09588213 -0.07981048 0.05733382 -0.13486624 0.03582284 0.045379724 0.11314666 0.029827368
-0.15481117 -0.056241527 -0.027321436 -0.01960322 -0.109247304 0.07661028 -0.1040829 -0.11952355
-0.084799394 -0.015362203 0.030028086 0.030697877 -0.10037382 0.019070946 0.23455678 0.04463714
-0.035009824 0.14256732 -0.02659856 0.034866586 -0.10451456 0.08130864 0.26450425 -0.027866209
-0.10041684 -0.044145618 0.044561863 -0.062139876 -0.09923767 0.027280597 -0.3622332 -0.17397733
0.07100647 0.04669285 -0.10024963 -0.062651895 -0.005353392 0.07484995 -0.10055864 0.047988694
0.048645776 -0.019909477 0.15184319 -0.064315446 0.54573625 0.1319608 0.07065721 -0.12549862
0.10509497 0.011867195 0.07755867 0.097632274 -0.05505053 -0.2701942 -0.16840959 0.0060511096
-0.03031646 0.13703106 -0.021725371 0.05232632 -0.03316358 -0.25240922 -0.0072568515 -0.035040542
0.0109121185 0.04357516 -0.01228861 0.08462244 0.08627601 0.023197472 -0.030146146 -0.022035185
-0.06332011 0.11163973 0.048419286 0.08093194 -0.07894493 -0.0063579883 0.010375655 0.11002569
-0.13971953 0.050338347 0.027039902 0.07165602 0.046227235 -0.0821541 -0.16764306 0.06447156
0.24235779 0.076380625 -0.08653814 -0.005827131 0.06696907 0.03143998 0.033641923 -0.038380124
-0.068586476 0.051317267 0.16252466 0.13499807 -0.060768493 -0.07428937 -0.34296346 -0.123032995
-0.054911274 -0.09035128 -0.09556609 0.010408861 -0.037081864 -0.007590529 -0.13906655 -0.0766221
-0.104222514 0.10333004 -0.109441906 -0.059045754 0.069131896 0.1716114 -0.041178476 0.13816766
-0.018171858 -0.070840836 0.054410342 0.015575895 0.09493045 0.03190405 -0.09248775 0.05969251
0.07084471 0.012350008 0.04382982 -0.032532956 -0.08697056 -0.09128871 0.034224745 0.076691456
00000000: 0f80 2bbd a875 fe3d a4b1 d83d 5375 8cbd
00000010: 4c44 8e3d f94c c43c 8e39 7e3b 72f6 85bd
00000020: cdcf c33d 3861 84bd c91c bebb 16db 1e3c
00000030: fe94 b93c 7503 5f3d 5ba2 1cbe 04f5 c83d
00000040: c426 9e3d 9d08 193d 6c91 e2bd 7f29 ed3d
00000050: 0687 73bc aeed cfbd 91f8 1a3e 7637 c73d
00000060: 9f67 533d 8fb8 dd3d 0e59 17bd a938 eb3d
00000070: d94e b1bd dc71 c6bd 6abe ed3d 7a6a e43d
00000080: 21f1 edbd 7820 a13d 5d3c 3bbd 025c 41bd
00000090: 9325 20be 29c2 97bd 13a2 793d f918 a5bd
000000a0: 6f27 a0bd dfbf 653d 71eb d73d 4db3 afbd
000000b0: 80f6 653d 4967 3b3e f1cd f23b f7bf 98bd
000000c0: cba5 843d f187 a1bd f754 d8bc ffc5 da3c
000000d0: 74fb a1bd 7764 d03d dc6f f7bd 4dbd 5e3d
000000e0: 3e1c 7abd 1d00 a83d 5c8c f93c 5798 ba3c
000000f0: 7d6c f93c ea3b 863d 44bc c13c e7d5 d1bd
00000100: 525c a0bd 330e cbbc d923 90bd 87b3 81bd
00000110: 3fba 12bd 4d55 81bd 281b 66bd 986c 173e
00000120: 617a be3d e830 293d 39da 5fbc 5fdd 82bd
00000130: e5e0 98bd ea5e 07bd ae39 6a3d a4c4 27bc
00000140: f91a bdbd 5ffc 89bd e025 0ebe 5c26 643e
00000150: 6cc4 1b3d 8963 9d3d 607e 93bd 2b9f c1bc
00000160: 35ca 6ebc c287 18be 95fe a8bd b504 67bc
00000170: 297c 7a3d 6475 c4bc 63b6 693d 621d a83d
00000180: 192e 02bd 8f75 e23d e7a7 313d 6b7d 34bd
00000190: d1fb eebd 697e 173c 4c67 ffbd cd85 8f3d
000001a0: 2a15 97bd 19dc 853d 8823 5bbd a9b1 96bd
000001b0: 1c61 29bc 1e3b 8e3c faf7 8bbc 6219 b93d
000001c0: da5d c43d ad73 a3bd ded6 6a3d 601a 0abe
000001d0: f8ba 123d 17e0 393d 70b9 e73d 8658 f43c
000001e0: d286 1ebe 845d 66bd 34d1 dfbc ef96 a0bc
000001f0: 0dbd dfbd dae5 9c3d 6a29 d5bd c3c8 f4bd
00000200: 4eab adbd c0b1 7bbc 76fd f53c 1d7a fb3c
00000210: ca90 cdbd ac3a 9c3c a72f 703e 6fd5 363d
00000220: 7666 0fbd 2bfd 113e 39e5 d9bc 44d0 0e3d
00000230: bb0b d6bd 2585 a63d 1a6d 873e ad47 e4bc
00000240: 58a7 cdbd 09d2 34bd 8086 363d 6286 7ebd
00000250: 1f3d cbbd 8f7b df3c a176 b9be 1d27 32be
00000260: d76b 913d 0041 3f3d ae4f cdbd a34f 80bd
00000270: 826b afbb ee4a 993d b0f1 cdbd cb8f 443d
00000280: cb40 473d 3319 a3bc c87c 1b3e d1b7 83bd
00000290: 5fb5 0b3f bb20 073e bab4 903d b682 00be
000002a0: 083c d73d a06e 423c 14d7 9e3d 6ef3 c73d
000002b0: aa7c 61bd e556 8abe 9073 2cbe 6348 c63b
000002c0: 3a5a f8bc df51 0c3e 68f9 b1bc 2054 563d
000002d0: 89d6 07bd c83b 81be e2ca edbb ac86 0fbd
000002e0: bec8 323c de7b 323d 2b56 49bc 884e ad3d
000002f0: 7ab1 b03d a008 be3c 0df5 f6bc 2283 b4bc
00000300: f9ad 81bd 5fa3 e43d 4d53 463d a5bf a53d
00000310: e1ad a1bd ac56 d0bb a7fe 293c 2655 e13d
00000320: a312 0fbe 952f 4e3d c982 dd3c 64c0 923d
00000330: c558 3d3d 6940 a8bd 9faa 2bbe aa09 843d
00000340: a42c 783e 726d 9c3d e93a b1bd 85f1 bebb
00000350: 1427 893d 35c7 003d 1dcc 093d 7a34 1dbd
00000360: 1177 8cbd 0e32 523d dd6c 263e ef3c 0a3e
00000370: 62e8 78bd 0625 98bd e898 afbe b9f8 fbbd
00000380: a5ea 60bd 180a b9bd 27b8 c3bd ed89 2a3c
00000390: 27e3 17bd f9b9 f8bb 7667 0ebe 0cec 9cbd
000003a0: 9d72 d5bd b39e d33d 1423 e0bd f6d9 71bd
000003b0: 0695 8d3d e6ba 2f3e c3aa 28bd d37b 0d3e
000003c0: 26dd 94bc 0015 91bd 61dd 5e3d 0a32 7f3c
000003d0: e56a c23d d2ad 023d 386a bdbd 2280 743d
000003e0: 0817 913d b057 4a3c e686 333d 4741 05bd
000003f0: 9f1d b2bd 93f5 babd 3f2f 0c3d 6910 9d3d

fc.bias f4 [3]
0.033094432 -0.053240936 -0.10608757
00000000: 078e 073d 2b13 5abd 7144 d9bd

onnx::LSTM_183 f4 [1, 512, 9]
-0.008847299 0.061323006 0.07384061 -0.10111419 0.022842687 0.09424079 0.10199938 0.16288693
-0.03406426 0.009970847 0.104261294 -0.10524376 0.041335914 -0.18310747 -0.12024508 -0.12872636
0.017450575 0.11191946 0.03876013 0.12006607 -0.05912207 -0.21779078 -0.025200002 0.09871099
-0.078048415 0.12131325 0.18671466 0.00340426 0.24103528 0.10255376 -0.1725947 0.23458725
-0.024177598 0.1406244 0.06637613 -0.073235616 -0.0136849675 -0.089655675 -0.12055328 -0.005204466
0.042527426 -0.18084429 -0.14875655 0.09697796 -0.14416525 -0.056235667 -0.025135083 -0.08585647
-0.09057947 -0.11901276 -0.072805375 -0.21558428 0.19120872 0.057053596 0.2266693 0.09865229
-0.20139569 0.014542359 0.027834883 0.12830913 -0.14267342 -0.2799188 0.0077625695 0.023487559
-0.035447843 -0.033909068 -0.25212738 0.047804955 0.10687763 0.070557274 0.05110743 -0.18429331
0.06831535 -0.26748633 0.034327257 -0.07094162 -0.01662725 -0.09621374 0.1305136 0.014642848
-0.121979214 0.05292867 0.08439967 0.020806514 0.06823458 -0.18069586 0.2882986 -0.19567657
-0.07221778 0.28448325 0.0058581484 0.046377517 0.0437161 0.047938842 0.064607106 -0.18557884
-0.19821008 0.11732099 -0.001498131 0.15557368 -0.11857219 -0.0046873055 -0.15613939 -0.043767452
-0.11899211 0.08270832 0.16449463 -0.015536083 -0.04664018 -0.106723465 0.007513523 0.1432374
0.04400221 0.11837386 -0.08177015 -0.13919996 0.05648714 -0.011387708 -0.022881154 -0.091978714
0.031249302 -0.013247735 0.09815292 -0.17105192 -0.012617386 0.11152204 0.116128765 0.120001264
0.03181817 -0.17106658 0.06021433 -0.1985067 0.02623233 0.09934707 0.109091185 -0.031621017
-0.0652355 0.12589473 -0.068087004 0.058876827 -0.18812636 -0.082974754 0.096793376 0.09623608
0.0026569897 -0.0710006 -0.10228686 -0.036099847 0.015665341 0.07389455 -0.020686187 -0.043183006
-0.23076361 0.010473719 -0.15443532 -0.13028644 -0.02294171 -0.006110777 -0.029170964 -0.111223504
0.019318813 -0.019353336 -0.10389036 0.26264602 0.013898927 -0.04307117 0.072442405 0.0018514213
-0.0590132 0.028428793 0.03147417 -0.11510912 -0.05476603 0.044272564 -0.07763273 -0.1022377
-0.108543076 0.30756262 0.2225489 -0.098171495 0.04046361 0.2615136 -0.01404507 0.06155635
-0.23657304 0.11926296 -0.2796654 0.064837776 0.07566307 -0.01041017 0.051896594 -0.02320875
-0.0054239836 -0.020339599 -0.035936475 -0.08142308 -0.05480575 0.095403254 -0.08429546 0.014582687
0.044312667 0.19447117 -0.22508961 -0.09520022 -0.09618243 0.09761835 -0.13045931 -0.14781912
-0.13254465 0.100258894 -0.32079342 0.20402925 0.031204633 0.23894237 0.13951857 -0.16525412
0.061498426 0.06819658 -0.0012314481 -0.036151994 -0.20317993 0.09792155 -0.09955791 0.11741505
-0.24337128 0.06471696 0.21286722 -0.022016402 0.0352464 0.14263114 0.13518786 -0.22639273
-0.10212487 0.03559069 0.08254725 0.18398641 0.10558846 -0.17919853 -0.050276548 0.10097081
0.16173083 -0.068769656 -0.06330292 0.09017147 0.13670312 -0.00818961 0.09335075 -0.06659727
-0.29633406 -0.11627236 0.20321217 0.0008426395 -0.12567993 0.03553236 0.053131673 0.14909524
00000000: 43f4 10bc d52d 7b3d bf39 973d f514 cfbd
00000010: 9620 bb3c 5101 c13d 0de5 d03d d5cb 263e
00000020: f786 0bbd c35c 233c f286 d53d 0a8a d7bd
00000030: d94f 293d 8680 3bbe 0d43 f6bd d8d0 03be
00000040: 82f4 8e3c 0836 e53d f1c2 1e3d 33e5 f53d
00000050: fc29 72bd 8c04 5fbe 3c70 cebc fd28 ca3d
00000060: d9d7 9fbd 1573 f83d 2132 3f3e 011a 5f3b
00000070: f4d1 763e b507 d23d aabc 30be a437 703e
00000080: 1910 c6bc d8ff 0f3e 35f0 873d 8efc 95bd
00000090: ea36 60bc 659d b7bd a3e4 f6bd 3a8a aabb
000000a0: 3d31 2e3d 3f2f 39be a353 18be 619c c63d
000000b0: 0ea0 13be 5f57 66bd 17e8 cdbc 84d5 afbd
000000c0: bb81 b9bd f6bc f3bd fc1a 95bd 20c2 5cbe
000000d0: 38cc 433e 08b1 693d ff1b 683e 360a ca3d
000000e0: ac3a 4ebe 1343 6e3c fb05 e43c 7863 033e
000000f0: fb18 12be 8451 8fbe 275d fe3b fb68 c03c
00000100: c231 11bd 3ce4 0abd d716 81be 21cf 433d
00000110: a9e2 da3d 5580 903d 0656 513d 63b7 3cbe
00000120: ebe8 8b3d f8f3 88be bd9a 0c3d d749 91bd
00000130: df35 88bc b60b c5bd 5ba5 053e 8ee8 6f3c
00000140: 3dd0 f9bd bccb 583d bcd9 ac3d 6c72 aa3c
00000150: 92be 8b3d 5608 39be e09b 933e 705f 48be
00000160: eae6 93bd caa7 913e b6f5 bf3b 5af6 3d3d
00000170: a70f 333d 855b 443d bb50 843d 6108 3ebe
00000180: 95f7 4abe fd45 f03d ef5c c4ba b54e 1f3e
00000190: fad5 f2bd f897 99bb 01e3 1fbe 8045 33bd
000001a0: 23b2 f3bd fb62 a93d 4871 283e 0e8b 7ebc
000001b0: c609 3fbd d591 dabd 0034 f63b d3ac 123e
000001c0: a93b 343d ff6d f23d 1c77 a7bd 6f8a 0ebe
000001d0: 0f5f 673d 8293 3abc 4271 bbbc 565f bcbd
000001e0: 89fe ff3c 070d 59bc 6604 c93d 3c28 2fbe
000001f0: 27b9 4ebc ab65 e43d ebd4 ed3d 39c3 f53d
00000200: c553 023d 142c 2fbe 4da3 763d 5745 4bbe
00000210: 2fe5 d63c 7a76 cb3d 336b df3d 0a85 01bd
00000220: 319a 85bd 8cea 003e 3371 8bbd d428 713d
00000230: 32a4 40be abee a9bd 9b3b c63d 6c17 c53d
00000240: e420 2e3b c368 91bd c67b d1bd 6fdd 13bd
00000250: 9a54 803c 0756 973d 1476 a9bc aae0 30bd
00000260: 4c4d 6cbe f699 2b3c 4b24 1ebe cf69 05be
00000270: 41f0 bbbc ea3c c8bb f2f7 eebc 26c9 e3bd
00000280: 7d42 9e3c e38a 9ebc 78c4 d4bd 8a79 863e
00000290: 53b8 633c 656b 30bd af5c 943d 64ab f23a
000002a0: d3b7 71bd 80e3 e83c 0feb 003d 55be ebbd
000002b0: 5852 60bd 2657 353d e9fd 9ebd 0062 d1bd
000002c0: d54b debd d978 9d3e dce3 633e 230e c9bd
000002d0: 2cbd 253d 1ce5 853e 4b1d 66bc 8322 7c3d
000002e0: 3440 72be 2440 f43d 4e30 8fbe abc9 843d
000002f0: 3df5 9a3d 6b8f 2abc 8691 543d 4720 bebc
00000300: acbb b1bb 3b9f a6bc 2032 13bd 25c1 a6bd
00000310: fe7b 60bd c862 c33d 19a3 acbd 39ec 6e3c
00000320: 3381 353d 7323 473e e47d 66be 55f8 c2bd
00000330: 4bfb c4bd 21ec c73d 2097 05be e55d 17be
00000340: c9b9 07be 8954 cd3d 093f a4be 0bed 503e
00000350: dca0 ff3c 4fad 743e f5dd 0e3e 6038 29be
00000360: c6e5 7b3d a6aa 8b3d 8b68 a1ba 1d14 14bd
00000370: 660e 50be 188b c83d 04e5 cbbd 4d77 f03d
00000380: 5236 79be 538a 843d ddf9 593e be5b b4bc
00000390: 875e 103d e60d 123e b06e 0a3e 7fd3 67be
000003a0: d826 d1bd 8bc7 113d 880e a93d ef66 3c3e
000003b0: c33e d83d d27f 37be c8ee 4dbd c9c9 ce3d
000003c0: c49c 253e 1bd7 8cbd f6a4 81bd d2ab b83d
000003d0: e7fb 0b3e b72d 06bc ae2e bf3d 2664 88bd
000003e0: 19b9 97be 3420 eebd da16 503e 94e4 5c3a
000003f0: 3db2 00be 618a 113d 99a0 593d 6cac 183e

onnx::LSTM_184 f4 [1, 512, 128]
0.002451676 0.1433979 0.0338931 -0.0676042 -0.06629301 0.023810325 0.08590125 -0.10708792
-0.008976422 -0.11737957 -0.14546998 0.091935985 -0.022475658 0.11718786 0.08900286 -0.0045435983
0.09849978 -0.078254774 0.012972065 0.14815748 0.05928235 -0.04873277 -0.081285216 -0.10022736
0.03411686 -0.09893459 0.016006121 -0.17131051 0.008909881 -0.13463879 -0.029761659 0.00782134
-0.08120255 0.14151366 0.034175575 0.07167037 0.020465782 -0.1156143 0.20593236 0.035598833
-0.026582941 0.09207451 -0.010939733 -0.04670058 0.03997021 0.019428182 0.051393416 -0.19812675
-0.0063362843 -0.07008454 -0.051514216 -0.11266046 -0.101236805 -0.0044708545 0.09168914 -0.032583132
-0.061299857 -0.04621304 0.045956526 0.012301536 0.0647523 0.10561699 -0.08504079 -0.052445214
-0.06162013 0.012984435 -0.13387723 0.08233988 0.043731116 0.050891522 -0.0025566355 0.16341703
0.0057305465 0.11608432 -0.031601846 0.1113073 0.0070546977 0.03956025 0.099154904 0.081776075
-0.015557536 0.07437191 -0.0013158524 -0.19566028 0.043485407 -0.007040442 -0.010835573 -0.07433919
0.0529298 0.041884888 0.05198421 -0.038374793 0.02739 0.017060772 0.09177309 -0.056473233
0.11619632 0.0380397 -0.059387878 0.06889063 -0.03983408 -0.020532917 -0.08196514 -0.17506526
-0.114550434 0.0913362 -0.019219693 0.040195204 -0.05100981 0.03447582 0.012326139 -0.18951142
-0.120816536 0.07990762 0.022820456 0.038173225 -0.033650637 -0.15084377 0.024622075 -0.119813204
-0.011239673 0.041699253 -0.01594562 0.07298604 0.17529257 -0.060943976 -0.07102688 -0.041521914
-0.029309027 0.007846548 0.031060992 -0.0073914723 0.029298164 0.024400007 0.047503985 -0.112394586
-0.054928984 -0.0065709725 0.14136091 -0.09284468 0.10537118 0.027696598 0.048690625 -0.07739031
0.00684579 -0.09208556 0.0411898 -0.10376338 0.025520463 0.07809163 0.059286587 -0.04431678
0.01542233 -0.019719562 -0.08865114 0.12254791 -0.028065544 0.106190175 0.0805167 -0.017358957
0.116125464 0.00720926 0.14148216 0.027188167 -0.01886187 -0.09118303 -0.08504051 0.0720697
0.027598869 -0.009551631 0.026707571 -0.079778045 -0.047951903 0.04028485 0.025644084 -0.038973976
0.0031241484 -0.0011776043 -0.014858767 -0.030189868 0.048498947 -0.08607665 0.039484885 -0.12815306
0.039946713 -0.0010293326 -0.0042759595 0.024178209 0.07836955 0.080193676 -0.051954474 0.005312811
0.017410303 -0.07102719 0.1293471 0.026380593 -0.04528169 0.020573916 -0.030198935 -0.037929803
0.03095442 0.039811786 0.0047899853 0.10063096 0.070307694 -0.05241765 -0.096173406 -0.088985786
0.037323613 0.068520695 -0.04148455 0.046472114 0.037585452 0.09738907 -0.015646378 0.07960289
0.008876843 0.07197143 0.09999221 -0.06970329 0.009311755 -0.053990893 0.059623096 0.0028799183
0.059882034 -0.025071086 -0.0072638746 0.04398814 -0.09504717 -0.069221355 -0.059577662 -0.08871597
-0.0050573996 0.009151982 0.044571113 0.119321905 -0.0036715663 0.082413204 -0.021129088 -0.040639497
-0.07347145 0.09165851 -0.0579177 0.0638179 -0.032776393 0.017243292 0.04006435 0.0866042
0.020363769 -0.0989994 0.025663486 0.006230256 -0.09361979 0.015949924 0.0058031105 0.058886822
00000000: 4cac 203b e6d6 123e 7ed3 0a3d 1274 8abd
00000010: a1c4 87bd df0d c33c ffec af3d e950 dbbd
00000020: d811 13bc b364 f0bd 15f6 14be ef48 bc3d
00000030: df1e b8bc 3000 f03d 2247 b63d 77e2 94bb
00000040: 41ba c93d 0a44 a0bd c988 543c 98b6 173e
00000050: 0dd2 723d 039c 47bd dd78 a6bd 0144 cdbd
00000060: 1fbe 0b3d 389e cabd 451f 833c 066c 2fbe
00000070: c0fa 113c c0de 09be b9ce f3bc 1425 003c
00000080: 864d a6bd f5e8 103e b0fb 0b3d eac7 923d
00000090: dba7 a73c 31c7 ecbd efdf 523e 15d0 113d
000000a0: 78c4 d9bc 9091 bc3d 913c 33bc 1b49 3fbd
000000b0: ceb7 233d da27 9f3c e781 523d bde1 4abe
000000c0: 9ba0 cfbb 7c88 8fbd 9200 53bd 87ba e6bd
000000d0: 3e55 cfbd 3f80 92bb 84c7 bb3d e475 05bd
000000e0: 8f15 7bbd e249 3dbd e93c 3c3d 628c 493c
000000f0: db9c 843d b84d d83d de29 aebd cbd0 56bd
00000100: 6465 7cbd abbc 543c 1d17 09be d0a1 a83d
00000110: 661f 333d a173 503d 3a8d 27bb cb56 273e
00000120: 4fc7 bb3b 9ebd ed3d f070 01bd 15f5 e33d
00000130: 182b e73b ee09 223d ba11 cb3d 377a a73d
00000140: 09e5 7ebc 4d50 983d ae78 acba 2b5b 48be
00000150: c11d 323d 82b3 e6bb b087 31bc 253f 98bd
00000160: ebcc 583d 7d8f 2b3d 65ed 543d e32e 1dbd
00000170: fe60 e03c 08c3 8b3c 88f3 bb3d 7a50 67bd
00000180: 56f8 ed3d 84cf 1b3d b440 73bd 8816 8d3d
00000190: 0f29 23bd a634 a8bc 57dd a7bd 4f44 33be
000001a0: 6b99 eabd 790e bb3d 9e72 9dbc baa3 243d
000001b0: aaef 50bd 8436 0d3d 93f3 493c 480f 42be
000001c0: a96e f7bd 9ba6 a33d f7f1 ba3c 875b 1c3d
000001d0: 40d5 09bd ca76 1abe 3cb4 c93c a060 f5bd
000001e0: 9b26 38bc d6cc 2a3d 64a0 82bc b479 953d
000001f0: e57f 333e 64a0 79bd 8a76 91bd e212 2abd
00000200: 7c19 f0bc cf8e 003c 9f73 fe3c 2a34 f2bb
00000210: b402 f03c 86e2 c73c 8a93 423d 222f e6bd
00000220: 37fd 60bd 5051 d7bb eac0 103e 5a25 bebd
00000230: d8cc d73d fae3 e23c d26f 473d d07e 9ebd
00000240: a652 e03b 5b97 bcbd a3b6 283d e581 d4bd
00000250: 4a10 d13c 81ee 9f3d 7ed6 723d 8385 35bd
00000260: f1ad 7c3c eb8a a1bc bb8e b5bd 66fa fa3d
00000270: b6e9 e5bc 3c7a d93d f1e5 a43d 5f34 8ebc
00000280: 30d3 ed3d a83b ec3b b3e0 103e b8b9 de3c
00000290: 3584 9abc 2bbe babd b829 aebd 4799 933d
000002a0: 0617 e23c 727e 1cbc d6c9 da3c ac62 a3bd
000002b0: 3769 44bd ba01 253d 8b13 d23c 2da3 1fbd
000002c0: 83be 4c3b d859 9aba 3072 73bc be50 f7bc
000002d0: d5a6 463d f448 b0bd e7ba 213d 8e3a 03be
000002e0: 2a9f 233d acea 86ba 591d 8cbb 6111 c63c
000002f0: 3780 a03d 953c a43d 37ce 54bd 1717 ae3b
00000300: 0da0 8e3c b476 91bd 9173 043e 1d1c d83c
00000310: 4b79 39bd a18a a83c c263 f7bc 485c 1bbd
00000320: 2094 fd3c af11 233d 4ff5 9c3b 9b17 ce3d
00000330: 7bfd 8f3d e4b3 56bd 90f6 c4bd 2e3e b6bd
00000340: a5e0 183d 9454 8c3d b4eb 29bd 8b59 3e3d
00000350: 34f3 193d ec73 c73d d52c 80bc d706 a33d
00000360: 2e70 113c c265 933d b7c8 cc3d 99c0 8ebd
00000370: 5590 183c 8e25 5dbd 5937 743d 03bd 3c3b
00000380: dd46 753d e161 cdbc cc05 eebb e82c 343d
00000390: 17a8 c2bd edc3 8dbd b507 74bd b8b0 b5bd
000003a0: 8bb8 a5bb 32f2 153c 3390 363d 0b5f f43d
000003b0: a99e 70bb 41c8 a83d e916 adbc 9a75 26bd
000003c0: 3378 96bd 75b7 bb3d 1c3b 6dbd f6b2 823d
000003d0: 8a40 06bd ce41 8d3c 841a 243d 8b5d b13d
000003e0: ebd1 a63c 33c0 cabd 3b3c d23c 2d27 cc3b
000003f0: bcbb bfbd 6aa9 823c 0528 be3b 4f33 713d

onnx::LSTM_185 f4 [1, 1024]
-0.0053495825 0.0039629326 -0.029381664 0.045386393 -0.106345676 -0.10268316 -0.06160441 0.11307188
-0.06511888 0.021237765 0.053150065 0.080057375 0.06158962 -0.086024426 0.023526166 -0.046704747
-0.029542144 -0.034918502 -0.030588277 0.010043246 -0.078534424 0.05132767 0.08567368 0.06486125
0.050974254 -0.034724362 0.056087445 -0.066210456 -0.07054601 0.08780964 -0.022660647 0.024016542
0.0704125 -0.047649156 -0.07783797 0.003938083 -0.09696663 0.05122388 -0.10049638 0.037927587
-0.00064 -0.047932588 0.007973456 0.087567285 -0.090436645 0.070936024 -0.015470964 0.0840196
0.061255977 -0.06606192 0.027161485 0.09457444 0.0047931834 -0.08043377 0.017346865 -0.12017072
-0.09337945 -0.047686655 0.030418804 -0.035481814 0.052590277 6.504107e-05 0.0028180925 -0.048276585
-0.020074224 -0.07843709 -0.073697664 -0.10973925 -0.044814475 -0.021491164 -0.031328768 0.022646999
0.0032814862 0.008263234 -0.063532 0.069161884 0.026817366 -0.04013447 -0.0117070535 -0.055967577
-0.08380008 -0.072483435 -0.086790316 -0.083444715 -0.06156055 -0.03538526 -0.037666336 -0.045434766
-0.05791121 0.0071169073 -0.04384514 -0.029679816 -0.030938193 -0.0134877 0.033149015 0.08258371
-0.07316897 0.021584677 -0.021023596 0.04254046 -0.07309128 0.017565742 0.014394463 -0.067765124
-0.048845362 -0.11156891 -0.024452081 0.029950405 -0.04721923 -0.01919863 -0.20366535 0.022869894
-0.017620385 0.003713372 0.074873224 0.052198187 -0.016851233 -0.043971032 0.04260516 -0.079270475
-0.021020371 0.043762416 -0.03259527 0.04948125 -0.030634677 0.039024968 0.04583498 -0.05540721
0.06503459 0.013585914 0.10069808 -0.060246054 0.061780334 -0.03619163 0.016273208 0.08941873
0.072122276 0.0785123 -0.08911335 -0.0027238503 0.02964133 -0.050740507 0.005257005 0.0038895425
0.0063701193 0.006795838 0.062319983 -0.11818341 -0.0567283 -0.031935412 0.047962893 0.12495567
-0.06855361 -0.08094679 -0.11925522 -0.029333761 -0.052873284 0.011127904 0.020246604 -0.12191211
0.028877366 -0.087651506 -0.052993257 0.05266428 -0.058062762 -0.077532545 0.05036262 0.046272237
0.15136759 -0.005539182 0.04076006 0.06774943 -0.012303201 -0.0018502235 -0.08480328 0.12794116
0.07859116 -0.059061904 -0.107313655 0.094213866 0.012205811 0.05353367 0.015023048 0.058578968
0.014633893 0.004555123 -0.044084925 0.023552364 -0.030102672 0.07631531 -0.05455812 -0.017172135
-0.046594 0.0026356555 0.062361456 0.005440129 -0.027999712 -0.04358808 -0.06239893 -0.056690574
-0.0033879816 0.031348724 0.06063708 0.08502251 0.06390896 0.0006842087 -0.103518374 0.060571067
-0.0052074576 -0.02027645 -0.04544768 0.043475967 -0.06767911 -0.0075672218 -0.114040606 0.07421698
0.059816115 -0.043000482 -0.0608833 -0.07308299 -0.08736154 -0.13729247 0.14087516 0.03354922
-0.0752236 -0.055260904 0.04191764 0.09167949 -0.04709144 -0.091588095 0.0054659885 -0.09853834
0.06417234 -0.15193951 -0.054457504 0.037546407 0.07345731 0.07062797 -0.0065326267 0.057706673
-0.043479614 -0.0063031977 -0.060117174 0.031053208 -0.06967745 0.032412916 -0.059335176 0.05319789
0.010512775 0.12526375 -0.027999435 0.054755572 -0.09015115 0.09240315 -0.09596293 0.10818099
00000000: 8d4b afbb 7ddb 813b d1b1 f0bc 15e7 393d
00000010: c3cb d9bd 8c4b d2bd e854 7cbd 3b92 e73d
00000020: 0c5d 85bd d2fa ad3c e2b3 593d 1ff5 a33d
00000030: 6645 7c3d 932d b0bd f2b9 c03c 7a4d 3fbd
00000040: 5e02 f2bc b406 0fbd 4494 fabc 6d8c 243c
00000050: a8d6 a0bd f73c 523d af75 af3d fad5 843d
00000060: 61ca 503d 223b 0ebd f3bb 653d 5999 87bd
00000070: 6d7a 90bd 8ad5 b33d d2a2 b9bc 57be c43c
00000080: 6e34 903d c32b 43bd 8369 9fbd 090b 813b
00000090: 7196 c6bd 22d0 513d 0cd1 cdbd f559 1b3d
000000a0: acc5 27ba f654 44bd 19a3 023c 7a56 b33d
000000b0: d936 b9bd e846 913d ed79 7dbc 7812 ac3d
000000c0: 8ce7 7a3d 794b 87bd c381 de3c 3eb0 c13d
000000d0: 2310 9d3b 76ba a4bd 031b 8e3c 111c f6bd
000000e0: ba3d bfbd 1553 43bd db30 f93c 6155 11bd
000000f0: e768 573d a966 8838 bfaf 383b abbd 45bd
00000100: b372 a4bc a0a3 a0bd cdee 96bd f9be e0bd
00000110: 628f 37bd 3d0e b0bc 9852 00bd 3386 b93c
00000120: 340e 573b 8462 073c 111d 82bd bfa4 8d3d
00000130: 18b0 db3c 0b64 24bd f1ce 3fbc 423e 65bd
00000140: 609f abbd 3272 94bd 1fbf b1bd 10e5 aabd
00000150: ea26 7cbd 22f0 10bd 0448 1abd ce19 3abd
00000160: 4e34 6dbd f234 e93b f696 33bd 1623 f3bc
00000170: 1872 fdbc 84fb 5cbc 43c7 073d a621 a93d
00000180: 9dd9 95bd 59d2 b03c ad39 acbc e83e 2e3d
00000190: e2b0 95bd 08e6 8f3c c1d6 6b3c 71c8 8abd
000001a0: 1312 48bd 3e7e e4bd bb4f c8bc 8d5a f53c
000001b0: f468 41bd 7246 9dbc a68d 50be a559 bb3c
000001c0: a058 90bc 0b5c 733b 2257 993d c4cd 553d
000001d0: 990b 8abc f81a 34bd c082 2e3d 8f58 a2bd
000001e0: ea32 acbc 3840 333d 9e82 05bd daac 4a3d
000001f0: 93f5 fabc a5d8 1f3d 76bd 3b3d acf2 62bd
00000200: db30 853d 7497 5e3c cc3a ce3d 91c4 76bd
00000210: 600d 7d3d ad3d 14bd 644f 853c 2b21 b73d
00000220: d8b4 933d 0fcb a03d 0f81 b6bd a082 32bb
00000230: 60d2 f23c 47d5 4fbd f442 ac3b b2e7 7e3b
00000240: 6fbc d03b 9faf de3b 3d43 7f3d 250a f2bd
00000250: ef5b 68bd b5ce 02bd bd74 443d c2e8 ff3d
00000260: d665 8cbd 6ec7 a5bd 153c f4bd 5b4d f0bc
00000270: a891 58bd d051 363c 35dc a53c 0ead f9bd
00000280: 3a90 ec3c a282 b3bd 750f 59bd 80b6 573d
00000290: 38d3 6dbd 62c9 9ebd 0949 4e3d f587 3d3d
000002a0: 1b00 1b3e 0782 b5bb 05f4 263d 37c0 8a3d
000002b0: 5d93 49bc 3383 f2ba 58ad adbd 0203 033e
000002c0: 67f4 a03d e5ea 71bd 43c7 dbbd 33f3 c03d
000002d0: e2fa 473c 1f46 5b3d 3b23 763c 80f0 6f3d
000002e0: ffc2 6f3c 2443 953b 6592 34bd e3f0 c03c
000002f0: e199 f6bc 344b 9c3d 5678 5fbd 94ac 8cbc
00000300: 5ad9 3ebd f6ba 2c3b ba6e 7f3d 1c43 b23b
00000310: a75f e5bc 6a89 32bd 0596 7fbd 6034 68bd
00000320: e608 5ebb 8567 003d 965e 783d 4820 ae3d
00000330: b3e2 823d 785c 333a 7101 d4bd 5e19 783d
00000340: 52a3 aabb cc1a a6bc 5927 3abd db13 323d
00000350: 589b 8abd 75f6 f7bb 1f8e e9bd 12ff 973d
00000360: be01 753d 4621 30bd c460 79bd 89ac 95bd
00000370: 9bea b2bd 6696 0cbe 9441 103e e86a 093d
00000380: d50e 9abd 4259 62bd d5b1 2b3d 75c2 bb3d
00000390: f4e2 40bd 8a92 bbbd 091c b33b 78ce c9bd
000003a0: ca6c 833d 0896 1bbe d50e 5fbd 43ca 193d
000003b0: c970 963d 66a5 903d a50f d6bb d55d 6c3d
000003c0: ae17 32bd 0e8b cebb 6d3d 76bd 4c63 fe3c
000003d0: 0db3 8ebd 68c3 043d 7109 73bd 08e6 593d
000003e0: c63d 2c3c 2445 003e 125f e5bc 6147 603d
000003f0: 2ba1 b8bd dd3d bd3d 3688 c4bd ff8d dd3d

onnx::LSTM_203 f4 [1, 512, 128]
-0.06918297 0.02590243 0.0658195 0.0015572266 0.030704768 0.105996884 -0.03247353 0.11800412
-0.019369058 -0.039772015 0.011404963 -0.040770352 -0.116569795 0.013609894 -0.06315756 -0.0385638
-0.04738042 0.08913664 0.006532312 0.03998115 -0.022021478 -0.024557816 0.106325254 0.106527045
-0.04218848 -0.038235154 -0.027769666 -0.020868232 0.027101394 0.015647138 0.025375431 0.074297585
0.06964436 0.041224997 -0.009746043 0.030432994 0.0031695338 0.12096263 -0.055893496 -0.04423527
0.10555388 0.08823769 0.034876682 -0.043339755 0.045729775 -0.009325202 -0.032731585 0.037461627
-0.06517955 -0.06364749 0.06613547 0.02309008 -0.04368288 0.048510708 -0.053837195 0.14278677
0.1347915 0.024574285 -0.06891855 0.02082285 0.08028608 0.0115779815 0.06279561 -0.071683936
-0.044449415 -0.07555583 0.061396923 -0.11886304 0.010871699 0.010649574 -0.0834328 -0.022430563
0.07100644 0.046400312 -0.01697418 -0.049909275 0.026190452 0.10219216 0.08012226 0.12736729
0.010184277 -0.083403714 -0.06567909 0.012160842 -0.0681585 -0.051945377 0.004226557 0.0058086407
0.05863603 0.06287587 0.004204444 0.0883067 0.12189205 0.029744465 -0.0029316405 -0.00041336167
-0.024504114 0.053570192 -0.06475768 0.019905701 -0.03471454 0.021418303 0.10742631 -0.08117329
0.020512423 0.026763259 -0.113330856 -0.15724702 -0.0020595922 -0.040952176 0.02415525 -0.028751958
0.09138618 -0.044856414 0.05197425 0.03927869 -0.036100242 0.11371297 0.021115638 0.0069269543
-0.027807036 0.09994938 0.11067791 0.11541641 -0.03810524 0.05073572 0.08722661 0.0055518597
-0.14213592 -0.04577305 0.009027624 -0.09394861 -0.068404734 -0.007231033 0.19241938 -0.038982544
0.06326473 0.08067818 0.025675757 -0.0067897104 -0.026516136 -0.09103624 0.062242225 0.054460917
-0.12008921 0.019963296 -0.16806479 0.016564611 -0.029005703 0.09262089 0.13147667 0.01620736
-0.10961577 0.06857325 0.029268043 0.06205524 -0.01518161 -0.071125194 -0.035835575 -0.13339815
-0.10036946 0.016593078 0.13006872 0.06322389 -0.096900776 -0.0837755 0.055284224 -0.0147129875
-0.112831704 -0.07220864 -0.0073421225 0.041281033 0.04855724 0.18482982 0.13130485 0.03807557
0.094970666 0.10452944 0.10274845 -0.09322932 0.12859777 0.07581975 0.13492854 0.038897917
-0.10624607 0.1102134 -0.011584996 0.027816074 0.0642146 0.07562448 0.0007556187 0.070806324
0.04535471 -0.0075487406 0.029855704 0.055864733 -0.034386743 0.033186115 -0.035547584 0.034741834
-0.056729086 -0.05631383 -0.047268488 0.036527198 -0.1424763 -0.007540018 -0.12878485 0.122257
0.028041441 -0.004192767 0.07956276 -0.014860985 0.03371486 0.062466536 0.0029681353 0.030982036
-0.01666538 -0.039514538 0.08885215 0.0701168 0.066071235 0.07708732 -0.052885856 0.16140588
0.0038656841 5.044525e-06 0.039430518 -0.02112951 0.06522895 -0.017782906 0.026709773 0.10452114
0.08862512 -0.020886207 -0.040332302 -0.015168139 0.014074006 -0.0016820411 0.09928728 -0.09998082
-0.01952044 0.007459673 -0.08842738 -0.0899872 -0.023029534 -0.07727094 0.019100884 -0.00048036195
0.12603952 -0.045271084 -0.04075081 -0.1457879 -0.062573016 -0.06252001 -0.011522014 -0.13167293
00000000: cdaf 8dbd 5531 d43c 60cc 863d db1b cc3a
00000010: 9188 fb3c e514 d93d f702 05bd 25ac f13d
00000020: dcab 9ebc fbe7 22bd e2db 3a3c d0fe 26bd
00000030: 25bc eebd 08fc 5e3c c058 81bd 13f5 1dbd
00000040: f911 42bd 458d b63d 010d d63b 46c3 233d
00000050: 6366 b4bc 792d c9bc 0ec1 d93d da2a da3d
00000060: d4cd 2cbd 779c 1cbd 367d e3bc dbf3 aabc
00000070: be03 de3c 6d2e 803c 23e0 cf3c 5529 983d
00000080: b4a1 8e3d 8bdb 283d dead 1fbc 9d4e f93c
00000090: f4b7 4f3b 41bb f73d 94f0 64bd 0b30 35bd
000000a0: a22c d83d f6b5 b43d dada 0e3d 0785 31bd
000000b0: 254f 3b3d bbc8 18bc 8e11 06bd 5d71 193d
000000c0: db7c 85bd 9e59 82bd 0972 873d 6827 bd3c
000000d0: d2ec 32bd 2ab3 463d 6484 5cbd b236 123e
000000e0: c806 0a3e 0350 c93c 2b25 8dbd ae94 aa3c
000000f0: 076d a43d 93b1 3d3c fc9a 803d 07cf 92bd
00000100: 9710 36bd 04bd 9abd 577b 7b3d 776e f3bd
00000110: 361f 323c 8d7b 2e3c d1de aabd 4dc0 b7bc
00000120: d36b 913d 410e 3e3d 6f0d 8bbc ab6d 4cbd
00000130: 5c8d d63c 204a d13d 2417 a43d 926c 023e
00000140: f4db 263c 91cf aabd c282 86bd 453e 473c
00000150: af96 8bbd adc4 54bd ee7e 8a3b 6956 be3b
00000160: 552c 703d 10c5 803d 6fc5 893b 25da b43d
00000170: 8aa2 f93d aaaa f33c c420 40bb 77b8 d8b9
00000180: dabc c8bc 6b6c 5b3d ad9f 84bd 4811 a33c
00000190: d530 0ebd 7075 af3c 5302 dc3d 2f3e a6bd
000001a0: ab09 a83c 9f3e db3c 021a e8bd 5d05 21be
000001b0: 39fa 06bb 78bd 27bd 3be1 c53c 3a89 ebbc
000001c0: ad28 bb3d 5cbb 37bd f3e2 543d b1e2 203d
000001d0: d9dd 13bd 58e2 e83d b4fa ac3c 81fb e23b
000001e0: 95cb e3bc 43b2 cc3d 1aab e23d 705f ec3d
000001f0: 3d14 1cbd 42d0 4f3d dda3 b23d 60ec b53b
00000200: 148c 11be 867c 3bbd 99e8 133c 2168 c0bd
00000210: c817 8cbd 4df2 ecbb 9609 453e 29ac 1fbd
00000220: f090 813d 9a3a a53d f755 d23c 387c debb
00000230: 5e38 d9bc 3571 babd b4f1 7e3d 6912 5f3d
00000240: 55f1 f5bd 118a a33c 2d19 2cbe 82b2 873c
00000250: 5e9d edbc 05b0 bd3d d2a1 063e 4cc5 843c
00000260: 3c7e e0bd 2270 8c3d 89c3 ef3c a32d 7e3d
00000270: 4abc 78bc 16aa 91bd 53c8 12bd 8699 08be
00000280: 818e cdbd 35ee 873c bc30 053e 877b 813d
00000290: ea73 c6bd 7d92 abbd b671 623d be0e 71bc
000002a0: 4f14 e7bd 20e2 93bd 3096 f0bb 4d16 293d
000002b0: f5e3 463d 0744 3d3e c774 063e 21f5 1b3d
000002c0: fb7f c23d 8813 d63d c86d d23d 04ef bebd
000002d0: 22af 033e 6347 9b3d b52a 0a3e 6c53 1f3d
000002e0: 8a97 d9bd 90b7 e13d ffce 3dbc 89de e33c
000002f0: f282 833d 02e1 9a3d b614 463a e802 913d
00000300: dcc5 393d 6d5b f7bb f393 f43c 6bd2 643d
00000310: 1dd9 0cbd 2aee 073d 589a 11bd 744d 0e3d
00000320: c25c 68bd 55a9 66bd 9a9c 41bd 8b9d 153d
00000330: 4fe5 11be 4112 f7bb 2de0 03be e161 fa3d
00000340: 2ab7 e53c 7b63 89bb cdf1 a23d 7d7b 73bc
00000350: 9818 0a3d e9dc 7f3d 0c85 423b 0ace fd3c
00000360: d685 88bc ffd9 21bd 1ef8 b53d 6699 8f3d
00000370: 5b50 873d f5df 9d3d d79e 58bd 9547 253e
00000380: 6b57 7d3b 2444 a936 e581 213d cb17 adbc
00000390: c196 853d 75ad 91bc 74ce da3c 2e0f d63d
000003a0: 1681 b53d 8d19 abbc 7c33 25bd c983 78bc
000003b0: a996 663c ef77 dcba 2157 cb3d bfc2 ccbd
000003c0: 54e9 9fbc 4670 f43b 6a19 b5bd 364b b8bd
000003d0: 6fa8 bcbc 3a40 9ebd 7579 9c3c 17d9 fbb9
000003e0: 8110 013e 2c6e 39bd 52ea 26bd 6c49 15be
000003f0: 4826 80bd 7e0a 80bd d4c6 3cbc 45d5 06be

onnx::LSTM_204 f4 [1, 512, 128]
0.026440056 -0.07586666 -0.032324143 0.035086367 -0.053588696 -0.08588746 -0.055287965 -0.064561985
-0.04816654 -0.06366721 -0.0920145 0.0034704835 -0.06316887 0.08487577 -0.0061944923 -0.13728188
-0.019892175 -0.088594936 0.063358285 -0.057947207 -0.08221343 -0.014605698 0.041729674 0.027688744
0.032218955 -0.0670776 0.0311888 -0.041477885 -0.024019541 0.02657825 -0.05653238 -0.11242834
-0.061471302 -0.014615619 0.09236974 0.009975591 -0.059052493 0.11845376 -0.020555854 0.067946635
0.080508955 -0.016435828 0.032136776 0.022854771 0.040560566 -0.1068405 -0.0322715 0.07298118
-0.0035440496 0.02401159 0.066643015 -0.01011903 0.061766695 -0.08450797 0.0625453 -0.055920158
0.065076694 0.076988 -0.019586757 -0.001141823 -0.022358565 0.049640715 -0.07101511 -0.029858576
0.043016892 0.034295507 0.08892472 -0.051485088 -0.09395893 -0.015380272 -0.035800412 -0.0106554
-0.04107649 0.12468078 0.052607425 0.025142772 0.007861763 -0.08378741 0.054302014 -0.042822145
0.046520147 0.06148234 0.012066423 -0.029777803 -0.08508142 -0.014750572 0.0012334975 -0.029229479
-0.11175057 0.109132096 0.07529682 0.0094698295 -0.16207694 -0.05290087 -0.09929916 -0.019200902
0.025225574 -0.0483813 -0.075155936 0.060505994 0.050871026 -0.053264234 -0.044542223 0.031534396
-0.024749381 -0.026122222 -0.07211204 -0.12821858 0.02357289 0.1331785 0.019451397 -0.03267239
-0.045586064 0.045001645 0.05850274 0.05992588 -0.043612435 -0.0012715377 -0.06482893 0.031201389
0.042664483 0.047999322 -0.07166541 -0.07408863 0.09477905 -0.020116879 0.041131873 0.021619407
0.028433183 0.062379673 0.030041285 -0.01912636 -0.113472156 -0.022893155 0.057960533 0.0048017036
-0.17180969 0.007272208 -0.005480249 -0.10133457 -0.00825821 -0.0014057193 0.07998363 0.06557371
-0.06616168 -0.12722726 0.0002100497 0.108946264 -0.0716161 -0.018502945 -0.06533119 -0.09026663
0.014701899 -0.078988105 0.0783449 -0.04501573 0.03297391 0.0919239 0.024101805 0.02100368
0.036419347 -0.043202654 0.026733782 -0.037723593 0.09901673 0.010102908 -0.0055184443 -0.05964291
0.050191727 0.09374795 0.015509413 -0.006127304 -0.044368513 0.071347736 -0.0005753535 -0.14238839
-0.040437825 0.04060608 0.034177747 -0.09090122 0.067137666 0.049682144 0.08432976 0.084290944
-0.06607043 0.08469241 -0.107014254 0.065147385 -0.0068011745 0.062121347 -0.0014179485 -0.082106695
-0.0054316926 0.08264356 0.057612516 0.09032985 -0.07108094 -2.8690236e-05 -0.086735636 0.0040737274
0.029819587 -0.096132986 0.06768973 0.010650232 -0.020257017 -0.0054344423 0.08283947 -0.014387805
-0.019853776 0.0512763 -0.055383276 0.057901513 -0.007251183 0.023625005 0.0030513648 0.1506458
0.017749183 0.07423551 0.031737685 -0.06286043 0.040551364 -0.01933945 -0.030930456 0.047376323
-0.07587788 0.07534247 -0.06176835 -0.028042663 0.054211583 0.025703417 0.036264785 0.046718154
0.04989545 -0.015367069 -0.112572715 -0.11941612 -0.02371467 -0.06511556 0.047426805 0.021873536
0.11641942 0.039020535 -0.07974271 -0.0823413 -0.05212399 0.06819818 0.06416877 0.056468736
0.12075726 -0.019498663 -0.020793702 0.11807317 -0.06902991 -0.009712235 0.029254658 -0.013232671
00000000: d198 d83c fb5f 9bbd 5266 04bd b9b6 0f3d
00000010: d27f 5bbd c4e5 afbd a275 62bd 1339 84bd
00000020: 474a 45bd f463 82bd 1972 bcbd 0d71 633b
00000030: ae5e 81bd 59d3 ad3d 2bfb cabb 9f93 0cbe
00000040: eaf4 a2bc 4371 b5bd fdc1 813d 0d5a 6dbd
00000050: 845f a8bd bd4c 6fbc bcec 2a3d 81d3 e23c
00000060: 06f8 033d fb5f 89bd a87f ff3c b7e4 29bd
00000070: a1c4 c4bc a1ba d93c 7f8e 67bd d440 e6bd
00000080: 55c9 7bbd 5976 6fbc 592c bd3d a970 233c
00000090: 07e1 71bd e397 f23d c064 a8bc 9b27 8b3d
000000a0: e1e1 a43d 6ea4 86bc daa1 033d ee39 bb3c
000000b0: d622 263d 31cf dabd 1f2f 04bd 2877 953d
000000c0: 4943 68bb f4b3 c43c 227c 883d 4aca 25bc
000000d0: 13ff 7c3d 8412 adbd c017 803d 890c 65bd
000000e0: ee46 853d e2ab 9d3d 6874 a0bc 39a9 95ba
000000f0: 4f29 b7bc 1054 4b3d 5f70 91bd f999 f4bc
00000100: 7b32 303d 7279 0c3d 2a1e b63d 07e2 52bd
00000110: 8a6d c0bd 89fd 7bbc 74a3 12bd fd93 2ebc
00000120: d23f 28bd a358 ff3d e27a 573d 37f8 cd3c
00000130: a0ce 003c bc98 abbd ca6b 5e3d 4666 2fbd
00000140: e98b 3e3d e8d4 7b3d 3fb2 453c 94f0 f3bc
00000150: 2b3f aebd 62ac 71bc 4fad a13a a972 efbc
00000160: 7cdd e4bd a680 df3d 3835 9a3d 5827 1b3c
00000170: 7ff7 25be 95ae 58bd 5c5d cbbd 364b 9dbc
00000180: dda5 ce3c 782b 46bd 5beb 99bd 22d5 773d
00000190: 235e 503d 992b 5abd e871 36bd 362a 013d
000001a0: 37bf cabc 45fe d5bc 7aaf 93bd bb4b 03be
000001b0: ef1b c13c f25f 083e 8958 9f3c 7cd3 05bd
000001c0: 74b8 3abd a553 383d 92a0 6f3d d774 753d
000001d0: f4a2 32bd baa9 a6ba 08c5 84bd 0e9a ff3c
000001e0: f4c0 2e3d f09a 443d 51c5 92bd c8bb 97bd
000001f0: 851b c23d 27cc a4bc e579 283d 2f1b b13c
00000200: b5ec e83c d481 7f3d 2419 f63c e2ae 9cbc
00000210: 1764 e8bd 6d8a bbbc 0668 6d3d 9c57 9d3b
00000220: e1ee 2fbe b44b ee3b a993 b3bb 8088 cfbd
00000230: 714d 07bc 1d40 b8ba 75ce a33d 824b 863d
00000240: c67f 87bd dd47 02be c940 5c39 381f df3d
00000250: 76ab 92bd 7d93 97bc 5ccc 85bd b6dd b8bd
00000260: 3ce0 703c 84c4 a1bd 4a73 a03d 6a62 38bd
00000270: a70f 073d 9942 bc3d 2671 c53c e90f ac3c
00000280: 742c 153d 44f5 30bd ce00 db3c 0e84 1abd
00000290: 49c9 ca3d ab86 253c 11d4 b4bb 204c 74bd
000002a0: d795 4d3d edfe bf3d 311b 7e3c 8dc7 c8bb
000002b0: c2bb 35bd c31e 923d 52d3 16ba 43ce 11be
000002c0: 22a2 25bd 9052 263d f7fd 0b3d 6b2a babd
000002d0: 797f 893d 817f 4b3d 15b5 ac3d bba0 ac3d
000002e0: ef4f 87bd 3773 ad3d 4a2a dbbd fe6b 853d
000002f0: 63dc debb f472 7e3d 75da b9ba 8e27 a8bd
00000300: 57fc b1bb 0741 a93d 1afb 6b3d dbfe b83d
00000310: e292 91bd d0ab f0b7 74a2 b1bd e77c 853b
00000320: 3548 f43c 5fe1 c4bd eaa0 8a3d 507e 2e3c
00000330: 0bf2 a5bc 6813 b2bb bda7 a93d d4ba 6bbc
00000340: 63a4 a2bc 1907 523d 93d9 62bd 232a 6d3d
00000350: 559b edbb 3a89 c13c 68f9 473b e542 1a3e
00000360: bc66 913c c908 983d 60ff 013d f8bc 80bd
00000370: 3019 263d c46d 9ebc de61 fdbc ad0d 423d
00000380: dd65 9bbd 274d 9a3d cf00 7dbd bab9 e5bc
00000390: f70c 5e3d f98f d23c 628a 143d 895b 3f3d
000003a0: 2c5f 4c3d 29c6 7bbc 868c e6bd 7090 f4bd
000003b0: 4545 c2bc 4f5b 85bd 9c42 423d 2130 b33c
000003c0: 4e6d ee3d ffd3 1f3d 2550 a3bd 8ea2 a8bd
000003d0: f77f 55bd 7dab 8b3d eb6a 833d c34b 673d
000003e0: 954f f73d a9bb 9fbc 8e57 aabc 59d0 f13d
000003f0: 8e5f 8dbd 1120 1fbc 77a7 ef3c d8cd 58bc

onnx::LSTM_205 f4 [1, 1024]
0.025613723 0.0072660586 -0.009299241 0.02995612 -0.05519601 -0.09796073 -0.035521768 0.038417034
-0.16921018 0.08507855 -0.03283031 -0.09639726 0.061301887 0.0573875 -0.024413593 -0.064401895
-0.14460973 -0.06798672 0.046465494 -0.035522137 0.05158482 -0.07046422 0.14370108 -0.0912768
0.033683963 0.025196452 -0.025629956 -0.038494352 -0.11598863 0.044737585 0.026860181 0.0067556305
-0.15642059 0.0713231 0.005377397 0.0645152 0.01733184 -0.020956403 -0.028029926 -0.00029573913
-0.015903002 -0.01888057 0.019491782 -0.046769395 0.09412772 0.028656682 -0.09375997 0.0849449
0.02508047 0.020788915 -0.15911558 -0.017002262 -0.07775135 0.0017932558 0.0028003373 0.06488508
-0.06620431 -0.050713435 -0.13306755 0.034441806 0.009817894 0.050638065 0.06137202 0.054598406
-0.010690213 0.07072684 0.06183439 -0.028212175 -0.061612368 -0.08566333 0.0032637194 0.112566315
-0.05246603 -0.039294194 -0.034055334 0.043446533 -0.08848438 -0.060128015 0.06384361 0.028507888
0.0022072762 0.009985499 0.083338454 -0.057255283 -0.117744476 -0.05445892 -0.014827968 0.037789315
-0.046442136 -0.054078348 0.06465089 -0.02074572 0.059272032 0.10172458 0.040824443 -0.023412755
-0.0005964208 -0.053437617 -0.024432242 -0.027255515 0.02243814 0.056821633 -0.037540402 -0.02618945
0.06536564 0.0252179 -0.04766395 0.08070939 0.0780319 0.0327577 0.007911135 -0.014200785
-0.02148379 -0.0050372537 -0.062486563 0.07434562 -0.098884836 0.08594292 -0.024894835 -0.08098355
-0.086653076 -0.03856576 -0.108610354 0.09612445 -0.0471307 0.005309246 0.028452424 -0.011120291
-0.078721866 0.062559545 0.023575077 0.05478723 0.020700091 -0.03993322 0.07307614 -0.019504273
-0.03261956 -0.06650221 -0.03950617 -0.004055462 0.032569483 -0.010878664 -0.0028439774 -0.06078377
-0.060409892 -0.0780011 -0.09413195 0.11943247 -0.07306982 0.017770138 0.1608342 0.05177894
0.072316505 0.085766055 0.0035588706 0.03461432 0.061521333 -0.10771163 0.12422442 -0.06325189
-0.16935235 0.054625988 0.061590984 0.095803864 0.11369086 0.12556033 0.032347813 0.12091066
0.060973287 0.036057256 -0.06570733 0.03678782 0.042128827 0.069833174 0.09933344 0.036292788
-0.04138117 -0.037536755 -0.092964925 0.03748311 -0.052445225 0.07598634 -0.057827067 0.07083888
0.014021943 -0.07391134 0.0020679268 0.10024196 0.024734695 -0.113907054 -0.0064156936 0.10673856
-0.072377905 0.029345265 -0.028149668 0.098780334 0.027773261 0.06457651 0.00029606445 0.025925959
-0.008434458 0.027133206 0.048040584 -0.018948065 -0.06757147 -0.12100062 0.06405199 0.06048674
0.12696764 0.00042043452 0.04833581 0.1106609 -0.095876135 0.09012284 0.068599775 0.009923934
-0.023871241 0.016301751 0.07768781 0.020699581 -0.033077236 -0.0075168903 0.09125485 0.0028865929
-0.061251197 0.032235213 0.09152786 0.02087932 -0.009306861 -0.0732012 0.030815182 0.029347422
0.04588137 0.052433927 0.08306151 0.08581542 -0.010044408 0.014012313 0.044361193 0.13526532
0.16429582 0.08836353 0.058200095 0.08908545 -0.077426404 0.06333886 0.0853421 -0.1114154
-0.090544045 -0.060200952 0.03430798 -0.016697785 0.0875664 0.092976905 -0.008242425 0.109015614
00000000: dfd3 d13c 1e18 ee3b d85b 18bc 8966 f53c
00000010: 3615 62bd a39f c8bd 467f 11bd 2e5b 1d3d
00000020: 6f45 2dbe aa3d ae3d 1379 06bd ed6b c5bd
00000030: b017 7b3d 280f 6b3d 04ff c7bc 24e5 83bd
00000040: 9314 14be 9f3c 8bbd 9a52 3e3d a97f 11bd
00000050: 9b4a 533d 8c4f 90bd 6026 133e 55ef babd
00000060: 32f8 093d ca68 ce3c eaf5 d1bc 41ac 1dbd
00000070: 728b edbd c23e 373d e209 dc3c 565e dd3b
00000080: b82c 20be d811 923d e034 b03b 8c20 843d
00000090: 81fb 8d3c c3ac abbc 049f e5bc 6f0d 9bb9
000000a0: 0347 82bc 6dab 9abc 3bad 9f3c 4491 3fbd
000000b0: 09c6 c03d 6bc1 ea3c 3a05 c0bd 97f7 ad3d
000000c0: 8f75 cd3c 844d aa3c 32ef 22be 5448 8bbc
000000d0: 1a3c 9fbd ae0b eb3a dd85 373b 78e2 843d
000000e0: 2096 87bd e4b8 4fbd dc42 08be da12 0d3d
000000f0: 3bdb 203c dc69 4f3d 3a61 7b3d 94a2 5f3d
00000100: 0126 2fbc 3cd9 903d 0f46 7d3d 381d e7bc
00000110: 405d 7cbd 4270 afbd 20e4 553b 2b89 e63d
00000120: 9fe6 56bd f3f2 20bd 9b7d 0bbd fef4 313d
00000130: 4c37 b5bd cb48 76bd 70c0 823d 6089 e93c
00000140: f3a7 103b 389a 233c 5aad aa3d 8484 6abd
00000150: 0424 f1bd 5110 5fbd 01f1 72bc f8c8 1a3d
00000160: 1c3a 3ebd 4281 5dbd b067 843d eef2 a9bc
00000170: 3bc7 723d fa54 d03d 8837 273d 1bcc bfbc
00000180: 1f59 1cba 67e1 5abd 2026 c8bc f546 dfbc
00000190: 31d0 b73c cdbd 683d f7c3 19bd 428b d6bc
000001a0: 6cde 853d c595 ce3c 463b 43bd f74a a53d
000001b0: 30cf 9f3d f02c 063d b59d 013c 69aa 68bc
000001c0: c6fe afbc 8c0f a5bb e9f1 7fbd 8442 983d
000001d0: 2284 cabd d702 b03d 41f0 cbbc b4da a5bd
000001e0: 2b77 b1bd 21f7 1dbd 1b6f debd e5dc c43d
000001f0: 1f0c 41bd 2ff9 ad3b 0f15 e93c e231 36bc
00000200: ee38 a1bd 381f 803d 8520 c13c 9368 603d
00000210: 3d93 a93c 0491 23bd f1a8 953d 6dc7 9fbc
00000220: 169c 05bd 5032 88bd 39d1 21bd aee3 84bb
00000230: 9467 053d 6d3c 32bc 0662 3abb 67f8 78bd
00000240: 5d70 77bd 0abf 9fbd 40c8 c0bd 0399 f43d
00000250: a1a5 95bd ae92 913c b8b1 243e 2716 543d
00000260: ad1a 943d 1da6 af3d f13b 693b bfc7 0d3d
00000270: cbfd 7b3d ea97 dcbd 5f69 fe3d 358a 81bd
00000280: b46a 2dbe 80bf 5f3d d446 7c3d d134 c43d
00000290: c1d6 e83d e392 003e 247f 043d 02a0 f73d
000002a0: 20bf 793d c6b0 133d 9191 86bd d3ae 163d
000002b0: 478f 2c3d b204 8f3d 556f cb3d bfa7 143d
000002c0: 4d7f 29bd 24c0 19bd 6564 bebd e487 193d
000002d0: ced0 56bd ba9e 9b3d 13dc 6cbd fa13 913d
000002e0: 4bbc 653c d45e 97bd 0e86 073b a84b cd3d
000002f0: 6aa0 ca3c 1a48 e9bd bd3a d2bb bf99 da3d
00000300: de3a 94bd 7b65 f03c 229a e6bc 584d ca3d
00000310: c084 e33c b040 843d 1939 9b39 ad62 d43c
00000320: ae30 0abc 7546 de3c 34c6 443d f938 9bbc
00000330: e962 8abd 2ccf f7bd b12d 833d f2c0 773d
00000340: ce03 023e c46d dc39 c5fb 453d 2fa2 e23d
00000350: b55a c4bd 5392 b83d 0a7e 8c3d ff97 223c
00000360: 9f8d c3bc 408b 853c c91a 9f3d 2b92 a93c
00000370: ff7b 07bd 3f50 f6bb d3e3 ba3d fe2c 3d3b
00000380: 89e2 7abd 1209 043d f572 bb3d 1c0b ab3c
00000390: ce7b 18bc 83ea 95bd 1f70 fc3c 016a f03c
000003a0: 1aee 3b3d f5c4 563d 271c aa3d ffbf af3d
000003b0: 4d91 24bc e793 653c 15b4 353d fe82 0a3e
000003c0: 2a3d 283e f0f7 b43d 3963 6e3d 6f72 b63d
000003d0: bc91 9ebd ceb7 813d d7c7 ae3d c22d e4bd
000003e0: 286f b9bd 4695 76bd 8686 0c3d cbc9 88bc
000003f0: 0356 b33d ad6a be3d 3c0b 07bc 9443 df3d
