model.onnx (onnx, 817860 bytes, 8 tensors)

fc.weight f4 [2, 128]
0	0xbbc5dd71	-0.0060383608
1	0x3d88c8ba	0.066789106
2	0xbd2f885d	-0.042854656
3	0xbd48cf5c	-0.04902588
4	0x3dd51691	0.10404695
5	0xbcdaccdd	-0.026709015
6	0xbde571f9	-0.11203379
7	0xbe0e1c4d	-0.13877983
8	0xbdb91003	-0.09036257
9	0x3de7c81a	0.11317463
10	0x3d95a530	0.07306898
11	0x3d73b442	0.05949808
12	0x3d9819ea	0.07426818
13	0x3cabd0c2	0.020973567
14	0x3cdf5b79	0.027265297
15	0x3d82a12c	0.06378397
16	0xbe1d98d5	-0.15390332
17	0x3e05aa65	0.13053282
18	0x3cfb5b4f	0.030683188
19	0x3d919415	0.071083225
20	0xbd9bb4ab	-0.07602819
21	0xbb9ae110	-0.0047265366
22	0xbdc12a43	-0.09431889
23	0xbcbd42e4	-0.023103185
24	0xbd3f599f	-0.04671633
25	0x3db9a77a	0.09065147
26	0xba70a432	-0.00091797404
27	0xbb1a85ff	-0.0023578403
28	0xbd5cc893	-0.05390222
29	0xbd962387	-0.07330995
30	0xbdcfa882	-0.10139562
31	0xbe10dcda	-0.14146748
32	0x3c4be6ac	0.012445133
33	0xbcbc0ced	-0.022955382
34	0x3d0be260	0.034151435
35	0xbc1e95b1	-0.009679244
36	0x3ba17c02	0.004928113
37	0x3d398c65	0.045299906
38	0x3d46d558	0.048543304
39	0x3bbb46cd	0.005715227
40	0xbc9470b3	-0.018120145
41	0x3d81a437	0.063301496
42	0x3de46a7c	0.11153123
43	0xbcd5e9b1	-0.02611241
44	0xbe1e55d9	-0.15462436
45	0xbd800e0d	-0.0625268
46	0xbdb871b6	-0.09006064
47	0xbdb5999c	-0.08867189
48	0xbde9f499	-0.114236064
49	0x3d1ef0df	0.03880393
50	0xbce4284f	-0.027851252
51	0xbd13c1c3	-0.036073457
52	0xbd87a5c6	-0.06623416
53	0x3d9eb967	0.077502064
54	0x3e20bab5	0.15696223
55	0x3e517949	0.20456423
56	0x3d8a95fb	0.06766888
57	0xbe2abd31	-0.16673733
58	0x3d61d69b	0.055136304
59	0x3dda3d99	0.1065628
60	0x3c1b4a94	0.00947823
61	0xbb185389	-0.002324315
62	0xbdad351f	-0.08457398
63	0x3de1abbb	0.11019083
64	0xbce2d72c	-0.027690493
65	0xbd888633	-0.066662215
66	0x3d879f11	0.066221364
67	0x3db519ea	0.08842833
68	0xbd80f732	-0.06297149
69	0x3df485c1	0.11939574
70	0x3e77bb26	0.24192485
71	0x3c89e90f	0.016834764
72	0x3e8120f2	0.25220448
73	0x3c95988e	0.01826122
74	0xbe5237d2	-0.20529106
75	0xbe255b1a	-0.16148034
76	0xbd209648	-0.03920582
77	0x3d8eb6ad	0.069684364
78	0xbd9b8ab6	-0.075948164
79	0xbd578c27	-0.052623894
80	0xbdd37b51	-0.10326255
81	0x3d0f2bd0	0.034953892
82	0xbe15fba9	-0.14646782
83	0xbd1cfd68	-0.038327605
84	0x3c9f005f	0.019409357
85	0x3e1464d9	0.14491595
86	0x3d4d3ff1	0.050109807
87	0x3e388c00	0.18022156
88	0x3c7bb8eb	0.015363912
89	0xbde222fe	-0.110418305
90	0x3df19da8	0.11797649
91	0x3dad122b	0.08450731
92	0xbd9bcb1d	-0.076071
93	0x3cff69fc	0.031178467
94	0x3bf39220	0.007433191
95	0x3a8b0592	0.0010606518
96	0x3d2942a3	0.041323315
97	0xbe1db220	-0.1539998
98	0x3d5daaab	0.05411784
99	0xbd194b97	-0.037425604
100	0xbcd06a6d	-0.025441373
101	0xbd645215	-0.055742342
102	0xbe052f9a	-0.1300644
103	0x3bcdac50	0.0062766448
104	0x3d8e7586	0.069560096
105	0x3c1f9d5b	0.009742106
106	0xbe54a52c	-0.20766133
107	0xbe03f6ae	-0.1288707
108	0xbde86a4f	-0.11348402
109	0x3daa95cb	0.08329352
110	0x3e24c2b1	0.16089894
111	0xbde07691	-0.10960115
112	0x3d772b80	0.06034422
113	0xbe11f2a2	-0.14252713
114	0xbd9707c5	-0.07374529
115	0xbd95c66a	-0.07313235
116	0xbdce5ce2	-0.1007631
117	0x3e7550b1	0.23956563
118	0xbdcdefb4	-0.10055485
119	0x3dd56e55	0.10421435
120	0xbd3cb26f	-0.046068605
121	0xbe00e10b	-0.12585847
122	0xbd9efe5c	-0.07763359
123	0x3d058bca	0.032604016
124	0x3c5d6672	0.013513194
125	0xbd0d48f0	-0.034493387
126	0x3c90023a	0.017579187
127	0xbdb158ba	-0.086595014
128	0xbdde9835	-0.10868875
129	0xbd9ce52d	-0.07660899
130	0xbd3ff018	-0.04685983
131	0x3d8bcb2f	0.068258636
132	0xbe0fae43	-0.1403132
133	0xbd7c6acf	-0.061625298
134	0xbc35b0d3	-0.011089521
135	0x3da26be9	0.079307385
136	0x3cacc7b9	0.021091329
137	0xbe031ab2	-0.12803152
138	0xbd00d04f	-0.03144866
139	0x3d8d15d3	0.06888928
140	0x3d88052c	0.066416115
141	0xbddbdd1b	-0.10735532
142	0xbd7730db	-0.060349327
143	0xbd6870bf	-0.056748148
144	0x3e420f29	0.18951096
145	0xbe500fd9	-0.20318545
146	0xbb57cfc7	-0.0032930241
147	0xbcca84cc	-0.024721526
148	0x3dbf58a0	0.09343076
149	0x3d7aea07	0.061258342
150	0x3d94c394	0.07263866
151	0x3db7f894	0.089829594
152	0xbd8a7440	-0.06760454
153	0x3d847a3e	0.06468628
154	0xbcd4e0d8	-0.02598612
155	0x3d91c38e	0.07117377
156	0x3e041282	0.12897685
157	0x3d0b6c16	0.034038626
158	0x3d07d68a	0.033163585
159	0x3e8760f3	0.26441154
160	0xbd81caf2	-0.06337537
161	0x3d07e869	0.033180628
162	0x3d9282d8	0.07153863
163	0xbceed664	-0.029154964
164	0x3d02683f	0.031837698
165	0x3d01b5a1	0.031667355
166	0xbc882cb1	-0.016622873
167	0xbd31549e	-0.043293588
168	0xbd2956fb	-0.041342717
169	0x3c34473a	0.01100331
170	0xbce10f3a	-0.02747308
171	0xbd83a549	-0.0642801
172	0xbb21562d	-0.0024618015
173	0x3d88ca7a	0.06679244
174	0xbc8efb07	-0.017453684
175	0x3b5ad055	0.0033388336
176	0x3c80b23a	0.015709985
177	0xbd8e18b2	-0.06938304
178	0xbd0877b5	-0.033317287
179	0xbd75cebb	-0.060011607
180	0x3e6b8411	0.22999598
181	0xbd510d80	-0.051038265
182	0xbddcdfdc	-0.10784885
183	0xbe8ba556	-0.2727458
184	0xbd134562	-0.03595484
185	0x3e33c0a3	0.17553954
186	0x3ca38f44	0.019965775
187	0xbdb727de	-0.08943151
188	0xbc6b286f	-0.014352902
189	0x3dc4b495	0.09604756
190	0x3d96cead	0.07363639
191	0xbdb9d5e3	-0.09073999
192	0xbb898e36	-0.004197861
193	0x3e0d911f	0.1382489
194	0x3d353f4d	0.04424982
195	0xbdfe3bff	-0.12413787
196	0x3dfbe2fe	0.12299155
197	0xbdc1b579	-0.09458441
198	0xbddc48a5	-0.10756043
199	0x3d368d69	0.044568453
200	0xbe00f771	-0.12594391
201	0x3dc02589	0.09382159
202	0x3e86a159	0.26294973
203	0x3e04bc68	0.12962496
204	0x3c2e6de9	0.010646322
205	0xbd23740d	-0.039905597
206	0x3dda8aa9	0.106709786
207	0x3d8e4493	0.06946673
208	0x3e295e10	0.16539788
209	0xbdb96e60	-0.090542555
210	0x3db25ed6	0.08709495
211	0xbd7051dc	-0.058671817
212	0xbda9bb98	-0.08287734
213	0xbddecb20	-0.10878587
214	0xbdc29b11	-0.09502233
215	0xbdae8609	-0.08521659
216	0x3c5238fc	0.012830969
217	0x3d352800	0.0442276
218	0xbdbe5b21	-0.09294725
219	0xbd8e6de4	-0.06954554
220	0x3e07a951	0.13248183
221	0xbd05dc70	-0.03268093
222	0x3daef246	0.08542304
223	0xbdae83f5	-0.085212626
224	0x3cfed84b	0.031108996
225	0x3c73d95a	0.014883364
226	0x3da7e594	0.081980854
227	0xbdb6184e	-0.088913545
228	0x3d0b4b00	0.034007072
229	0xbd859231	-0.065220244
230	0x3d834d08	0.06411177
231	0xbd2b80fe	-0.041871063
232	0xbdd8046e	-0.1054772
233	0xbd256c62	-0.040386565
234	0x3e7c4670	0.24636245
235	0x3e2fba0a	0.17160812
236	0xbc4277a9	-0.0118693495
237	0xbb8c98cf	-0.004290677
238	0xbcd584eb	-0.026064357
239	0xbd1e5f8b	-0.038665336
240	0x3cac1330	0.021005243
241	0x3e2e11c3	0.16998963
242	0xbd9e6127	-0.07733374
243	0x3dadc61c	0.08485052
244	0x3d860477	0.0654382
245	0xbddc7837	-0.10765117
246	0xbd38491b	-0.044991594
247	0xbe1d53ac	-0.1536395
248	0x3d8b3859	0.06797857
249	0x3d0c390a	0.034234084
250	0xba84fe76	-0.0010146636
251	0x3cfe9a5a	0.03107946
252	0xbd1a7ac0	-0.03771472
253	0x3d3482bc	0.04406999
254	0xbbaf8745	-0.0053567016
255	0x3d84879a	0.064711764

fc.bias f4 [2]
0	0xbd34b278	-0.044115514
1	0x3aa7b879	0.0012796066

onnx::LSTM_183 f4 [1, 512, 9]
0	0x3cc1231f	0.023576317
1	0xbbb2ae58	-0.0054529123
2	0xbda92c3a	-0.08260389
3	0xbdf6971b	-0.1204054
4	0xbc143e7b	-0.0090481
5	0xbd2723e1	-0.0408057
6	0x3e0f7033	0.14007644
7	0x3c963bee	0.018339124
8	0x3ced57a6	0.028972458
9	0xbe5bd060	-0.21466208
10	0x3bb55117	0.0055333483
11	0xbd23bd28	-0.039975315
12	0xbc825fb3	-0.015914774
13	0x3de9c29b	0.11414071
14	0x3e0c4228	0.13697112
15	0x3be441d2	0.006965854
16	0x3e7fe702	0.24990466
17	0x3d250109	0.04028419
18	0xbda01ad2	-0.078176156
19	0xbdd7e1fd	-0.10541151
20	0x3d347033	0.044052314
21	0x3d06b350	0.03288585
22	0x3e076a7d	0.13224216
23	0xbdde240e	-0.10846721
24	0xbe28c69a	-0.1648201
25	0x3e0e0c58	0.13871896
26	0x3c80cff4	0.01572416
27	0x3db11938	0.08647388
28	0xbe2631f0	-0.16229987
29	0xbb4ae89c	-0.00309614
30	0x3e0ab4f9	0.13545598
31	0xbdf13988	-0.11778551
32	0xbdffeff5	-0.1249694
33	0x3cff590c	0.03117039
34	0xbe6d6c30	-0.23185802
35	0x3dc7511c	0.09732267
36	0x3a798500	0.0009518415
37	0x3e1f56ce	0.15560457
38	0xbdb50c60	-0.08840251
39	0xbdf095da	-0.11747332
40	0xbd1e0c3c	-0.038585886
41	0xbe01c9f0	-0.1267469
42	0x3da38e0b	0.07986077
43	0x3e0371a8	0.12836325
44	0xbe1eab3e	-0.15495011
45	0xbd2191d5	-0.039445717
46	0xbce8a273	-0.028397774
47	0xbc8500f9	-0.016235815
48	0x3e792d90	0.24333787
49	0xbd72951f	-0.059224244
50	0x3c36e56b	0.011163096
51	0x3ce4ac64	0.027914234
52	0x3d8cbeba	0.06872316
53	0x3c583c71	0.013198004
54	0xbddbccbf	-0.107324116
55	0x3c040a36	0.008059075
56	0x3da96731	0.08271635
57	0xbe3d87f1	-0.18508889
58	0x3ba165d5	0.0049254694
59	0x3bedfee1	0.00726305
60	0xbdaeddc7	-0.085383944
61	0xbd0edbb7	-0.034877505
62	0xbd1e3956	-0.0386289
63	0xbcee85a8	-0.029116467
64	0xbca6f5f2	-0.020380948
65	0x3c1361ce	0.008995486
66	0x3e3adbee	0.18247959
67	0xbe287bae	-0.1645343
68	0x3d4072a7	0.04698434
69	0xbe4c58e5	-0.19955786
70	0xbe3eb469	-0.18623509
71	0x3cff215f	0.031143842
72	0xbe093a87	-0.13401233
73	0x3b08367a	0.0020784424
74	0xbd5b5307	-0.053545978
75	0xbd5c2a26	-0.053751133
76	0xbe3ccfd5	-0.18438657
77	0x3cd80f82	0.026374582
78	0xbe3747d1	-0.1789849
79	0x3db9d411	0.090736516
80	0x3abe756d	0.0014530845
81	0xbe4d0526	-0.20021495
82	0xbcfa41db	-0.03054898
83	0xbb931798	-0.0044888966
84	0x3e71b14a	0.23602787
85	0xbe396664	-0.18105465
86	0x3e2ab08e	0.16668913
87	0xbd664ac9	-0.056223664
88	0x3e0c7d86	0.13719758
89	0xbcaed80a	-0.02134325
90	0x3c926205	0.017869005
91	0xbe7d172f	-0.24715875
92	0x3e3537f1	0.17697121
93	0x3e21935e	0.15778872
94	0xbe3b7f86	-0.18310365
95	0x3c4bfd11	0.012450472
96	0x3e4506af	0.19240831
97	0xbe2fded7	-0.1717485
98	0xbdb46c3f	-0.08809709
99	0x3dea83d3	0.11450925
100	0xbd63285a	-0.055458404
101	0x3b1cda0b	0.0023933675
102	0x3d3c3ff2	0.04595942
103	0xbe0b6097	-0.13611065
104	0x3d8a99f7	0.06767648
105	0xbdbc2623	-0.091869615
106	0xbe6e5586	-0.23274812
107	0xbcecde60	-0.02891463
108	0x3d502e1e	0.05082523
109	0xbe162dc3	-0.14665894
110	0x3d57994a	0.052636422
111	0x3d6722e2	0.05642975
112	0x3d38cf37	0.04511949
113	0x3d6399dc	0.055566654
114	0x3c6e0ef0	0.014529929
115	0xbe2c7bbf	-0.1684408
116	0x3c8f810a	0.017517585
117	0x3d27487e	0.04084062
118	0x3e94698b	0.28986773
119	0xbd7617a3	-0.060081135
120	0xbd43fcb2	-0.04784841
121	0x3e21d878	0.15805233
122	0xbe483166	-0.19550094
123	0x3e04138d	0.12898083
124	0xbbaf7c0c	-0.0053553637
125	0xbe42666e	-0.18984386
126	0xbd2c3b93	-0.042049002
127	0xbce7bb18	-0.028287455
128	0xbd5f3fb4	-0.05450411
129	0x3db036b0	0.08604181
130	0x3cdf747e	0.027277227
131	0x3cbbe894	0.02293805
132	0xbdd1f63a	-0.10252042
133	0xbdac44cc	-0.084115595
134	0x3d2b02fe	0.0417509
135	0xbdbd8bd2	-0.09255184
136	0xbdc7dfce	-0.09759484
137	0xbcf5fae7	-0.030026866
138	0x3d83beba	0.064328626
139	0xbd847327	-0.06467276
140	0xbcf85bcd	-0.030317212
141	0x3e5eb01f	0.21746872
142	0x3dc89858	0.09794682
143	0xbd352e8f	-0.044233855
144	0x3cab7437	0.020929439
145	0xbe9aee7d	-0.30260077
146	0xbd5d236f	-0.05398887
147	0x3daeea01	0.085407265
148	0x3de1bce0	0.11022353
149	0xba2707a0	-0.00063716806
150	0x3e261e19	0.16222419
151	0xbe65b0fa	-0.22430792
152	0xbcb85142	-0.022499684
153	0xbd76451e	-0.06012451
154	0x3e3805eb	0.17971008
155	0x3d6e0bd6	0.058116756
156	0xbe6d9a0b	-0.23203294
157	0xbe2957b8	-0.16537368
158	0xbe6d4cb1	-0.23173787
159	0x3e107f3c	0.14111036
160	0x3e5aa8c8	0.21353447
161	0xbe0aad28	-0.13542616
162	0x3c361905	0.011114364
163	0xbc0482c3	-0.008087817
164	0xbdaba4d6	-0.08381049
165	0xbe39f12b	-0.18158405
166	0xbe55a9ca	-0.2086555
167	0xbe67b47f	-0.22627448
168	0x3db16c56	0.086632416
169	0xbdfd0728	-0.123548806
170	0x3e26dffe	0.16296384
171	0x3de970da	0.11398478
172	0x3dfa0f30	0.12209928
173	0x3c5f1ed3	0.013618189
174	0xbd996c32	-0.0749134
175	0x3ca41e6a	0.020034034
176	0x3d2548f9	0.040352795
177	0xbd8dd4b9	-0.06925339
178	0xbdc7ced7	-0.097562484
179	0x3c10aabf	0.008829772
180	0x3e14468b	0.14480035
181	0x3be8fe33	0.007110381
182	0x3e09b220	0.13446856
183	0xbc5b69df	-0.013391941
184	0x3c6e19b5	0.014532496
185	0xbd8166a3	-0.063184045
186	0x3dbe2d2c	0.092859596
187	0xbd85eacd	-0.06538925
188	0x3c9edab5	0.019391397
189	0x3d5d6122	0.05404771
190	0xbcc38e79	-0.023871647
191	0x3e051727	0.12997113
192	0xbdcf4147	-0.101198725
193	0x3d8db7be	0.06919812
194	0x3d7bce18	0.061475843
195	0xbd4f97a7	-0.050681736
196	0xbbd1c271	-0.006401353
197	0x3daf4ed5	0.08559958
198	0x3d6d952a	0.058003582
199	0x3c1a402c	0.009414714
200	0xbb92f88d	-0.004485196
201	0xbd3d6709	-0.04624084
202	0x3dd9d8ff	0.10637092
203	0x3c0cc00f	0.008590712
204	0x3d21ce1d	0.039503206
205	0xbd189968	-0.037255675
206	0x3ced716a	0.028984744
207	0x3eb820fc	0.35962665
208	0x3e12b461	0.14326622
209	0xbd1d454d	-0.03839617
210	0x3e451c5c	0.192491
211	0x3dd03698	0.10166663
212	0x3e0ed948	0.13950074
213	0x3d0dae76	0.034590207
214	0xbe0ec5d6	-0.13942656
215	0x3e03a958	0.12857568
216	0xbe46e878	-0.19424617
217	0x3ad76e99	0.0016436159
218	0x3d4f7239	0.05064604
219	0x3dc157c7	0.0944057
220	0xbe133dfe	-0.14379117
221	0xbddf3b83	-0.10900023
222	0xbddca24e	-0.10773145
223	0x3e5b217d	0.21399494
224	0xbdc54396	-0.096320316
225	0x3d5f8614	0.054571226
226	0xbe24f17e	-0.16107747
227	0xbe1cf229	-0.15326752
228	0xbdd2b6f2	-0.102888
229	0xbd66446f	-0.056217607
230	0x3e17de51	0.148309
231	0xbd0b3403	-0.03398515
232	0xbdc3eb9b	-0.095664226
233	0x3c86e755	0.01646773
234	0xbca95da9	-0.020674543
235	0x3da13c00	0.07872772
236	0xbe0e825c	-0.13916916
237	0x3db5dd44	0.08880094
238	0xbc70242a	-0.01465706
239	0xbd8665fe	-0.06562422
240	0xbd86c538	-0.06580585
241	0x3de656dd	0.112470366
242	0xbdfd7fb3	-0.12377872
243	0x3bce88bf	0.0063029225
244	0xbe0f23db	-0.13978522
245	0xbd0539b8	-0.032525748
246	0xbd5aa325	-0.053378243
247	0xbdd19d0a	-0.10235031
248	0xbd3017f8	-0.04299161
249	0xbe017380	-0.12641716
250	0xbe1c5797	-0.15267788
251	0xbcf8db2d	-0.030377949
252	0xbd9d4c1b	-0.076805316
253	0x3d055e03	0.03256036
254	0x3da7089d	0.0815594
255	0xbd840fde	-0.06448339

onnx::LSTM_184 f4 [1, 512, 128]
0	0x3c0435c7	0.008069462
1	0x3d83b904	0.06431773
2	0x3d1da9b9	0.03849194
3	0x3d044bef	0.03229898
4	0x3b79f377	0.00381395
5	0xbd2b8d01	-0.04188252
6	0x3d923e59	0.07140798
7	0xbdbc5dd7	-0.09197586
8	0xbdd41240	-0.103550434
9	0x3cd91ac1	0.026502015
10	0xbcc96693	-0.024585044
11	0xbc914ccf	-0.01773682
12	0xba8231d0	-0.0009933058
13	0x3d86f6db	0.06590053
14	0xbda2b9b1	-0.07945574
15	0xbd0f1c2c	-0.034938976
16	0xbd3ec6f4	-0.046576455
17	0xbdef5135	-0.11685411
18	0xbdaf46a5	-0.08558396
19	0x3d9f4ce4	0.077783376
20	0x3d2229d9	0.03959069
21	0x3daad8b4	0.08342114
22	0xba8f17b0	-0.0010917094
23	0x3d82660e	0.06367122
24	0x3d815b96	0.06316297
25	0xbc1e3a0d	-0.009657395
26	0xbdbd9afe	-0.09258078
27	0xbc349897	-0.011022708
28	0xbd45a5ec	-0.04825394
29	0x3c067eec	0.0082089715
30	0x3d641f5c	0.05569397
31	0x3ced3e83	0.028960472
32	0x3bceb304	0.0063079614
33	0xba03fe3b	-0.0005035137
34	0x3dafe9b5	0.08589498
35	0x3ca161b0	0.019699901
36	0x3d163fbc	0.036681876
37	0x3daa36f8	0.08311266
38	0x3c856199	0.01628189
39	0x3dae6c91	0.08516801
40	0x3d8f1c09	0.06987769
41	0xb94562b7	-0.00018824158
42	0x3c4d0a08	0.012514599
43	0xbd91f818	-0.07127398
44	0x3d03ebeb	0.03220741
45	0xbdef8d45	-0.11696867
46	0xbd692607	-0.05692103
47	0xbd69326b	-0.056932848
48	0xbd3be027	-0.045868065
49	0xbd6dc2d7	-0.058047142
50	0x3dc5435f	0.09631991
51	0x3d13e850	0.036110222
52	0xbd62460e	-0.05524259
53	0x3df594c4	0.119912654
54	0x3d7c48de	0.06159293
55	0xbd61c34a	-0.055117883
56	0x3c0ba805	0.008523946
57	0xbd1ead2a	-0.03873936
58	0x3d7b43c1	0.061343912
59	0x3daa563e	0.08317231
60	0xbdc5aa8c	-0.0965167
61	0x3db815fb	0.089885674
62	0xbdd300e6	-0.10302906
63	0x3d0ad692	0.033896036
64	0xbd6c52fa	-0.05769632
65	0xbd146e54	-0.03623803
66	0x3c5deeaa	0.0135456715
67	0xbdf556e0	-0.11979461
68	0x3d6264be	0.055271856
69	0x3d77e69c	0.06052266
70	0x3db2fb69	0.08739359
71	0x3d3ae422	0.04562772
72	0xbd4439a4	-0.047906533
73	0x3d9a4fc2	0.07534744
74	0x3d816b11	0.063192494
75	0xbd893047	-0.06698661
76	0x3d97c55d	0.07410691
77	0x3dec1d0e	0.11528979
78	0xbd6360c1	-0.055512194
79	0x3ddbf36c	0.107397884
80	0x3d5c464c	0.053777978
81	0x3d88d246	0.066807315
82	0x3d6999c0	0.057031393
83	0xbcdd8292	-0.0270398
84	0x3c9a32f8	0.018823132
85	0x3cc12c24	0.023580618
86	0xbdab84e4	-0.08374956
87	0x3d88ddaa	0.06682904
88	0xbd66bc36	-0.056331836
89	0x3caf2dc4	0.021384127
90	0x3ce7d56a	0.028300006
91	0xbc493c30	-0.012282416
92	0xbde5ed24	-0.112268716
93	0x3dc67af1	0.09691418
94	0xbd3cb909	-0.0460749
95	0x3cf46f61	0.029838266
96	0xbc646244	-0.013939444
97	0x3cc886fc	0.024478428
98	0x3dd14929	0.10219032
99	0xbd597151	-0.053086583
100	0x3da23a9b	0.07921334
101	0x3e049cd3	0.12950449
102	0x3becb840	0.0072241127
103	0x3b0e4863	0.0021710626
104	0x3c515048	0.012775488
105	0xbd14a52a	-0.036290325
106	0x3dde6046	0.108582065
107	0xbcab58e7	-0.020916415
108	0xbd8e5624	-0.06950024
109	0x3da6ebd2	0.08150448
110	0xbcdb3d94	-0.026762761
111	0xbcd0d144	-0.02549041
112	0x3d96f676	0.073712274
113	0x3cbc3853	0.022976076
114	0x3dc0b8a4	0.094102174
115	0xbc40b3b9	-0.011761599
116	0xbd681e27	-0.05666938
117	0x3d54a0de	0.051911227
118	0x3e052afc	0.13004678
119	0xbdd31a7d	-0.103077866
120	0xbdbbd11e	-0.09170745
121	0x3d906b6a	0.070517376
122	0xbc0d2813	-0.0086155115
123	0xbdd58386	-0.10425477
124	0x3d471283	0.04860164
125	0x3bf13ee1	0.007362232
126	0xbc9fbf72	-0.019500468
127	0x3cdab377	0.026696904
128	0x3dbff60f	0.09373104
129	0xbd958278	-0.073002756
130	0x3d6fa33c	0.05850528
131	0xbdcb8712	-0.09937872
132	0x3daca771	0.084303744
133	0xbad093fd	-0.0015913245
134	0xbcdd22b9	-0.026994096
135	0xbb22507a	-0.0024767206
136	0xbe1182e3	-0.14210086
137	0xbd82b713	-0.06382575
138	0xbbd79e8c	-0.0065801796
139	0xbdb42f23	-0.08798053
140	0x3d9904a5	0.07471589
141	0x3d6bf4bf	0.057606455
142	0xbe10619b	-0.14099734
143	0x3db40c32	0.087913886
144	0xbd5e2766	-0.054236792
145	0xbd0323af	-0.032016452
146	0x3cba19c7	0.02271737
147	0xbc8c0e8c	-0.01709678
148	0x3d04fa4e	0.03246527
149	0x3db479a8	0.088122666
150	0xbd5b6021	-0.053558473
151	0xbd78aa59	-0.06070933
152	0x3d835cdc	0.06414196
153	0xbde96f4b	-0.113981806
154	0x3c4e35f3	0.012586105
155	0x3df213fc	0.11820218
156	0xbdb0605c	-0.08612129
157	0xbe06c5cc	-0.13161391
158	0x3d89a843	0.067215465
159	0x3c1f1fe5	0.009712194
160	0xbc408491	-0.011750356
161	0xbcbe4e2b	-0.023230633
162	0x3c99b28c	0.018761896
163	0xbd367951	-0.04454929
164	0xbd6a4940	-0.057198763
165	0x3e12a668	0.14321291
166	0xbc30c7a1	-0.010789783
167	0xbd635621	-0.05550206
168	0x3d854f6e	0.06509291
169	0x3db1bd20	0.08678651
170	0x3d249504	0.040181175
171	0xbd6be457	-0.05759081
172	0x3c533d37	0.012893013
173	0x3c87bb59	0.016568827
174	0xbe10f06a	-0.1415421
175	0xbd5eba99	-0.054377172
176	0x3d957b05	0.07298855
177	0x3b865cc2	0.004100413
178	0x3d8d4afa	0.06899066
179	0xbbcb452c	-0.0062033143
180	0x3dc34367	0.0953434
181	0xbca3b6cb	-0.019984623
182	0xbd144b44	-0.03620459
183	0x3cabe5a8	0.020983532
184	0x3c203609	0.009778508
185	0x3da71c93	0.08159747
186	0x3d95cb23	0.07314136
187	0xbd4a5538	-0.049397677
188	0xbd31b26b	-0.043383043
189	0xbd0224ab	-0.03177325
190	0x3d1aa0b6	0.037750922
191	0x3da72921	0.081621416
192	0xbc6be2b4	-0.014397312
193	0xbc5d42d0	-0.013504699
194	0xbdb1ee18	-0.08687991
195	0xbdb1bc50	-0.08678496
196	0x3cc85017	0.024452252
197	0x3b5444b3	0.003238958
198	0x3d9aa2d3	0.075505875
199	0x3d34cb53	0.044139218
200	0xbd88a6ea	-0.06672461
201	0x3d95d3b0	0.07315767
202	0xbc37a2ce	-0.011208249
203	0xbcdf9c5e	-0.027296241
204	0x3c5d715b	0.013515796
205	0xbc46a298	-0.012123726
206	0xbcd7ebe1	-0.026357593
207	0xbd661d51	-0.056180302
208	0x3de70168	0.11279565
209	0x3d5398b8	0.051659316
210	0xbd5ee244	-0.054415002
211	0x3cd14ea6	0.025550198
212	0xbd9d70ce	-0.076875314
213	0x3de24a9d	0.110493876
214	0xbd40bc0f	-0.047054347
215	0xbe0d3d43	-0.137929
216	0x3cb42dc0	0.021994472
217	0xbca05a08	-0.01957418
218	0xbd2ef758	-0.042716354
219	0xbba148e1	-0.004922018
220	0x3d65c1cb	0.05609302
221	0x3d8f97db	0.07011386
222	0xbcf667f2	-0.030078862
223	0x3d700b88	0.058604747
224	0xbc95cb08	-0.01828529
225	0xbdfe5e37	-0.12420314
226	0xbcc2f3a2	-0.023797814
227	0xbcb99eb0	-0.022658676
228	0x3d7ed32c	0.062213108
229	0xbd019cec	-0.031643793
230	0xbb0b158f	-0.0021222567
231	0x3e064ed0	0.13116002
232	0x3db82464	0.08991316
233	0xbd0080a9	-0.0313727
234	0xbd12ab22	-0.035807736
235	0xbd81e1e9	-0.06341917
236	0x3c935cfd	0.017988676
237	0x3d9f2509	0.07770736
238	0x3bfcd77e	0.0077161184
239	0xbce0c5ce	-0.02743807
240	0xbc37854f	-0.011201217
241	0x3d838d62	0.06423451
242	0xbc49df38	-0.012321286
243	0xbdae9ddb	-0.08526202
244	0xbd03a8d7	-0.03214344
245	0x3d5257ea	0.051353373
246	0xbd8454fa	-0.064615205
247	0x3d8c1129	0.068392105
248	0xbc6b3850	-0.014356688
249	0x3df417f6	0.11918633
250	0xbd70ffd5	-0.05883773
251	0xbe13f87a	-0.14450255
252	0x3e05150b	0.12996309
253	0x3d3e2c83	0.04642917
254	0xbc04fe14	-0.008117218
255	0x3ddfc593	0.10926356

onnx::LSTM_185 f4 [1, 1024]
0	0x3cd293eb	0.025705298
1	0xbe08fecf	-0.13378452
2	0xbc94948b	-0.018137237
3	0xbd639f72	-0.05557198
4	0x3d42ff1a	0.047606565
5	0x3d3513ac	0.044208214
6	0x3dbd1bb6	0.09233801
7	0xbd77d904	-0.060509697
8	0xbd1471fe	-0.036241524
9	0x3d0a7df3	0.03381152
10	0x3c8b8361	0.01703042
11	0xbd28ccaf	-0.041210826
12	0xbcedf32c	-0.029046617
13	0xbd5c1977	-0.053735223
14	0xbd277b64	-0.04088916
15	0x3d493592	0.049123354
16	0xbad89a14	-0.0016525411
17	0xbda3436f	-0.07971846
18	0x3d322667	0.043493655
19	0xbcdbd7ac	-0.026836239
20	0x3dee77bb	0.116439305
21	0x3de572f3	0.112035654
22	0x3ccc8e38	0.024970159
23	0xbd6d07a9	-0.057868633
24	0xbb357923	-0.0027690611
25	0x3d860e91	0.06545747
26	0xbd647c23	-0.05578245
27	0xbcb0f509	-0.021601217
28	0xbd4e7d39	-0.05041239
29	0x3e092a6a	0.13395086
30	0xbc72284a	-0.0147801135
31	0xbd93cf69	-0.07217295
32	0x3c97be1d	0.01852327
33	0x3d839cd3	0.06426396
34	0x3c5efe5e	0.013610451
35	0xbd5bf762	-0.05370272
36	0xbd8a4a4e	-0.06752454
37	0x3dfe7d24	0.124262124
38	0xbd130958	-0.035897583
39	0xbd14b804	-0.036308303
40	0xbd37846d	-0.044804025
41	0x3c743b71	0.01490675
42	0xbd8a3ed2	-0.06750263
43	0x3d7c7350	0.061633408
44	0xbd1ee3a2	-0.038791306
45	0xbd539736	-0.051657878
46	0xbd3fef14	-0.046858862
47	0xbd9a95df	-0.07548117
48	0xbc8a8a8d	-0.01691177
49	0xbd572178	-0.052522153
50	0xbb45611f	-0.0030117703
51	0x3c8b207a	0.01698326
52	0xbd85316b	-0.06503566
53	0xbd6b5440	-0.057453394
54	0xbdb56fb1	-0.08859194
55	0x3d0f394f	0.034966763
56	0x3da663fc	0.08124539
57	0x3d8abbae	0.06774078
58	0x3c159bf5	0.009131421
59	0x3c1ea717	0.009683392
60	0x3dd6cfb7	0.10488837
61	0xbc068916	-0.008211395
62	0xbc754cfa	-0.014971966
63	0x3d9d6253	0.076847695
64	0xbd4d9d48	-0.050198823
65	0x3b42e393	0.0029737696
66	0x3d22573e	0.039633982
67	0x3d0ab0cb	0.03386001
68	0x3ca29a59	0.01984899
69	0x3b1acd1a	0.0023620785
70	0x3cb8dca3	0.022566145
71	0x3c89c2c6	0.016816508
72	0xbc95c228	-0.018281057
73	0x3bc0952b	0.005877157
74	0xbd946799	-0.07246322
75	0x3a70ad4d	0.0009181097
76	0x3c9f2936	0.01942883
77	0xbd8f0261	-0.069828756
78	0x3db39399	0.087683864
79	0x3d984267	0.0743454
80	0xbc11dd2f	-0.008902832
81	0x3ccf9083	0.025337463
82	0x3de09450	0.10965788
83	0x3d246487	0.040134933
84	0xbdcec095	-0.10095326
85	0x3d64f5bf	0.055898424
86	0xbda92d28	-0.08260566
87	0xbcef5640	-0.029215932
88	0xbd3af3d4	-0.04564269
89	0xbce3dac6	-0.02781428
90	0x3db26252	0.08710159
91	0x3d6b0ae0	0.057383418
92	0x3c883a41	0.01662934
93	0xbdd82445	-0.10553793
94	0x3ccef14e	0.025261547
95	0x3c80805c	0.015686207
96	0xbd1e6809	-0.038673434
97	0x3d1ed423	0.038776528
98	0xbcc82a8b	-0.024434349
99	0x3c6ba142	0.014381709
100	0x3c2fbc0f	0.010725989
101	0x3dea2b6a	0.11434062
102	0xbd61f970	-0.055169523
103	0xba1db2bd	-0.0006015709
104	0xbd6c4098	-0.05767879
105	0xbd9d1743	-0.076704524
106	0xbd8c7d53	-0.06859841
107	0xbdad3fff	-0.08459472
108	0xbd7fca46	-0.062448762
109	0xbd0edc5d	-0.034878124
110	0x3d782b10	0.060587943
111	0x3d5216b2	0.051291175
112	0x3d10a9a0	0.035318017
113	0xbc3a3f54	-0.011367638
114	0xbae01196	-0.0017095085
115	0x3d44e787	0.048072364
116	0x3d904ca7	0.0704587
117	0xbd8a34e0	-0.06748366
118	0xbdb7f43c	-0.08982131
119	0x3d795541	0.06087232
120	0xbca098a1	-0.01960403
121	0xbd9bc654	-0.076061875
122	0x3d0b8def	0.034070905
123	0x3dabfe13	0.0839807
124	0xbbd3bc9d	-0.0064616934
125	0x3da15b75	0.07878772
126	0xbda693c1	-0.081336506
127	0xbd20eaf3	-0.039286565
128	0xbd81fd48	-0.06347138
129	0xbdcdff0d	-0.10058413
130	0xbd6a6834	-0.057228282
131	0x3b037cad	0.0020063326
132	0x3c9ac96b	0.018894872
133	0xbb4cf160	-0.00312718
134	0xbbdc4a5d	-0.006722732
135	0x3da9f53c	0.08298728
136	0x3d55db31	0.05221099
137	0x3d88d49b	0.06681176
138	0xbbdb956d	-0.0067011626
139	0x3c92bed4	0.01791326
140	0x3c6e3ef4	0.014541376
141	0xbcb3c649	-0.021945136
142	0xbd3faa8e	-0.046793513
143	0xba50b903	-0.0007962139
144	0xbca5d927	-0.020245148
145	0x3d94a929	0.07258827
146	0xbd690615	-0.056890566
147	0xbdcc2c07	-0.09969335
148	0x3d42e5d3	0.04758246
149	0x3d31317e	0.04326009
150	0x3d0e041b	0.034671884
151	0xbc079a82	-0.008276584
152	0x3e0bd66a	0.13656011
153	0x3afe0f37	0.0019383196
154	0x3d51b122	0.051194318
155	0x3d8a608d	0.06756697
156	0xbd9dc60b	-0.07703789
157	0xbbb4bd23	-0.005515711
158	0x3d327580	0.043569088
159	0xbd305b2d	-0.043055702
160	0xbd9ff337	-0.078100614
161	0x3add38da	0.0016877905
162	0xbd25ff00	-0.04052639
163	0x3d3c83f6	0.046024285
164	0xbd1e3515	-0.03862484
165	0x3e2f3bd1	0.17112662
166	0x3c17e14b	0.009270023
167	0xbcea4c20	-0.028600752
168	0x3cd27ce9	0.025694327
169	0xbdb3ae42	-0.087734714
170	0x3d56236b	0.05227987
171	0x3e040e2d	0.12896033
172	0xbbb147a1	-0.00541015
173	0xbca3d9f9	-0.020001398
174	0xbd9979a0	-0.07493901
175	0x3ce70bae	0.028203811
176	0xbd794c25	-0.060863633
177	0x3d089844	0.033348337
178	0xbd94fc76	-0.072747156
179	0xbba6ef43	-0.00509444
180	0x3bb28405	0.005447867
181	0xbd0e23fc	-0.034702286
182	0xbdb46fe4	-0.08810404
183	0xbdce9459	-0.10086889
184	0xbdb9570c	-0.09049806
185	0xbd4d7580	-0.050160885
186	0x3bba7643	0.0056903674
187	0x3cc4d500	0.024027348
188	0x3df9d7cc	0.12199363
189	0x3b71b90b	0.0036883976
190	0x3d05c192	0.032655306
191	0x3c929098	0.017891213
192	0xbd5b10a2	-0.05348266
193	0xbce7b069	-0.028282361
194	0x3d8cdfef	0.068786494
195	0xbdcc2758	-0.09968442
196	0x3d50d455	0.050983746
197	0xbd3f0d99	-0.046643827
198	0xbdcd0e7d	-0.10012529
199	0xbc441679	-0.0119682485
200	0x3d6c230e	0.05765062
201	0xbb82e0e5	-0.0039940947
202	0x3cf04f21	0.029334607
203	0x3ba93e7f	0.005164921
204	0x3c0989d0	0.0083946735
205	0x3d6f219c	0.05838166
206	0xbce1e930	-0.027577013
207	0xbd965f12	-0.07342352
208	0x3dde3aa0	0.108510256
209	0x3dfe205b	0.12408515
210	0x3d8a1be3	0.067436
211	0x3ca1be63	0.019744104
212	0x3cba5b0b	0.02274849
213	0xbc6b7a5f	-0.014372437
214	0x3c1e37bd	0.009656844
215	0xbd4336e4	-0.04765977
216	0x3bedc622	0.0072562853
217	0xbd80d337	-0.06290286
218	0xbd95b2d0	-0.073094964
219	0x3bf2daa4	0.007411318
220	0x3d9a3d2e	0.075312
221	0xbd54d414	-0.051960066
222	0x3d863999	0.06553955
223	0xbd1af9bb	-0.037835818
224	0xbc768a35	-0.0150476
225	0x3d96d65a	0.07365103
226	0x3ddd356f	0.10801207
227	0xbda0af8a	-0.078459814
228	0xbc4bbb55	-0.0124348
229	0xbd54ac22	-0.05192197
230	0xbdaafe5e	-0.08349298
231	0x3ab906ac	0.0014116368
232	0x3dd29d8d	0.10283957
233	0x3db652e1	0.08902527
234	0xbd48e1c6	-0.04904344
235	0xbda9369e	-0.082623705
236	0x3c926cfa	0.01787423
237	0xbd1fe2d6	-0.039034687
238	0x3d1bc3a8	0.03802839
239	0xbd1c4358	-0.03815016
240	0xbcace6d0	-0.021106154
241	0x3d39daf7	0.045374837
242	0xbae60190	-0.0017548073
243	0x3d8efe46	0.069820926
244	0xbcf5ae05	-0.029990206
245	0x3d9b27b8	0.07575935
246	0x3d00f5cb	0.031484406
247	0x3cb723a1	0.022355856
248	0x3c57a9bc	0.013163026
249	0x3cccf836	0.0250207
250	0xbd905b00	-0.07048607
251	0x3dc0939c	0.09403154
252	0xbdb1ff07	-0.08691221
253	0x3ccf7ecf	0.025329022
254	0x3db6e054	0.08929506
255	0xbc4778cd	-0.012174797

onnx::LSTM_203 f4 [1, 512, 128]
0	0x3d295f51	0.041350666
1	0x3d930fee	0.07180773
2	0x3ca40369	0.020021157
3	0xbd81264e	-0.06306134
4	0x3d139847	0.036033895
5	0xbafbdd4e	-0.0019215734
6	0xbcdeae60	-0.027182758
7	0x3ccb1288	0.02478911
8	0xbd622cf5	-0.055218656
9	0x3c90cd10	0.017675906
10	0xbe52ee7e	-0.2059879
11	0x3dc5d3ab	0.09659513
12	0xbd78635f	-0.060641643
13	0x3d897e9e	0.067136034
14	0x3d27e0b8	0.040985793
15	0xbd13124e	-0.03590613
16	0xbdde170c	-0.108442396
17	0xbe68b9da	-0.22727147
18	0xbdffc65c	-0.12489006
19	0x3b23b69f	0.0024980677
20	0x3d21e3e9	0.039523993
21	0x3c35db0e	0.01109959
22	0x3d813c96	0.06310384
23	0x3e6f9007	0.23394786
24	0xbda2d054	-0.07949892
25	0xbda433f4	-0.08017722
26	0xbd1b126f	-0.037859377
27	0x3cff0030	0.03112802
28	0xbdec6ecb	-0.115445696
29	0x3d521e7a	0.051298596
30	0x3da26b4a	0.0793062
31	0x3d0c5b9c	0.034267053
32	0xbdbbdec4	-0.091733485
33	0x3d30290b	0.04300789
34	0xbd3de5bd	-0.046361674
35	0x3c255615	0.010091324
36	0xbd824792	-0.06361307
37	0xbc229de6	-0.009925341
38	0xbcaa5f99	-0.020797538
39	0x3e480db4	0.19536477
40	0xbd124d10	-0.035718024
41	0x3d139ab4	0.03603621
42	0xbd8f988a	-0.070115164
43	0xbd7e6b02	-0.06211377
44	0xbd16b428	-0.036792904
45	0xbcd0553b	-0.025431266
46	0x3d99d601	0.07511521
47	0x3d60003b	0.05468772
48	0xbd41bfbb	-0.04730199
49	0x3c5c5e98	0.013450287
50	0xbd214805	-0.039375324
51	0xbb83ffd2	-0.004028299
52	0x3c38877b	0.01126277
53	0x3dab88ec	0.08375725
54	0xbe03f306	-0.12885675
55	0xbe002b18	-0.12516439
56	0xbd843cfa	-0.06456943
57	0x3d2359f3	0.039880704
58	0x3d22d598	0.03975448
59	0xbd03a7b8	-0.03214237
60	0xbe1f29fd	-0.15543361
61	0xbc8eaff4	-0.017417885
62	0x3c9bdeb1	0.019027086
63	0x3d278976	0.040902577
64	0x3d3be8a5	0.045876164
65	0x3c82b7d2	0.015956793
66	0x3d10b01e	0.03532421
67	0xbd797659	-0.06090388
68	0x3d8e963b	0.06962248
69	0x3d6cc603	0.057806026
70	0x3d86aad8	0.065755546
71	0xbd7bec5b	-0.061504703
72	0x3bd7ab89	0.006581728
73	0xbd933197	-0.07187193
74	0xbca68d29	-0.020330982
75	0xbced7f93	-0.028991496
76	0x3d38b53a	0.045094706
77	0xbcbaebd1	-0.022817524
78	0xbc8ce499	-0.017198848
79	0x3c1196d9	0.008886063
80	0xbde6a080	-0.11261082
81	0x3e3db9b3	0.1852787
82	0xbe003a8f	-0.12522338
83	0xbdaa8804	-0.08326724
84	0xbd39a35a	-0.0453218
85	0xbd063905	-0.03276922
86	0xbe4bda55	-0.19907506
87	0xbd03fb98	-0.03222236
88	0xbc55e622	-0.013055356
89	0x3d31d667	0.04341736
90	0xbcd662f3	-0.02617023
91	0x395e743a	0.00021214868
92	0x3c79914b	0.015232394
93	0xbce46137	-0.027878387
94	0x3d931c2d	0.071831085
95	0xbb3ff176	-0.002928821
96	0x3e4d016b	0.20020072
97	0xbd7fde80	-0.062468052
98	0xbe0c8512	-0.13722637
99	0xbd8407b4	-0.06446782
100	0xbd849527	-0.06473761
101	0x3d0e0e4d	0.034681607
102	0xb9e0fd1d	-0.00042913193
103	0x3d2b8aec	0.041880533
104	0x3d7c107c	0.06153916
105	0xbd07e18e	-0.03317409
106	0x3d672444	0.05643107
107	0x3c95d60d	0.018290544
108	0xbddaba4d	-0.10680065
109	0xbd07b869	-0.03313485
110	0x3c7380bb	0.014862235
111	0x3c8d2895	0.017231265
112	0xbca05de7	-0.019576026
113	0x3d86b5a4	0.06577614
114	0x3cc6a57d	0.024248833
115	0xbc82f6d8	-0.015986845
116	0xbe036f8a	-0.12835518
117	0x3b5872b1	0.0033027346
118	0xbd24ce90	-0.040236056
119	0xbd6c7945	-0.05773284
120	0xbcf8cff6	-0.030372601
121	0x3dadbe76	0.08483593
122	0x3da0efbd	0.078582264
123	0xbda1064c	-0.07862529
124	0xbd0547f7	-0.032539334
125	0xbca6455d	-0.020296747
126	0x3e08b42c	0.1334998
127	0xbcb38b3c	-0.021916978
128	0xbdb80a07	-0.089862876
129	0xbde1aa66	-0.11018829
130	0xbd45235f	-0.048129436
131	0xbd51584c	-0.051109597
132	0x3d965448	0.07340294
133	0x3d3d2cbe	0.046185248
134	0x3d4e6ec3	0.0503986
135	0x3d729d3b	0.059231978
136	0x3d76dee6	0.060271166
137	0xbd26601b	-0.040618997
138	0x3ddf44d4	0.109018
139	0xbccdd0a1	-0.025123896
140	0xbd84c86e	-0.064835414
141	0x3dc0d2be	0.09415196
142	0xbdb0fc7c	-0.086419076
143	0xbcfb101a	-0.030647326
144	0x3dc80401	0.09766389
145	0x3e270163	0.16309123
146	0x3d51402e	0.051086597
147	0x3caa4483	0.020784622
148	0xbd63c103	-0.055603992
149	0x3d398080	0.045288563
150	0xbd9cb203	-0.076511405
151	0xbd9c3d1e	-0.07628845
152	0x3dead730	0.11466825
153	0xbdc63039	-0.096771665
154	0xbc9c0517	-0.019045396
155	0x3da95be0	0.08269477
156	0xba097904	-0.0005244168
157	0xbcbe902f	-0.023262111
158	0xbd9fba59	-0.07799215
159	0xbd988120	-0.07446504
160	0xbdc5eea2	-0.09664656
161	0x3da989c9	0.082782336
162	0x3d261789	0.04054979
163	0xbd5769d0	-0.052591145
164	0x3cbfe809	0.023426073
165	0xbd38d5aa	-0.04512564
166	0xbc4bda61	-0.012442202
167	0x3ce35bf5	0.02775381
168	0x3d659b03	0.056056034
169	0xbd9e358e	-0.077250585
170	0xbcb4639d	-0.022020156
171	0xbdd30185	-0.10303024
172	0x3da8805f	0.0822761
173	0x3b1023cb	0.002199399
174	0x3d92ce52	0.07168259
175	0xbc7c8c75	-0.015414347
176	0x3d488b61	0.048961047
177	0xbd6f92d4	-0.058489636
178	0xbd402736	-0.046912394
179	0x3ad53766	0.001626712
180	0x3dacf6fc	0.08445546
181	0x3dacf42f	0.08445012
182	0x3dbd234a	0.092352465
183	0x3d25d783	0.04048873
184	0xbd8d2261	-0.06891323
185	0x3d6344bf	0.055485483
186	0x3da2e499	0.07953758
187	0xbdad4fc8	-0.08462483
188	0xbca9afa7	-0.02071364
189	0xbd21a703	-0.039465915
190	0x39ba7e52	0.000355708
191	0xbd614511	-0.054997507
192	0x3d9589bf	0.073016636
193	0xbd65dcd8	-0.056118816
194	0x3bb22acf	0.005437232
195	0xbcdc126b	-0.026864251
196	0x3d397bf9	0.045284245
197	0x3d3696a2	0.04457725
198	0x3d83836c	0.06421551
199	0xbd6f8e91	-0.05848557
200	0xbd569e0a	-0.05239681
201	0x3d9f07ed	0.077651836
202	0xbd59bd11	-0.053158823
203	0xbda7bda6	-0.081904694
204	0xbcc45e35	-0.023970703
205	0xbd808c88	-0.06276804
206	0x3c097414	0.008389492
207	0x3dd14e69	0.10220034
208	0x3dbe4ba3	0.0929177
209	0xbd14fb56	-0.036372505
210	0x3c993d29	0.018705921
211	0x3d8f1d54	0.06988016
212	0xbd2ed768	-0.042685896
213	0x3bc06784	0.005871715
214	0x3b015c18	0.001973873
215	0x3d619684	0.055075184
216	0x3c45b383	0.012066725
217	0x3dbd5c4a	0.09246118
218	0xbde1897c	-0.11012551
219	0xbd365e5f	-0.044523593
220	0xbd27791f	-0.040886994
221	0x3c4f3606	0.012647158
222	0xbda12e9f	-0.078702204
223	0xbc625438	-0.013814025
224	0xbced2682	-0.028949026
225	0x3d954852	0.07289185
226	0x3d27d073	0.040970277
227	0xbdc0b985	-0.09410385
228	0xbc837e40	-0.016051412
229	0x3d49e03e	0.04928612
230	0xbb792e7e	-0.0038022096
231	0x3e011476	0.12605461
232	0x3d4eaa25	0.05045523
233	0x3a76d330	0.00094156247
234	0x3d2c0d96	0.042005144
235	0x3c26dd26	0.010184562
236	0x3e247bc1	0.16062833
237	0xbc090f7f	-0.008365511
238	0xbd738ddb	-0.059461456
239	0xbdf99958	-0.12187451
240	0xbdc0fd25	-0.094232835
241	0x3b6fa256	0.0036565266
242	0x3ca3df16	0.020003837
243	0x3d7d567e	0.061850064
244	0xbd9d1a8d	-0.0767108
245	0xbd17dff9	-0.03707883
246	0x3dcac716	0.09901254
247	0xbbe904ec	-0.0071111824
248	0x3d6f8065	0.058472056
249	0xbd47ed3f	-0.04881024
250	0x3d917bd2	0.07103695
251	0xbd3334aa	-0.043751396
252	0xbc82a74d	-0.015948916
253	0x3dbf14d3	0.09330144
254	0xbdbb4bbb	-0.09145304
255	0xbd84fd5a	-0.064936355

onnx::LSTM_204 f4 [1, 512, 128]
0	0xbce42293	-0.027848518
1	0x3e0c198b	0.13681619
2	0xbc09c11a	-0.008407855
3	0xbcb2559f	-0.021769343
4	0x3d361a44	0.044458643
5	0xbcd79690	-0.026316911
6	0x3b539797	0.00322864
7	0x3b53a68e	0.003229532
8	0x3d165fd2	0.036712475
9	0x3d4585dd	0.048223365
10	0x3d66654d	0.05624895
11	0xbcf11a9d	-0.029431636
12	0xbbc0e3f1	-0.0058865477
13	0xbd45d52f	-0.04829901
14	0xbd2edeec	-0.042693064
15	0xbc8a8f52	-0.016914044
16	0x3993570a	0.00028102874
17	0x3dda9adf	0.106740706
18	0x3c8117a8	0.01575835
19	0x3debeafc	0.11519429
20	0xbd52d889	-0.051476035
21	0x3dfc1f42	0.123106495
22	0x3d8e2cf2	0.069421664
23	0x3bb1c806	0.005425456
24	0x3b2f75c4	0.0026773075
25	0x3d04364f	0.032278355
26	0xbd1025fa	-0.035192467
27	0x3b367b62	0.0027844538
28	0xbd801237	-0.06253474
29	0xbc28033a	-0.0102546755
30	0xbdc9b3de	-0.0984876
31	0x3cacb0c5	0.021080384
32	0xbcb0930a	-0.021554489
33	0x3d050aed	0.032481123
34	0x3d206ead	0.03916805
35	0xbd99a846	-0.07502799
36	0xbd82e472	-0.06391229
37	0xbca4c2f2	-0.020112488
38	0xbc67c7a8	-0.014146723
39	0xbc99346e	-0.018701758
40	0x3c88ba21	0.016690316
41	0xbd56eb1e	-0.05247032
42	0xbd69cc02	-0.057079323
43	0x3d3e454b	0.0464528
44	0xbc1f78d4	-0.0097333975
45	0xbc3e8cb6	-0.011630228
46	0xbdb888ae	-0.090104446
47	0xbc8448ab	-0.016147932
48	0xbca50661	-0.020144643
49	0x3db707d4	0.0893704
50	0xb8f439fd	-0.00011645628
51	0x3d33f882	0.043938167
52	0x3d2de1c1	0.042451624
53	0x3c74985f	0.014928906
54	0x3d8b26fe	0.067945465
55	0xbc933831	-0.01797113
56	0xbd2fcf19	-0.042922113
57	0xbd4d9939	-0.050194953
58	0x3d68b7f8	0.05681607
59	0xbd576639	-0.05258772
60	0xbdc27615	-0.094951786
61	0x3c469b02	0.012121918
62	0xbc3c4cd3	-0.011492926
63	0x3daaa98c	0.0833312
64	0xbd8864c3	-0.06659844
65	0xbb29c466	-0.0025904416
66	0x3d235bd4	0.039882496
67	0xbda46b4e	-0.08028279
68	0x3cf139f8	0.029446587
69	0x3dc937bd	0.09825084
70	0xbc92885b	-0.017887285
71	0xbdb5d285	-0.08878044
72	0x3e00b095	0.1256736
73	0xbdf43c6c	-0.11925587
74	0xbd4a7257	-0.04942545
75	0x3c5015e2	0.01270053
76	0x3ce1395e	0.027493175
77	0xbc4dffbe	-0.012573181
78	0xbd833132	-0.06405868
79	0xbc7041bb	-0.014664109
80	0x3c94803e	0.018127557
81	0x3d8ce383	0.06879332
82	0xbd6bb187	-0.05754235
83	0x3c1d79a5	0.009611522
84	0xbd9e0665	-0.077160634
85	0xbdb1e79d	-0.08686755
86	0xbcd54d4d	-0.026037836
87	0x3d264478	0.04059264
88	0x3b385de7	0.0028132142
89	0xbd5a596c	-0.053307936
90	0x3ccd40de	0.025055345
91	0xbab8acf4	-0.001408963
92	0xbd7bf276	-0.061510526
93	0xbdaee35c	-0.08539459
94	0xbd824368	-0.06360513
95	0xbda78ce5	-0.081811704
96	0x3d3faabc	0.046793684
97	0x3c89e99a	0.016835023
98	0x3d414ca3	0.047192227
99	0x3d36c9ab	0.04462592
100	0xbc90b2e3	-0.017663425
101	0xbded861e	-0.115978464
102	0xbd8b9647	-0.068157725
103	0xbd10bc7b	-0.035336
104	0xbd968e14	-0.07351318
105	0x3d8d3612	0.06895079
106	0xbae8b5a4	-0.0017754328
107	0x3c5f11c6	0.013615077
108	0x3d9762e1	0.073919065
109	0xbd16a15e	-0.036774985
110	0x3c0cba12	0.0085892845
111	0xbd8e2e42	-0.06942417
112	0x3d767a68	0.06017533
113	0x3d4bfdc8	0.04980257
114	0x3d33e347	0.04391792
115	0x3d31a18f	0.043366965
116	0x3d170cfc	0.036877617
117	0x3cc35dc6	0.023848426
118	0xbce013c6	-0.027353179
119	0x3d2a1fb9	0.04153416
120	0xbc69e6b3	-0.014276194
121	0x3da22958	0.07918042
122	0xbdf15413	-0.11783614
123	0xbdb8f105	-0.09030346
124	0xbc78af1c	-0.015178468
125	0xbd2c8554	-0.04211934
126	0xbd26a7ca	-0.04068736
127	0x3d61ede5	0.055158515
128	0xbce1c32c	-0.027558886
129	0x3cb5fe7d	0.022216076
130	0xbdf6e83e	-0.120560154
131	0x3d18f6a7	0.0373446
132	0x3ad3b0a9	0.0016150671
133	0xbd9ed00e	-0.07754527
134	0x3ddf43ca	0.109016016
135	0x3d5aabef	0.053386625
136	0x3d630aa6	0.055430077
137	0xbd9e8708	-0.07740599
138	0x3c88a824	0.016681738
139	0xbd8680bd	-0.06567524
140	0x3a94756b	0.0011326497
141	0xbdf8f243	-0.12155583
142	0x3d53ba0f	0.05169111
143	0x3d56354b	0.052296918
144	0x3e5dc02d	0.2165534
145	0x3d167525	0.03673281
146	0x3d2b5b31	0.041835014
147	0x3ca27394	0.019830503
148	0x3dae9317	0.08524149
149	0xbdc6a8cc	-0.09700164
150	0x3d18c1fd	0.037294377
151	0xbcd3a52a	-0.025835592
152	0x3ca6c2d9	0.020356582
153	0x3aa35c9e	0.0012463515
154	0xbd8065ae	-0.06269394
155	0x3c76ef59	0.015071713
156	0x3df9a414	0.121894985
157	0x3dd3f183	0.10348799
158	0x3da5e11c	0.08099577
159	0x3d928c3b	0.07155653
160	0xbddc96b9	-0.107709356
161	0x3d9d1c3b	0.076714
162	0xbd8909d1	-0.066913255
163	0xbd684591	-0.05670697
164	0xbc3c5f9f	-0.011497407
165	0xbd5cd550	-0.05391437
166	0xbcab9407	-0.020944608
167	0xbd9eea15	-0.07759491
168	0xbb8181a5	-0.0039522224
169	0xbd90ba83	-0.07066824
170	0xbb9964f6	-0.004681225
171	0xbd70fef4	-0.058836892
172	0x3bc43982	0.005988301
173	0xbd5bd187	-0.053666618
174	0xbc9a0f2a	-0.018806059
175	0xbd9dc5f0	-0.07703769
176	0x3d0c86f3	0.034308385
177	0xbd2bc640	-0.041937113
178	0x3d9aafd2	0.07553066
179	0x3d979217	0.07400911
180	0x3d34fe9d	0.04418813
181	0x3d8b1eeb	0.067930065
182	0xbe0a0d30	-0.13481593
183	0xbe2fc481	-0.17164804
184	0xbdc9c391	-0.098517545
185	0x3e21933f	0.15778826
186	0x3d7fd8ea	0.062462725
187	0xbce29568	-0.027659133
188	0x3cac47e6	0.021030378
189	0x3e0ab15f	0.13544224
190	0x3cc71874	0.024303652
191	0x3d36b05d	0.044601787
192	0x3de5440a	0.11194618
193	0x3c930234	0.017945386
194	0xbdcc9c43	-0.09990742
195	0xbe2cb84e	-0.16867182
196	0x3d8c4b41	0.06850291
197	0xbcfddf0e	-0.03099015
198	0xbdbdf1e8	-0.092746556
199	0x3da68554	0.08130899
200	0x3db02e7f	0.086026184
201	0x3dc415cf	0.09574472
202	0x3df77a01	0.12083817
203	0x3cbf6108	0.023361698
204	0x3d8a2908	0.06746107
205	0x3d52b2db	0.0514401
206	0x3d10dd82	0.035367496
207	0x3d9dfd98	0.07714385
208	0x3d8b7ff9	0.06811518
209	0xbd192999	-0.037393186
210	0x3dc7e106	0.09759717
211	0x3d219a5a	0.03945384
212	0xbdb59e99	-0.08868141
213	0xbc121bfb	-0.008917804
214	0xbd6ab1fe	-0.057298653
215	0x3d7fa3b2	0.06241197
216	0x3d1bccd1	0.038037125
217	0x3d671e79	0.056425545
218	0xbe1bf704	-0.15230948
219	0xbbf5acba	-0.0074973973
220	0x3da98a1a	0.08278294
221	0xbda3ac99	-0.07991905
222	0x3cd57d67	0.026060773
223	0x3d4a189d	0.04933988
224	0xbd6851bf	-0.056718584
225	0xbd20fa2a	-0.039301075
226	0x3c62d5c0	0.013844907
227	0x3c9054c0	0.017618537
228	0x3c980b8a	0.01856019
229	0xbce98667	-0.02850647
230	0x3e14d479	0.14534177
231	0x3d544a5d	0.05182873
232	0xbd34bb83	-0.044124138
233	0x3d32f2fb	0.043688755
234	0x3dd7bd2d	0.10534129
235	0x3d9359ea	0.07194884
236	0x3df9ade5	0.12191371
237	0xbcc6ee58	-0.024283573
238	0xbe0a594c	-0.13510627
239	0x3d0b5cf8	0.03402421
240	0xbcf441a7	-0.029816462
241	0x3b303411	0.0026886503
242	0x3cd68b6c	0.026189528
243	0x3bfb0427	0.007660407
244	0x3dad917f	0.08475017
245	0xbe3813c7	-0.17976294
246	0x3d6fedb7	0.058576312
247	0x3ca1330a	0.019677658
248	0x3d89a118	0.06720179
249	0xbd14af2b	-0.036299866
250	0xbce3b05d	-0.027794058
251	0x3cf9729b	0.030450156
252	0xbc6ca9dd	-0.014444795
253	0x3e00cd0f	0.12578224
254	0xbd6c4b88	-0.05768922
255	0xbc11f610	-0.0089087635

onnx::LSTM_205 f4 [1, 1024]
0	0xbd5b7701	-0.053580288
1	0xbd9b55e0	-0.07584739
2	0xbd2d3426	-0.04228606
3	0xbdf1c016	-0.118042156
4	0xbd451dff	-0.04812431
5	0x3c758f15	0.014987727
6	0xbcc45ee2	-0.023971025
7	0xbd88e06c	-0.0668343
8	0xbd428ddc	-0.04749857
9	0xbdc3ee49	-0.09566934
10	0x3cb67a1f	0.022275029
11	0xbcd4da21	-0.025982918
12	0xbde3d94a	-0.11125429
13	0xbdc90547	-0.0981546
14	0x3dab1622	0.08353831
15	0xbd9ceb7a	-0.07662101
16	0xbd162641	-0.036657576
17	0x3d8ff902	0.07029916
18	0xbda76680	-0.08173847
19	0x3d820988	0.06349474
20	0xbd84d419	-0.06485767
21	0xbe0db051	-0.1383679
22	0x3d995e20	0.07488656
23	0xbd907ad4	-0.070546776
24	0xbcefaa95	-0.029256145
25	0xbd22532c	-0.0396301
26	0x3d94288a	0.07234295
27	0x3d2cdb10	0.0422011
28	0xbdf4144e	-0.11917935
29	0xbcf99963	-0.030468648
30	0x3be96a41	0.007123262
31	0x3d508943	0.050912153
32	0xbb1b8f62	-0.0023736586
33	0xbd1bc94e	-0.038033776
34	0xbcf2878b	-0.029605648
35	0x3cc9bbf1	0.02462575
36	0xbd7215cf	-0.05910283
37	0xbdcbaaac	-0.099446625
38	0xbc169484	-0.009190682
39	0xbd96c6f9	-0.0736217
40	0xbd2c2d73	-0.04203553
41	0x3d714f18	0.05891332
42	0xbd8d458e	-0.06898032
43	0x3cceb4bd	0.025232667
44	0x3d11f08b	0.03562979
45	0x3bef44a7	0.007301885
46	0x3cd1b71d	0.02560001
47	0xbd532fb4	-0.051559165
48	0xbd3f1b56	-0.04665693
49	0x3b57eb0f	0.0032946502
50	0xbdb0394e	-0.0860468
51	0xbda1c6c6	-0.07899241
52	0xbce33b63	-0.027738279
53	0x3d8b5be4	0.06804636
54	0xbc6b0431	-0.014344261
55	0xbca93ae9	-0.020657973
56	0xbd84a6c4	-0.064771205
57	0xbd9cc818	-0.07655352
58	0x3d7d79e3	0.06188382
59	0xbd6b5386	-0.0574527
60	0xbcbfea35	-0.023427108
61	0x3d1ff77b	0.039054375
62	0x3cd63ca1	0.026151957
63	0xbdea672b	-0.11445459
64	0x3ad0fcea	0.0015944515
65	0x3d3676d2	0.04454691
66	0x3ca90d9a	0.020636369
67	0xba4f909a	-0.00079179707
68	0xbd8ec89f	-0.06971859
69	0xbdc0dd00	-0.094171524
70	0xbc24b69c	-0.010053303
71	0xbda84f0d	-0.08218203
72	0xbdd4c2e4	-0.10388735
73	0xbd8e7b5d	-0.069571234
74	0xba904053	-0.0011005498
75	0xbd0658c0	-0.032799482
76	0x3ceb43ec	0.028718911
77	0x3d8da5d8	0.06916398
78	0x3ce3dced	0.027815307
79	0x3cd86aae	0.026418056
80	0xbd14ca26	-0.036325596
81	0x3d117381	0.035510544
82	0x3dadf0eb	0.08493217
83	0xbd840367	-0.064459614
84	0x3cf66769	0.030078607
85	0x3d833295	0.06406132
86	0xbd5aa535	-0.05338021
87	0xbbb7cb39	-0.005608943
88	0xbd03f213	-0.03221328
89	0x3d9c8575	0.076426424
90	0xbceed757	-0.029155416
91	0x3d93b910	0.07213032
92	0xbd863d74	-0.0655469
93	0xbe0ef1f8	-0.13959491
94	0xbdc862f0	-0.09784496
95	0xbdaee7d8	-0.085403144
96	0xbdbb84fb	-0.091562234
97	0xbd7e475f	-0.062079784
98	0x3d96747d	0.07346437
99	0xbc645ca0	-0.013938099
100	0xbdd1749c	-0.102273196
101	0xbb1416f6	-0.0022596694
102	0xba937c49	-0.001125225
103	0xbc8f0ee4	-0.017463155
104	0xbd40c60a	-0.047063865
105	0xbd1311fa	-0.035905816
106	0x3dcdf1f1	0.10055912
107	0xbc3e623d	-0.0116201015
108	0xbdfd0319	-0.123541065
109	0xbcca2928	-0.024677828
110	0xbcb8a04e	-0.022537377
111	0xbda5fbcf	-0.08104669
112	0xbdcf5123	-0.101228975
113	0xbda7962d	-0.08182941
114	0xbdaf4c43	-0.08559468
115	0xbd84dfa4	-0.064879686
116	0x3c3b3a2e	0.011427445
117	0x3d2eb789	0.0426555
118	0x3cb0424e	0.021515992
119	0xbd230923	-0.039803635
120	0xbd04f044	-0.032455698
121	0xbd642c15	-0.055706102
122	0xbd77771d	-0.06041633
123	0x3c726f3d	0.014797029
124	0xbc188fb5	-0.009311606
125	0xbd92defd	-0.07171438
126	0x3d8c2746	0.06843428
127	0x3d6e8522	0.058232434
128	0xbcbefae6	-0.023312997
129	0xbd3fb812	-0.046806403
130	0xbdd6a438	-0.10480541
131	0xbdbe1d47	-0.09282928
132	0x3b198222	0.0023423512
133	0x3d57fb5a	0.052729942
134	0xbb823278	-0.0039733015
135	0xbc74c390	-0.014939204
136	0x3c30d117	0.010792038
137	0x3d4ac7c7	0.04950693
138	0xbd2a3a88	-0.041559726
139	0xbcdbef3a	-0.02684747
140	0x3cf597e1	0.029979648
141	0xbd525683	-0.051352035
142	0xbda0d967	-0.07853966
143	0x3d8953e1	0.06705452
144	0x3cada0cb	0.021194836
145	0xbda5f9ad	-0.081042625
146	0xbd21602e	-0.039398365
147	0x3c636aa2	0.013880404
148	0x3d5bc242	0.053652056
149	0xbdff03ed	-0.12451921
150	0x3d4096a6	0.04701867
151	0x3cd60bc3	0.026128655
152	0xbd8bcd02	-0.068262115
153	0xbde9f2aa	-0.114232376
154	0xbce78754	-0.028262772
155	0xbca76e73	-0.020438408
156	0x3cec801f	0.028869687
157	0x3c6806b6	0.014161756
158	0x3d5cff9a	0.0539547
159	0x3d5bedde	0.053693645
160	0x3cc59382	0.024118189
161	0xbdd7fe2b	-0.105465256
162	0xbbda9709	-0.006670837
163	0xbcb530a1	-0.022117915
164	0xbd186dbd	-0.03721403
165	0x3d0d380d	0.034477282
166	0xbd8bcd24	-0.06826237
167	0xbd5175f7	-0.05113789
168	0xbd672304	-0.056429878
169	0x3d0acf7c	0.03388928
170	0xbd22864c	-0.039678857
171	0x3c961207	0.018319143
172	0xbde0cdb9	-0.109767385
173	0xbd020310	-0.031741202
174	0xbb372a85	-0.0027948928
175	0xbd02af7e	-0.031905644
176	0xbc6f948b	-0.014622818
177	0xbbdcb517	-0.006735455
178	0x3c622de3	0.013804886
179	0xbde3ff45	-0.11132673
180	0xbd1553f2	-0.03645701
181	0x3d4784e1	0.048710708
182	0x3d3b7cd0	0.045773327
183	0x3cd00dec	0.025397263
184	0x3c9dfe19	0.019286202
185	0x3d28fced	0.041256834
186	0xbd316ed4	-0.043318585
187	0xbcbb1977	-0.022839291
188	0xbc4b1dce	-0.012397243
189	0x3d1ad8e1	0.037804488
190	0xbd7ffdfa	-0.06249807
191	0x3c37a4ae	0.011208696
192	0xbc59028f	-0.013245239
193	0xbc7767d9	-0.015100443
194	0xbc21b2d4	-0.009869296
195	0x3d2fb105	0.04289343
196	0x3ccadc84	0.024763353
197	0xbd1ff1ae	-0.039048843
198	0x3e09a853	0.13443117
199	0x3afb8524	0.0019189459
200	0x3d4b4a4f	0.049631413
201	0xbdcb638c	-0.099310964
202	0x3e25a496	0.16176066
203	0x3d18b9b0	0.03728646
204	0xbd6a0a60	-0.0571388
205	0xbd62f927	-0.05541339
206	0x3db6691d	0.089067675
207	0x3ceb2aae	0.028706875
208	0x3de2c447	0.11072593
209	0xbd582e1f	-0.05277836
210	0x3d7252f7	0.059161153
211	0xbdab0b0a	-0.08351715
212	0x3ae8a877	0.0017750402
213	0x3ba9dbd2	0.0051836753
214	0xbc9e4013	-0.019317662
215	0xbd030939	-0.031991217
216	0xbcbc87f9	-0.023014056
217	0x3db8ac92	0.0901729
218	0xbd10325d	-0.03520428
219	0x3d562246	0.05227878
220	0xbd095d47	-0.03353622
221	0xbd9d9624	-0.07694653
222	0x3bcc2c70	0.0062308833
223	0x3d2768a9	0.040871296
224	0x3cc4773d	0.023982638
225	0xbd339717	-0.043845262
226	0x3ca3e1ba	0.020005096
227	0xbd0f3801	-0.03496552
228	0xbdbdf354	-0.09274927
229	0xbda68572	-0.081309214
230	0xbc65846a	-0.014008621
231	0x3d1402af	0.03613537
232	0x3d7a99b4	0.06118174
233	0x3d97bc2c	0.07408938
234	0x3ad0c6bb	0.0015928367
235	0x3c3d0e5f	0.011539071
236	0xbdf1c3d0	-0.118049264
237	0xbd18081c	-0.03711711
238	0xbbb5aa1f	-0.0055439617
239	0xbd008184	-0.031373516
240	0xbd8f51d8	-0.06998032
241	0xbd706f69	-0.0587
242	0x3c1b6847	0.009485311
243	0x3d2c6f66	0.042098425
244	0x3d56261a	0.05228243
245	0x3e1fb2be	0.15595528
246	0x3d7c8b7c	0.06165646
247	0x3d84a35d	0.064764716
248	0xbde13d8d	-0.10998068
249	0xbcbade09	-0.022810953
250	0x3bfdf8b4	0.007750595
251	0xbdc567c1	-0.0963893
252	0xbcb13b38	-0.021634683
253	0x3d6040f7	0.054749455
254	0xbbfe7a08	-0.007766012
255	0xbccb5af5	-0.024823645
