model_q.onnx (onnx, 216807 bytes, 8 tensors)

fc.bias f4 [3]
0.073779985 -0.0040095276 -0.0025357953
00000000: f619 973d 5b62 83bb 962f 26bb

onnx::LSTM_185 f4 [1, 1024]
-0.046463065 -0.14371763 -0.05410087 -0.04520073 -0.14913015 -0.13825291 0.12455692 -0.17204864
-0.061450157 -0.03760488 -0.019821877 -0.06271536 -0.16617587 -0.045728322 -0.05241188 -0.10699326
-0.034894906 -0.08547684 -0.1325756 -0.020264294 -0.10264527 -0.09273779 0.06302215 0.013581775
-0.14876935 0.031096423 -0.20019428 0.007542753 0.020348065 -0.0007285978 -0.1138584 -0.100237384
-0.14578934 -0.089337856 -0.10263651 0.019752115 -0.0494967 -0.06535398 -0.0059550707 -0.037387084
-0.052291255 -0.014896179 0.057542987 0.12410275 -0.048822325 0.029748447 0.0059833215 -0.16741787
-0.106593214 -0.03170722 0.046251282 -0.048346102 -0.030119207 -0.063762024 0.0051119146 0.03586466
-0.024141815 -0.014039157 0.0142306965 0.042868152 0.042286716 -0.12204499 -0.067322865 -0.12100859
-0.07249278 -0.01963238 -0.008497667 -0.021434363 -0.038895696 -0.016658677 -0.11224792 0.05883784
-0.13539618 0.06848053 0.015594129 -0.12442089 -0.050199565 -0.03756953 0.02481979 -0.01562847
0.0037541175 -0.01832684 -0.024541965 0.05073846 0.06886177 0.030828536 -0.015091266 -0.09714481
-0.07714273 0.054484114 0.080357336 0.050755028 0.016146097 -0.14104752 -0.026202781 -0.11170598
0.0016236233 -0.05668776 -0.12428646 -0.19924514 -0.021296997 0.035650533 0.0041972715 0.09236746
-0.0066409875 -0.074238494 0.0042492305 -0.037377007 0.03242847 -0.07134024 -0.008452587 0.01117764
0.015450693 -0.04868009 0.06173073 0.09098257 0.09602891 -0.04328617 0.0031661058 -0.07892209
-0.16656463 0.027380012 -0.086489014 0.1311386 -0.09508715 -0.09644387 -0.11627786 -0.08302684
-0.06733286 -0.04377139 0.083004415 -0.07125431 -0.19425333 -0.13065904 0.041958626 -0.089612536
-0.1977396 0.016704619 0.0015004317 0.033478614 -0.1653498 0.0034749825 0.06895654 -0.009872434
-0.079659924 0.010824357 -0.12343485 -0.12706058 -0.061856322 -0.0721554 -0.0031422 -0.032041714
0.005963411 0.03404352 -0.025436165 -0.036603544 -0.024579752 -0.022380421 0.09173883 -0.08891537
-0.042066354 0.025553668 0.031687208 -0.0043410514 -0.040120486 0.053701192 -0.022641988 -0.03462474
-0.03643438 -0.10768355 0.05484541 -0.01945098 0.00092237396 -0.015704717 0.013295433 -0.1552511
-0.050373077 -0.1294095 0.10420813 -0.0005805217 -0.119210064 0.004507355 0.017650733 0.04516015
0.122747935 0.056800574 -0.07541478 0.038547073 -0.071489416 -0.09779021 -0.038214628 -0.0736786
0.024023479 -0.051191133 -0.12607157 -0.07530775 -0.114722416 -0.0139190955 -0.0882114 -0.025926186
-0.09471739 0.039222058 0.032750677 -0.10631373 -0.05777901 -0.024458602 0.04628497 -0.023526339
-0.12291494 -0.10957782 -0.04172795 0.1288892 -0.013128987 0.1143965 0.08860513 -0.091907926
0.009572056 -0.031214403 0.073792845 0.028452927 0.0465419 -0.05816419 0.036943138 0.031517334
-0.074880555 -0.11721053 -0.04845996 -0.12939595 -0.12668423 -0.01033747 -0.12292697 0.12094184
-0.011569727 -0.055176865 0.07513178 -0.07943843 -0.028487017 -0.05420048 -0.14343522 -0.036947023
-0.13001291 -0.090711154 0.02460832 0.0074462057 0.16671266 -0.09766795 -0.09419036 0.004427852
-0.1429131 -0.01919725 -0.14645508 0.00015399007 -0.06675888 -0.05370504 -0.09941261 -0.09518558
00000000: 0e50 3ebd b72a 13be e098 5dbd 6724 39bd
00000010: 93b5 18be 2c92 0dbe b317 ff3d 852d 30be
00000020: 29b3 7bbd 9307 1abd 7d61 a2bc e970 80bd
00000030: 022a 2abe 9f4d 3bbd d7ad 56bd 481f dbbd
00000040: f6ed 0ebd 7b0e afbd e6c1 07be 4e01 a6bc
00000050: af37 d2bd 4fed bdbd c211 813d 1886 5e3c
00000060: fe56 18be edbd fe3c bbff 4cbe 3329 f73b
00000070: fcb0 a63c 5fff 3eba 982e e9bd 4249 cdbd
00000080: cd49 15be c4f6 b6bd 1733 d2bd 30cf a13c
00000090: 0dbd 4abd 4fd8 85bd c122 c3bb 3323 19bd
000000a0: 5b2f 56bd 1a0f 74bc 32b2 6b3d 9529 fe3d
000000b0: ebf9 47bd 04b3 f33c bd0f c43b 976f 2bbe
000000c0: 8b4d dabd 6edf 01bd fc71 3d3d 9006 46bd
000000d0: 8ebc f6bc aa95 82bd d981 a73b d2e6 123d
000000e0: 0ec5 c5bc 7e04 66bc de27 693c 8496 2f3d
000000f0: d634 2d3d b9f2 f9bd 92e0 89bd 5ad3 f7bd
00000100: 1877 94bd 16d4 a0bc cc39 0bbc 1e97 afbc
00000110: 1851 1fbd c777 88bc 3de2 e5bd f2ff 703d
00000120: 4ca5 0abe 853f 8c3d 857e 7f3c 61d0 febd
00000130: 0f9e 4dbd 82e2 19bd df52 cb3c 4707 80bc
00000140: a407 763b 2b22 96bc 3b0c c9bc 22d3 4f3d
00000150: 6607 8d3d 208c fc3c 5b41 77bc dcf3 c6bd
00000160: 02fd 9dbd bc2a 5f3d 6392 a43d 81e4 4f3d
00000170: d244 843c c36e 10be 37a7 d6bc 1bc6 e4bd
00000180: c2cf d43a 6d31 68bd e689 febd eb06 4cbe
00000190: 0a77 aebc 4b06 123d 4489 893b 272b bd3d
000001a0: a49c d9bb 5a0a 98bd 213d 8b3b a218 19bd
000001b0: b7d3 043d d51a 92bd b87c 0abc 6c22 373c
000001c0: e724 7d3c c664 47bd 5dd9 7c3d 1255 ba3d
000001d0: ceaa c43d d74c 31bd 717e 4f3b e8a1 a1bd
000001e0: eb8f 2abe 0c4c e03c 2721 b1bd 3249 063e
000001f0: 0dbd c2bd 5d84 c5bd 1623 eebd fa09 aabd
00000200: cfe5 89bd a149 33bd 38fe a93d c8ed 91bd
00000210: 58ea 46be 7ccb 05be cfdc 2b3d c786 b7bd
00000220: 407c 4abe 20d8 883c 22aa c43a df20 093d
00000230: 7551 29be 88bc 633b 1639 8d3d fdbf 21bc
00000240: be24 a3bd a558 313c 69cb fcbd 2b1c 02be
00000250: 0e5d 7dbd 36c6 93bd 5eed 4dbb 2c3e 03bd
00000260: b868 c33b 3871 0b3d 815f d0bc 99ed 15bd
00000270: 7a5b c9bc 2557 b7bc 91e1 bb3d 4319 b6bd
00000280: c54d 2cbd ed55 d13c 72ca 013d 613f 8ebb
00000290: 6155 24bd c8f5 5b3d b17b b9bc acd2 0dbd
000002a0: 373c 15bd 3189 dcbd 95a5 603d a957 9fbc
000002b0: 78cb 713a 2ea7 80bc 16d5 593c 25fa 1ebe
000002c0: 0054 4ebd ed83 04be 126b d53d 272e 18ba
000002d0: 6824 f4bd 6fb2 933b 4598 903c d9f9 383d
000002e0: 4563 fb3d b8a7 683d 1073 9abd 89e3 1d3d
000002f0: 0b69 92bd 3c46 c8bd f186 1cbd cee4 96bd
00000300: e3cc c43c cbad 51bd e818 01be f33a 9abd
00000310: 96f3 eabd eb0c 64bc 2ea8 b4bd 2763 d4bc
00000320: 31fb c1bd 4fa7 203d 9325 063d 03bb d9bd
00000330: afa9 6cbd 685d c8bc 4f95 3d3d 4fba c0bc
00000340: d4ba fbbd 566a e0bd edea 2abd 88fb 033e
00000350: f61a 57bc b648 ea3d 9b76 b53d 393a bcbd
00000360: 1dd4 1c3c 59b5 ffbc b420 973d 1d16 e93c
00000370: b8a2 3e3d 933d 6ebd b051 173d 5218 013d
00000380: fa5a 99bd 130c f0bd f37d 46bd 5f80 04be
00000390: 83b9 01be 7e5e 29bc 23c1 fbbd 5bb0 f73d
000003a0: f48e 3dbc 2301 62bd b1de 993d 9eb0 a2bd
000003b0: 9b5d e9bc 5301 5ebd afe0 12be c355 17bd
000003c0: 1b22 05be c5c6 b9bd 6397 c93c 4dff f33b
000003d0: b9b6 2a3e 2206 c8bd e0e6 c0bd 8417 913b
000003e0: d057 12be 8d43 9dbc 52f8 15be 6578 2139
000003f0: e1b8 88bd d1f9 5bbd d798 cbbd a8f0 c2bd

onnx::LSTM_205 f4 [1, 1024]
-0.092789605 0.061446525 0.057856847 0.018894045 -0.005125153 0.19390194 -0.052277472 -0.096602775
-0.067801364 0.13803425 0.08684859 -0.06702415 -0.09516269 0.07104833 0.05545719 0.026814608
-0.04583753 -0.06598737 0.07404266 0.07029407 -0.085398264 -0.044875972 -0.031620335 -0.024018982
0.0036003634 -0.12885806 -0.021153195 0.04399048 -0.10370405 -0.032953314 0.06816963 0.076739274
-0.008191465 -0.06496748 -0.039781753 0.0070090024 0.020804213 -0.00576443 -0.021153767 -0.019131953
-0.027234666 -0.05666793 -0.004232569 -0.05783445 0.044084366 0.06016976 0.065383375 0.054511663
0.03059767 0.061881952 0.05096653 0.10610705 -0.08886582 0.06402999 0.06739331 0.058623575
0.03880642 -0.026131755 0.024462244 0.14343922 -0.004257006 -0.01927906 -0.049489852 -0.059659872
-0.023847468 -0.042950906 0.095481575 -0.027624428 0.08939116 -0.04465545 0.032775417 0.035163626
-0.026203535 -0.009538079 0.014123244 0.009775692 -0.047022343 -0.059948236 -0.03620998 -0.013140327
-0.058302008 -0.070095815 0.06736641 0.042451754 0.008801604 0.017892098 -0.004231617 0.0069515775
0.017605796 0.02656286 -0.04097958 -0.0056345533 0.102812804 0.060614645 -0.08867033 -0.0031776375
0.011182811 -0.089387275 0.039980404 -0.04496153 0.08791623 0.068399265 0.000299535 0.039087158
0.031869955 -0.08159057 0.047328044 0.08360665 0.02710545 -0.00808179 -0.008204832 0.0103818225
-0.05823735 -0.11498814 -0.06413093 0.0585179 -0.03629368 -0.11870049 0.070644446 0.08304466
-0.04308772 0.043396093 -0.10707333 -0.0446883 -0.007039535 0.050287563 -0.03713232 0.068289526
-0.15285471 0.08372408 0.030466883 -0.09622878 0.044762935 0.005798893 0.035566118 -0.021189312
-0.0512072 0.14234732 0.11556961 0.053007837 0.11392177 0.07509267 -0.00057053 0.0941501
-0.055998713 0.057234794 -0.01954448 -0.059055455 0.086999424 0.10123187 -0.036700126 -0.04950784
0.11365281 -0.041307185 0.06765228 0.116007335 0.04341233 -0.037743688 -0.027265517 0.083204344
-0.09460448 -0.039589047 -0.060948648 0.083529316 0.0788958 0.07351191 -0.055382535 0.02268621
0.04027057 -0.07583652 -0.018141096 0.063021004 0.0072893854 -0.007846249 0.001619776 0.04092404
0.08764449 0.12660518 -0.019722035 -0.057466194 -0.11132158 0.12968747 0.0604512 -0.11073382
-0.01919437 0.21038729 -0.08451436 0.10939821 0.09315822 -0.06595619 -0.049213465 -0.06354492
-0.010810879 0.09392264 0.044985384 -0.011452184 0.022116108 -0.062157586 -0.07718525 -0.03177876
-0.023860402 -0.0138441175 -0.032374043 -0.05161688 0.016172718 -0.0045798547 -0.07485605 -0.12903008
0.012032948 0.08371988 -0.018868951 -0.081656024 0.026314296 0.051157836 0.045409653 -0.013539023
-0.047385536 0.03750533 0.11607309 0.024388691 0.08471935 0.06884932 -0.092496365 -0.0010602782
-0.13251619 -0.00015198691 -0.079382025 -0.06525063 0.034976915 0.0784435 0.040051594 -0.029529013
0.039626215 -0.063239716 0.07304124 -0.007044518 0.08225009 0.011229258 0.042610813 2.7539616e-05
-0.0014349085 -0.08559083 0.09726189 -0.0438508 0.013648387 0.024800045 0.04802334 -0.003567562
0.09377759 -0.05487281 -0.049370296 -0.10729497 0.07659356 -0.032577045 -0.023959763 0.07372367
00000000: 7a08 bebd 5aaf 7b3d 4dfb 6c3d afc7 9a3c
00000010: e6f0 a7bb 3b8e 463e e720 56bd add7 c5bd
00000020: 71db 8abd da58 0d3e acdd b13d f543 89bd
00000030: a8e4 c2bd c981 913d 1427 633d 4faa db3c
00000040: 22c0 3bbd 6324 87bd aea3 973d 56f6 8f3d
00000050: 49e5 aebd decf 37bd 5384 01bd 75c3 c4bc
00000060: 13f4 6b3b 5ef3 03be 7749 adbc 5d2f 343d
00000070: ca62 d4bd 0efa 06bd 859c 8b3d 7b29 9d3d
00000080: 7f35 06bc ac0d 85bd 31f2 22bd c6ab e53b
00000090: 996d aa3c 8be3 bcbb aa4a adbc 9dba 9cbc
000000a0: 3c1b dfbc a21c 68bd 5db1 8abb d1e3 6cbd
000000b0: cf91 343d 9174 763d b8e7 853d 9f47 5f3d
000000c0: f7a7 fa3c ee77 7d3d 48c2 503d a74e d93d
000000d0: 48ff b5bd 2822 833d 8105 8a3d 461f 703d
000000e0: 7bf3 1e3d 4312 d6bc 0b65 c83c bbe1 123e
000000f0: 5b7e 8bbb 1fef 9dbc dfb5 4abd e95d 74bd
00000100: c45b c3bc 4aed 2fbd d88b c33d a04c e2bc
00000110: b612 b73d a2e8 36bd 843f 063d bc07 103d
00000120: cca8 d6bc 9a45 1cbc 2e65 673c 392a 203c
00000130: 809a 40bd 488c 75bd ea50 14bd 874a 57bc
00000140: 16ce 6ebd 658e 8fbd 66f7 893d e4e1 2d3d
00000150: 9a34 103c 7392 923c 60a9 8abb 0fca e33b
00000160: 083a 903c 5b9a d93c 34da 27bd 0fa2 b8bb
00000170: 858f d23d 1047 783d ca98 b5bd e93f 50bb
00000180: 1c38 373c ad10 b7bd 7ec2 233d 9529 38bd
00000190: 6d0d b43d ea14 8c3d e80a 9d39 db19 203d
000001a0: 128a 023d f518 a7bd 0ddb 413d f739 ab3d
000001b0: 400c de3c 7c69 04bc 8f6d 06bc 8518 2a3c
000001c0: 4a8a 6ebd e77e ebbd 1457 83bd 77b0 6f3d
000001d0: afa8 14bd 3e19 f3bd 09ae 903d 5213 aa3d
000001e0: c07c 30bd 1ac0 313d 4349 dbbd 140b 37bd
000001f0: e6ab e6bb 55fa 4d3d 0f18 18bd 61db 8b3d
00000200: f285 1cbe 8877 ab3d af95 f93c 9813 c5bd
00000210: 5759 373d a404 be3b c7ad 113d 3595 adbc
00000220: a4be 51bd 7fc3 113e c2af ec3d bf1e 593d
00000230: d14f e93d 30ca 993d 9f8f 15ba c5d1 c03d
00000240: e85e 65bd 086f 6a3d bf1b a0bc 22e4 71bd
00000250: c12c b23d a852 cf3d df52 16bd bcc8 4abd
00000260: cec2 e83d b931 29bd 478d 8a3d 4195 ed3d
00000270: 21d1 313d 2099 1abd ef5b dfbc 0a67 aa3d
00000280: febf c1bd 2028 22bd 4aa5 79bd 6b11 ab3d
00000290: 1f94 a13d 6a8d 963d ccd8 62bd 6ed8 b93c
000002a0: c1f2 243d 2d50 9bbd a39c 94bc 2811 813d
000002b0: ccdb ee3b 8e8d 00bc aa4e d43a f79f 273d
000002c0: f47e b33d caa4 013e 1b90 a1bc ac61 6bbd
000002d0: 92fc e3bd cbcc 043e ad9b 773d 6ac8 e2bd
000002e0: 833d 9dbc c46f 573e dd15 adbd 2b0c e03d
000002f0: bdc9 be3d 0a14 87bd 0f94 49bd d723 82bd
00000300: 1d20 31bc 835a c03d 9842 383d f1a1 3bbc
00000310: d72c b53c f498 7ebd 4d13 9ebd 722a 02bd
00000320: e476 c3bc 70d2 62bc a59a 04bd 396c 53bd
00000330: a67c 843c 9b12 96bb 214e 99bd 7620 04be
00000340: d825 453c 5475 ab3d 0f93 9abc 463b a7bd
00000350: 1491 d73c e18a 513d 79ff 393d c7d2 5dbc
00000360: 5617 42bd 309f 193d bab7 ed3d cbca c73c
00000370: 5781 ad3d df00 8d3d bc6e bdbd 08f9 8aba
00000380: 53b2 07be ad5e 1fb9 0b93 a2bd 1fa2 85bd
00000390: f443 0f3d fca6 a03d 240d 243d d4e6 f1bc
000003a0: 194f 223d d383 81bd a596 953d b3d5 e6bb
000003b0: bc72 a83d ecfa 373c ad88 2e3d e004 e737
000003c0: 8a13 bcba 3f4a afbd 3e31 c73d e59c 33bd
000003d0: 7c9d 5f3c 7729 cb3c 1fb4 443d c2cd 69bb
000003e0: 770e c03d 50c2 60bd 8238 4abd 77bd dbbd
000003f0: 16dd 9c3d 826f 05bd 4447 c4bc 6ffc 963d

onnx::LSTM_183_quantized i1 [1, 9, 512]
-21 -4 15 31 27 21 -6 19
-12 -2 -41 -46 59 -32 7 -73
21 40 32 -34 2 0 -27 -8
15 8 -13 -36 15 33 19 34
11 33 -22 -35 -31 28 24 -4
20 31 -5 11 9 22 27 35
7 -16 13 -7 14 -14 -31 -52
-24 26 23 -23 9 17 25 28
-2 47 -19 -27 22 -10 -5 -14
2 -12 -9 -11 -8 33 4 -31
2 31 -4 5 -2 3 16 3
-12 2 13 13 15 -21 -20 51
21 34 -10 3 -24 -15 5 -17
-6 12 -38 3 34 20 -48 47
-30 7 26 -42 -24 36 -21 50
41 28 3 1 20 73 -4 -30
-61 -48 -22 10 33 33 -4 5
-7 -9 -7 -43 25 11 -14 -71
3 26 0 -30 -8 6 -2 -6
18 11 19 -34 -5 16 -13 17
54 44 -25 -10 -30 25 -7 -10
43 -12 -4 14 -10 3 -24 5
-33 -4 34 21 18 -37 2 -37
-16 51 9 -18 12 29 -12 19
14 -19 -10 -30 3 -7 4 -17
10 -35 -18 2 -21 15 41 -47
3 -13 -17 6 16 -18 -5 -18
8 -29 -5 2 29 -15 8 44
16 32 -1 -37 19 14 21 0
31 25 -37 -10 43 7 8 37
-18 3 53 7 1 33 13 0
-1 13 24 -11 -18 85 -28 -9
00000000: ebfc 0f1f 1b15 fa13 f4fe d7d2 3be0 07b7
00000010: 1528 20de 0200 e5f8 0f08 f3dc 0f21 1322
00000020: 0b21 eadd e11c 18fc 141f fb0b 0916 1b23
00000030: 07f0 0df9 0ef2 e1cc e81a 17e9 0911 191c
00000040: fe2f ede5 16f6 fbf2 02f4 f7f5 f821 04e1
00000050: 021f fc05 fe03 1003 f402 0d0d 0feb ec33
00000060: 1522 f603 e8f1 05ef fa0c da03 2214 d02f
00000070: e207 1ad6 e824 eb32 291c 0301 1449 fce2
00000080: c3d0 ea0a 2121 fc05 f9f7 f9d5 190b f2b9
00000090: 031a 00e2 f806 fefa 120b 13de fb10 f311
000000a0: 362c e7f6 e219 f9f6 2bf4 fc0e f603 e805
000000b0: dffc 2215 12db 02db f033 09ee 0c1d f413
000000c0: 0eed f6e2 03f9 04ef 0add ee02 eb0f 29d1
000000d0: 03f3 ef06 10ee fbee 08e3 fb02 1df1 082c
000000e0: 1020 ffdb 130e 1500 1f19 dbf6 2b07 0825
000000f0: ee03 3507 0121 0d00 ff0d 18f5 ee55 e4f7

onnx::LSTM_184_quantized i1 [1, 128, 512]
11 24 21 29 -25 -5 -8 16
48 30 27 40 24 23 31 14
6 -5 11 20 41 26 -15 -12
53 3 4 -12 -18 -48 6 16
19 34 40 5 20 -15 -7 23
-9 9 -8 -12 4 -19 6 24
-15 -5 49 33 -10 0 5 -22
30 -8 -16 9 -10 -19 -6 23
-28 -17 -3 17 13 1 5 16
31 -29 -20 -5 7 33 20 11
-25 -10 10 -22 -2 28 24 19
-31 14 29 -3 67 -5 1 10
17 7 -7 -2 13 -40 27 22
-8 -30 -3 -4 15 36 52 -2
36 29 9 18 3 22 -6 17
58 0 29 37 21 2 17 -30
9 -3 -42 7 18 15 2 14
14 -13 9 29 13 -2 -13 37
-2 -26 27 35 26 24 0 -28
49 -28 10 -7 -12 -10 11 28
11 10 -1 -19 -13 -24 -37 12
-20 32 8 -16 6 3 3 2
3 1 7 7 23 -17 28 6
14 12 11 17 15 -12 -4 15
8 48 -20 -3 -5 4 28 -21
21 -16 -13 13 6 -1 22 1
11 7 -14 -65 5 -11 0 29
-5 -29 -20 -37 2 34 4 12
2 29 7 24 -24 -14 -4 -4
2 -26 18 -6 28 25 42 -12
16 14 -8 13 5 -12 19 5
23 14 19 16 -1 -13 27 0
00000000: 0b18 151d e7fb f810 301e 1b28 1817 1f0e
00000010: 06fb 0b14 291a f1f4 3503 04f4 eed0 0610
00000020: 1322 2805 14f1 f917 f709 f8f4 04ed 0618
00000030: f1fb 3121 f600 05ea 1ef8 f009 f6ed fa17
00000040: e4ef fd11 0d01 0510 1fe3 ecfb 0721 140b
00000050: e7f6 0aea fe1c 1813 e10e 1dfd 43fb 010a
00000060: 1107 f9fe 0dd8 1b16 f8e2 fdfc 0f24 34fe
00000070: 241d 0912 0316 fa11 3a00 1d25 1502 11e2
00000080: 09fd d607 120f 020e 0ef3 091d 0dfe f325
00000090: fee6 1b23 1a18 00e4 31e4 0af9 f4f6 0b1c
000000a0: 0b0a ffed f3e8 db0c ec20 08f0 0603 0302
000000b0: 0301 0707 17ef 1c06 0e0c 0b11 0ff4 fc0f
000000c0: 0830 ecfd fb04 1ceb 15f0 f30d 06ff 1601
000000d0: 0b07 f2bf 05f5 001d fbe3 ecdb 0222 040c
000000e0: 021d 0718 e8f2 fcfc 02e6 12fa 1c19 2af4
000000f0: 100e f80d 05f4 1305 170e 1310 fff3 1b00

onnx::LSTM_203_quantized i1 [1, 128, 512]
-8 -11 32 -25 -21 -41 -30 6
-33 -15 -17 -35 7 -4 -31 -8
63 -46 7 -19 -38 -45 23 -19
6 44 25 -26 -8 8 -8 -58
24 6 -17 -18 11 -18 27 -38
17 -16 -12 -41 17 4 24 14
-77 37 -1 12 29 -1 -7 28
-30 -47 18 13 44 -3 22 13
-23 14 -11 12 23 -4 -7 -12
8 -21 -10 -18 -28 -37 -12 7
-25 -24 -4 -6 -12 -33 -45 -32
-33 -26 -4 -13 -33 -1 32 -3
3 8 22 -29 -36 8 38 -2
2 -38 19 2 -6 -41 -11 -29
9 24 -15 -4 -6 32 -46 -9
-23 -14 -18 13 -11 -17 0 -31
21 -20 73 -2 -4 9 24 -2
13 -32 -15 -10 -7 15 2 3
39 -43 23 32 2 -14 -9 -15
-24 -21 -30 -5 22 16 23 -7
12 20 -34 5 -15 -9 23 -32
3 25 -43 18 -21 31 22 3
-15 -24 2 -20 4 -3 6 33
-7 -63 -9 3 28 0 39 -11
-17 -53 23 24 35 7 -7 -7
-4 12 47 22 -11 -22 17 25
-26 17 5 -20 -8 7 -29 14
5 -40 -44 -22 -18 -31 -13 -8
12 13 -7 23 -52 -7 -17 15
-15 -31 -14 -34 16 -13 3 3
-3 13 -22 -10 -1 66 -40 21
-8 -19 9 -26 10 14 -12 17
00000000: f8f5 20e7 ebd7 e206 dff1 efdd 07fc e1f8
00000010: 3fd2 07ed dad3 17ed 062c 19e6 f808 f8c6
00000020: 1806 efee 0bee 1bda 11f0 f4d7 1104 180e
00000030: b325 ff0c 1dff f91c e2d1 120d 2cfd 160d
00000040: e90e f50c 17fc f9f4 08eb f6ee e4db f407
00000050: e7e8 fcfa f4df d3e0 dfe6 fcf3 dfff 20fd
00000060: 0308 16e3 dc08 26fe 02da 1302 fad7 f5e3
00000070: 0918 f1fc fa20 d2f7 e9f2 ee0d f5ef 00e1
00000080: 15ec 49fe fc09 18fe 0de0 f1f6 f90f 0203
00000090: 27d5 1720 02f2 f7f1 e8eb e2fb 1610 17f9
000000a0: 0c14 de05 f1f7 17e0 0319 d512 eb1f 1603
000000b0: f1e8 02ec 04fd 0621 f9c1 f703 1c00 27f5
000000c0: efcb 1718 2307 f9f9 fc0c 2f16 f5ea 1119
000000d0: e611 05ec f807 e30e 05d8 d4ea eee1 f3f8
000000e0: 0c0d f917 ccf9 ef0f f1e1 f2de 10f3 0303
000000f0: fd0d eaf6 ff42 d815 f8ed 09e6 0a0e f411

onnx::LSTM_204_quantized i1 [1, 128, 512]
-4 -48 -25 -13 -8 2 8 15
-22 -15 -11 34 -3 13 13 34
21 -3 18 -32 22 -13 28 -6
8 0 21 -9 16 13 -6 3
-6 5 -13 2 -4 -29 4 -54
-6 -38 25 22 30 -22 -22 18
-1 3 -3 15 9 -23 13 -3
-13 -25 4 -1 13 42 30 -14
20 -4 -19 -17 7 -15 21 41
-39 4 -34 21 9 14 24 21
20 -16 2 16 34 2 -24 3
-6 -28 5 37 -27 -20 19 -19
-40 7 4 -11 -20 3 -21 9
41 -8 10 2 21 -8 19 -18
51 -45 -8 9 42 17 4 30
5 32 -13 -10 21 -31 -5 -10
13 -21 -17 19 -5 -29 -11 23
-12 -23 -34 -27 15 10 9 11
-3 -29 46 36 23 5 -7 26
13 -9 26 -29 4 31 -11 10
47 30 10 11 20 -36 15 -25
5 -13 -14 20 -12 7 4 8
-34 -28 21 23 31 -42 37 36
30 -46 -13 12 -32 32 36 43
-5 -26 -17 -6 -22 -1 18 34
-34 -20 5 4 -17 19 23 16
29 5 -2 23 40 13 -19 -4
30 23 -40 24 -44 -46 34 25
19 18 35 25 7 -17 20 -8
-4 5 36 -17 -28 -43 29 -7
57 -44 19 -3 16 15 16 28
-7 -7 -22 21 10 -27 11 23
00000000: fcd0 e7f3 f802 080f eaf1 f522 fd0d 0d22
00000010: 15fd 12e0 16f3 1cfa 0800 15f7 100d fa03
00000020: fa05 f302 fce3 04ca fada 1916 1eea ea12
00000030: ff03 fd0f 09e9 0dfd f3e7 04ff 0d2a 1ef2
00000040: 14fc edef 07f1 1529 d904 de15 090e 1815
00000050: 14f0 0210 2202 e803 fae4 0525 e5ec 13ed
00000060: d807 04f5 ec03 eb09 29f8 0a02 15f8 13ee
00000070: 33d3 f809 2a11 041e 0520 f3f6 15e1 fbf6
00000080: 0deb ef13 fbe3 f517 f4e9 dee5 0f0a 090b
00000090: fde3 2e24 1705 f91a 0df7 1ae3 041f f50a
000000a0: 2f1e 0a0b 14dc 0fe7 05f3 f214 f407 0408
000000b0: dee4 1517 1fd6 2524 1ed2 f30c e020 242b
000000c0: fbe6 effa eaff 1222 deec 0504 ef13 1710
000000d0: 1d05 fe17 280d edfc 1e17 d818 d4d2 2219
000000e0: 1312 2319 07ef 14f8 fc05 24ef e4d5 1df9
000000f0: 39d4 13fd 100f 101c f9f9 ea15 0ae5 0b17

fc.weight_quantized u1 [128, 3]
78 198 103 163 30 127 120 39
166 122 163 107 123 104 92 186
159 0 169 82 118 93 198 163
178 8 154 116 117 204 132 84
87 183 44 99 46 165 178 152
96 88 97 122 169 145 153 56
90 166 85 124 218 105 174 128
89 113 189 116 189 110 53 149
83 115 152 102 101 70 149 163
149 50 83 157 115 103 89 166
126 176 144 58 73 104 119 83
108 158 115 95 67 179 31 82
159 112 95 96 164 137 162 56
88 184 93 130 143 66 93 129
211 77 79 175 133 135 253 80
130 72 142 106 196 143 163 95
141 184 110 77 67 110 187 126
66 152 111 126 167 151 145 152
146 114 156 155 169 24 140 81
109 148 125 42 151 74 124 182
150 51 180 112 89 140 64 152
169 57 110 70 191 154 72 107
125 191 147 14 136 184 77 147
117 54 128 154 133 128 127 34
190 71 119 194 57 86 138 174
49 164 100 101 147 141 71 143
69 139 93 140 92 112 98 76
194 79 139 146 82 165 113 219
121 98 147 110 179 102 100 55
155 147 90 195 164 165 140 149
89 101 136 35 255 60 153 56
119 100 130 85 99 134 200 77
00000000: 4ec6 67a3 1e7f 7827 a67a a36b 7b68 5cba
00000010: 9f00 a952 765d c6a3 b208 9a74 75cc 8454
00000020: 57b7 2c63 2ea5 b298 6058 617a a991 9938
00000030: 5aa6 557c da69 ae80 5971 bd74 bd6e 3595
00000040: 5373 9866 6546 95a3 9532 539d 7367 59a6
00000050: 7eb0 903a 4968 7753 6c9e 735f 43b3 1f52
00000060: 9f70 5f60 a489 a238 58b8 5d82 8f42 5d81
00000070: d34d 4faf 8587 fd50 8248 8e6a c48f a35f
00000080: 8db8 6e4d 436e bb7e 4298 6f7e a797 9198
00000090: 9272 9c9b a918 8c51 6d94 7d2a 974a 7cb6
000000a0: 9633 b470 598c 4098 a939 6e46 bf9a 486b
000000b0: 7dbf 930e 88b8 4d93 7536 809a 8580 7f22
000000c0: be47 77c2 3956 8aae 31a4 6465 938d 478f
000000d0: 458b 5d8c 5c70 624c c24f 8b92 52a5 71db
000000e0: 7962 936e b366 6437 9b93 5ac3 a4a5 8c95
000000f0: 5965 8823 ff3c 9938 7764 8255 6386 c84d
