model_q.onnx (onnx, 216807 bytes, 8 tensors)

fc.bias f4 [3]
0	0x3d078e07	0.033094432
1	0xbd5a132b	-0.053240936
2	0xbdd94471	-0.10608757

onnx::LSTM_185 f4 [1, 1024]
0	0xbbaf4b8d	-0.0053495825
1	0x3b81db7d	0.0039629326
2	0xbcf0b1d1	-0.029381664
3	0x3d39e715	0.045386393
4	0xbdd9cbc3	-0.106345676
5	0xbdd24b8c	-0.10268316
6	0xbd7c54e8	-0.06160441
7	0x3de7923b	0.11307188
8	0xbd855d0c	-0.06511888
9	0x3cadfad2	0.021237765
10	0x3d59b3e2	0.053150065
11	0x3da3f51f	0.080057375
12	0x3d7c4566	0.06158962
13	0xbdb02d93	-0.086024426
14	0x3cc0b9f2	0.023526166
15	0xbd3f4d7a	-0.046704747
16	0xbcf2025e	-0.029542144
17	0xbd0f06b4	-0.034918502
18	0xbcfa9444	-0.030588277
19	0x3c248c6d	0.010043246
20	0xbda0d6a8	-0.078534424
21	0x3d523cf7	0.05132767
22	0x3daf75af	0.08567368
23	0x3d84d5fa	0.06486125
24	0x3d50ca61	0.050974254
25	0xbd0e3b22	-0.034724362
26	0x3d65bbf3	0.056087445
27	0xbd879959	-0.066210456
28	0xbd907a6d	-0.07054601
29	0x3db3d58a	0.08780964
30	0xbcb9a2d2	-0.022660647
31	0x3cc4be57	0.024016542
32	0x3d90346e	0.0704125
33	0xbd432bc3	-0.047649156
34	0xbd9f6983	-0.07783797
35	0x3b810b09	0.003938083
36	0xbdc69671	-0.09696663
37	0x3d51d022	0.05122388
38	0xbdcdd10c	-0.10049638
39	0x3d1b59f5	0.037927587
40	0xba27c5ac	-0.00064
41	0xbd4454f6	-0.047932588
42	0x3c02a319	0.007973456
43	0x3db3567a	0.087567285
44	0xbdb936d9	-0.090436645
45	0x3d9146e8	0.070936024
46	0xbc7d79ed	-0.015470964
47	0x3dac1278	0.0840196
48	0x3d7ae78c	0.061255977
49	0xbd874b79	-0.06606192
50	0x3cde81c3	0.027161485
51	0x3dc1b03e	0.09457444
52	0x3b9d1023	0.0047931834
53	0xbda4ba76	-0.08043377
54	0x3c8e1b03	0.017346865
55	0xbdf61c11	-0.12017072
56	0xbdbf3dba	-0.09337945
57	0xbd435315	-0.047686655
58	0x3cf930db	0.030418804
59	0xbd115561	-0.035481814
60	0x3d5768e7	0.052590277
61	0x388866a9	6.504107e-05
62	0x3b38afbf	0.0028180925
63	0xbd45bdab	-0.048276585
64	0xbca472b3	-0.020074224
65	0xbda0a3a0	-0.07843709
66	0xbd96eecd	-0.073697664
67	0xbde0bef9	-0.10973925
68	0xbd378f62	-0.044814475
69	0xbcb00e3d	-0.021491164
70	0xbd005298	-0.031328768
71	0x3cb98633	0.022646999
72	0x3b570e34	0.0032814862
73	0x3c076284	0.008263234
74	0xbd821d11	-0.063532
75	0x3d8da4bf	0.069161884
76	0x3cdbb018	0.026817366
77	0xbd24640b	-0.04013447
78	0xbc3fcef1	-0.0117070535
79	0xbd653e42	-0.055967577
80	0xbdab9f60	-0.08380008
81	0xbd947232	-0.072483435
82	0xbdb1bf1f	-0.086790316
83	0xbdaae510	-0.083444715
84	0xbd7c26ea	-0.06156055
85	0xbd10f022	-0.03538526
86	0xbd1a4804	-0.037666336
87	0xbd3a19ce	-0.045434766
88	0xbd6d344e	-0.05791121
89	0x3be934f2	0.0071169073
90	0xbd3396f6	-0.04384514
91	0xbcf32316	-0.029679816
92	0xbcfd7218	-0.030938193
93	0xbc5cfb84	-0.0134877
94	0x3d07c743	0.033149015
95	0x3da921a6	0.08258371
96	0xbd95d99d	-0.07316897
97	0x3cb0d259	0.021584677
98	0xbcac39ad	-0.021023596
99	0x3d2e3ee8	0.04254046
100	0xbd95b0e2	-0.07309128
101	0x3c8fe608	0.017565742
102	0x3c6bd6c1	0.014394463
103	0xbd8ac871	-0.067765124
104	0xbd481213	-0.048845362
105	0xbde47e3e	-0.11156891
106	0xbcc84fbb	-0.024452081
107	0x3cf55a8d	0.029950405
108	0xbd4168f4	-0.04721923
109	0xbc9d4672	-0.01919863
110	0xbe508da6	-0.20366535
111	0x3cbb59a5	0.022869894
112	0xbc9058a0	-0.017620385
113	0x3b735c0b	0.003713372
114	0x3d995722	0.074873224
115	0x3d55cdc4	0.052198187
116	0xbc8a0b99	-0.016851233
117	0xbd341af8	-0.043971032
118	0x3d2e82c0	0.04260516
119	0xbda2588f	-0.079270475
120	0xbcac32ea	-0.021020371
121	0x3d334038	0.043762416
122	0xbd05829e	-0.03259527
123	0x3d4aacda	0.04948125
124	0xbcfaf593	-0.030634677
125	0x3d1fd8a5	0.039024968
126	0x3d3bbd76	0.04583498
127	0xbd62f2ac	-0.05540721
128	0x3d8530db	0.06503459
129	0x3c5e9774	0.013585914
130	0x3dce3acc	0.10069808
131	0xbd76c491	-0.060246054
132	0x3d7d0d60	0.061780334
133	0xbd143dad	-0.03619163
134	0x3c854f64	0.016273208
135	0x3db7212b	0.08941873
136	0x3d93b4d8	0.072122276
137	0x3da0cb0f	0.0785123
138	0xbdb6810f	-0.08911335
139	0xbb3282a0	-0.0027238503
140	0x3cf2d260	0.02964133
141	0xbd4fd547	-0.050740507
142	0x3bac42f4	0.005257005
143	0x3b7ee7b2	0.0038895425
144	0x3bd0bc6f	0.0063701193
145	0x3bdeaf9f	0.006795838
146	0x3d7f433d	0.062319983
147	0xbdf20a25	-0.11818341
148	0xbd685bef	-0.0567283
149	0xbd02ceb5	-0.031935412
150	0x3d4474bd	0.047962893
151	0x3dffe8c2	0.12495567
152	0xbd8c65d6	-0.06855361
153	0xbda5c76e	-0.08094679
154	0xbdf43c15	-0.11925522
155	0xbcf04d5b	-0.029333761
156	0xbd5891a8	-0.052873284
157	0x3c3651d0	0.011127904
158	0x3ca5dc35	0.020246604
159	0xbdf9ad0e	-0.12191211
160	0x3cec903a	0.028877366
161	0xbdb382a2	-0.087651506
162	0xbd590f75	-0.052993257
163	0x3d57b680	0.05266428
164	0xbd6dd338	-0.058062762
165	0xbd9ec962	-0.077532545
166	0x3d4e4909	0.05036262
167	0x3d3d87f5	0.046272237
168	0x3e1b001b	0.15136759
169	0xbbb58207	-0.005539182
170	0x3d26f405	0.04076006
171	0x3d8ac037	0.06774943
172	0xbc49935d	-0.012303201
173	0xbaf28333	-0.0018502235
174	0xbdadad58	-0.08480328
175	0x3e030302	0.12794116
176	0x3da0f467	0.07859116
177	0xbd71eae5	-0.059061904
178	0xbddbc743	-0.107313655
179	0x3dc0f333	0.094213866
180	0x3c47fae2	0.012205811
181	0x3d5b461f	0.05353367
182	0x3c76233b	0.015023048
183	0x3d6ff080	0.058578968
184	0x3c6fc2ff	0.014633893
185	0x3b954324	0.004555123
186	0xbd349265	-0.044084925
187	0x3cc0f0e3	0.023552364
188	0xbcf699e1	-0.030102672
189	0x3d9c4b34	0.07631531
190	0xbd5f7856	-0.05455812
191	0xbc8cac94	-0.017172135
192	0xbd3ed95a	-0.046594
193	0x3b2cbaf6	0.0026356555
194	0x3d7f6eba	0.062361456
195	0x3bb2431c	0.005440129
196	0xbce55fa7	-0.027999712
197	0xbd32896a	-0.04358808
198	0xbd7f9605	-0.06239893
199	0xbd683460	-0.056690574
200	0xbb5e08e6	-0.0033879816
201	0x3d006785	0.031348724
202	0x3d785e96	0.06063708
203	0x3dae2048	0.08502251
204	0x3d82e2b3	0.06390896
205	0x3a335c78	0.0006842087
206	0xbdd40171	-0.103518374
207	0x3d78195e	0.060571067
208	0xbbaaa352	-0.0052074576
209	0xbca61acc	-0.02027645
210	0xbd3a2759	-0.04544768
211	0x3d3213db	0.043475967
212	0xbd8a9b58	-0.06767911
213	0xbbf7f675	-0.0075672218
214	0xbde98e1f	-0.114040606
215	0x3d97ff12	0.07421698
216	0x3d7501be	0.059816115
217	0xbd302146	-0.043000482
218	0xbd7960c4	-0.0608833
219	0xbd95ac89	-0.07308299
220	0xbdb2ea9b	-0.08736154
221	0xbe0c9666	-0.13729247
222	0x3e104194	0.14087516
223	0x3d096ae8	0.03354922
224	0xbd9a0ed5	-0.0752236
225	0xbd625942	-0.055260904
226	0x3d2bb1d5	0.04191764
227	0x3dbbc275	0.09167949
228	0xbd40e2f4	-0.04709144
229	0xbdbb928a	-0.091588095
230	0x3bb31c09	0.0054659885
231	0xbdc9ce78	-0.09853834
232	0x3d836cca	0.06417234
233	0xbe1b9608	-0.15193951
234	0xbd5f0ed5	-0.054457504
235	0x3d19ca43	0.037546407
236	0x3d9670c9	0.07345731
237	0x3d90a566	0.07062797
238	0xbbd60fa5	-0.0065326267
239	0x3d6c5dd5	0.057706673
240	0xbd3217ae	-0.043479614
241	0xbbce8b0e	-0.0063031977
242	0xbd763d6d	-0.060117174
243	0x3cfe634c	0.031053208
244	0xbd8eb30d	-0.06967745
245	0x3d04c368	0.032412916
246	0xbd730971	-0.059335176
247	0x3d59e608	0.05319789
248	0x3c2c3dc6	0.010512775
249	0x3e004524	0.12526375
250	0xbce55f12	-0.027999435
251	0x3d604761	0.054755572
252	0xbdb8a12b	-0.09015115
253	0x3dbd3ddd	0.09240315
254	0xbdc48836	-0.09596293
255	0x3ddd8dff	0.10818099

onnx::LSTM_205 f4 [1, 1024]
0	0x3cd1d3df	0.025613723
1	0x3bee181e	0.0072660586
2	0xbc185bd8	-0.009299241
3	0x3cf56689	0.02995612
4	0xbd621536	-0.05519601
5	0xbdc89fa3	-0.09796073
6	0xbd117f46	-0.035521768
7	0x3d1d5b2e	0.038417034
8	0xbe2d456f	-0.16921018
9	0x3dae3daa	0.08507855
10	0xbd067913	-0.03283031
11	0xbdc56bed	-0.09639726
12	0x3d7b17b0	0.061301887
13	0x3d6b0f28	0.0573875
14	0xbcc7ff04	-0.024413593
15	0xbd83e524	-0.064401895
16	0xbe141493	-0.14460973
17	0xbd8b3c9f	-0.06798672
18	0x3d3e529a	0.046465494
19	0xbd117fa9	-0.035522137
20	0x3d534a9b	0.05158482
21	0xbd904f8c	-0.07046422
22	0x3e132660	0.14370108
23	0xbdbaef55	-0.0912768
24	0x3d09f832	0.033683963
25	0x3cce68ca	0.025196452
26	0xbcd1f5ea	-0.025629956
27	0xbd1dac41	-0.038494352
28	0xbded8b72	-0.11598863
29	0x3d373ec2	0.044737585
30	0x3cdc09e2	0.026860181
31	0x3bdd5e56	0.0067556305
32	0xbe202cb8	-0.15642059
33	0x3d9211d8	0.0713231
34	0x3bb034e0	0.005377397
35	0x3d84208c	0.0645152
36	0x3c8dfb81	0.01733184
37	0xbcabacc3	-0.020956403
38	0xbce59f04	-0.028029926
39	0xb99b0d6f	-0.00029573913
40	0xbc824703	-0.015903002
41	0xbc9aab6d	-0.01888057
42	0x3c9fad3b	0.019491782
43	0xbd3f9144	-0.046769395
44	0x3dc0c609	0.09412772
45	0x3ceac16b	0.028656682
46	0xbdc0053a	-0.09375997
47	0x3dadf797	0.0849449
48	0x3ccd758f	0.02508047
49	0x3caa4d84	0.020788915
50	0xbe22ef32	-0.15911558
51	0xbc8b4854	-0.017002262
52	0xbd9f3c1a	-0.07775135
53	0x3aeb0bae	0.0017932558
54	0x3b3785dd	0.0028003373
55	0x3d84e278	0.06488508
56	0xbd879620	-0.06620431
57	0xbd4fb8e4	-0.050713435
58	0xbe0842dc	-0.13306755
59	0x3d0d12da	0.034441806
60	0x3c20db3b	0.009817894
61	0x3d4f69dc	0.050638065
62	0x3d7b613a	0.06137202
63	0x3d5fa294	0.054598406
64	0xbc2f2601	-0.010690213
65	0x3d90d93c	0.07072684
66	0x3d7d460f	0.06183439
67	0xbce71d38	-0.028212175
68	0xbd7c5d40	-0.061612368
69	0xbdaf7042	-0.08566333
70	0x3b55e420	0.0032637194
71	0x3de6892b	0.112566315
72	0xbd56e69f	-0.05246603
73	0xbd20f2f3	-0.039294194
74	0xbd0b7d9b	-0.034055334
75	0x3d31f4fe	0.043446533
76	0xbdb5374c	-0.08848438
77	0xbd7648cb	-0.060128015
78	0x3d82c070	0.06384361
79	0x3ce98960	0.028507888
80	0x3b10a7f3	0.0022072762
81	0x3c239a38	0.009985499
82	0x3daaad5a	0.083338454
83	0xbd6a8484	-0.057255283
84	0xbdf12404	-0.117744476
85	0xbd5f1051	-0.05445892
86	0xbc72f101	-0.014827968
87	0x3d1ac8f8	0.037789315
88	0xbd3e3a1c	-0.046442136
89	0xbd5d8142	-0.054078348
90	0x3d8467b0	0.06465089
91	0xbca9f2ee	-0.02074572
92	0x3d72c73b	0.059272032
93	0x3dd054fa	0.10172458
94	0x3d273788	0.040824443
95	0xbcbfcc1b	-0.023412755
96	0xba1c591f	-0.0005964208
97	0xbd5ae167	-0.053437617
98	0xbcc82620	-0.024432242
99	0xbcdf46f5	-0.027255515
100	0x3cb7d031	0.02243814
101	0x3d68bdcd	0.056821633
102	0xbd19c3f7	-0.037540402
103	0xbcd68b42	-0.02618945
104	0x3d85de6c	0.06536564
105	0x3cce95c5	0.0252179
106	0xbd433b46	-0.04766395
107	0x3da54af7	0.08070939
108	0x3d9fcf30	0.0780319
109	0x3d062cf0	0.0327577
110	0x3c019db5	0.007911135
111	0xbc68aa69	-0.014200785
112	0xbcaffec6	-0.02148379
113	0xbba50f8c	-0.0050372537
114	0xbd7ff1e9	-0.062486563
115	0x3d984284	0.07434562
116	0xbdca8422	-0.098884836
117	0x3db002d7	0.08594292
118	0xbccbf041	-0.024894835
119	0xbda5dab4	-0.08098355
120	0xbdb1772b	-0.086653076
121	0xbd1df721	-0.03856576
122	0xbdde6f1b	-0.108610354
123	0x3dc4dce5	0.09612445
124	0xbd410c1f	-0.0471307
125	0x3badf92f	0.005309246
126	0x3ce9150f	0.028452424
127	0xbc3631e2	-0.011120291
128	0xbda138ee	-0.078721866
129	0x3d801f38	0.062559545
130	0x3cc12085	0.023575077
131	0x3d606893	0.05478723
132	0x3ca9933d	0.020700091
133	0xbd239104	-0.03993322
134	0x3d95a8f1	0.07307614
135	0xbc9fc76d	-0.019504273
136	0xbd059c16	-0.03261956
137	0xbd883250	-0.06650221
138	0xbd21d139	-0.03950617
139	0xbb84e3ae	-0.004055462
140	0x3d056794	0.032569483
141	0xbc323c6d	-0.010878664
142	0xbb3a6206	-0.0028439774
143	0xbd78f867	-0.06078377
144	0xbd77705d	-0.060409892
145	0xbd9fbf0a	-0.0780011
146	0xbdc0c840	-0.09413195
147	0x3df49903	0.11943247
148	0xbd95a5a1	-0.07306982
149	0x3c9192ae	0.017770138
150	0x3e24b1b8	0.1608342
151	0x3d541627	0.05177894
152	0x3d941aad	0.072316505
153	0x3dafa61d	0.085766055
154	0x3b693bf1	0.0035588706
155	0x3d0dc7bf	0.03461432
156	0x3d7bfdcb	0.061521333
157	0xbddc97ea	-0.10771163
158	0x3dfe695f	0.12422442
159	0xbd818a35	-0.06325189
160	0xbe2d6ab4	-0.16935235
161	0x3d5fbf80	0.054625988
162	0x3d7c46d4	0.061590984
163	0x3dc434d1	0.095803864
164	0x3de8d6c1	0.11369086
165	0x3e0092e3	0.12556033
166	0x3d047f24	0.032347813
167	0x3df7a002	0.12091066
168	0x3d79bf20	0.060973287
169	0x3d13b0c6	0.036057256
170	0xbd869191	-0.06570733
171	0x3d16aed3	0.03678782
172	0x3d2c8f47	0.042128827
173	0x3d8f04b2	0.069833174
174	0x3dcb6f55	0.09933344
175	0x3d14a7bf	0.036292788
176	0xbd297f4d	-0.04138117
177	0xbd19c024	-0.037536755
178	0xbdbe6465	-0.092964925
179	0x3d1987e4	0.03748311
180	0xbd56d0ce	-0.052445225
181	0x3d9b9eba	0.07598634
182	0xbd6cdc13	-0.057827067
183	0x3d9113fa	0.07083888
184	0x3c65bc4b	0.014021943
185	0xbd975ed4	-0.07391134
186	0x3b07860e	0.0020679268
187	0x3dcd4ba8	0.10024196
188	0x3ccaa06a	0.024734695
189	0xbde9481a	-0.113907054
190	0xbbd23abd	-0.0064156936
191	0x3dda99bf	0.10673856
192	0xbd943ade	-0.072377905
193	0x3cf0657b	0.029345265
194	0xbce69a22	-0.028149668
195	0x3dca4d58	0.098780334
196	0x3ce384c0	0.027773261
197	0x3d8440b0	0.06457651
198	0x399b3919	0.00029606445
199	0x3cd462ad	0.025925959
200	0xbc0a30ae	-0.008434458
201	0x3cde4675	0.027133206
202	0x3d44c634	0.048040584
203	0xbc9b38f9	-0.018948065
204	0xbd8a62e9	-0.06757147
205	0xbdf7cf2c	-0.12100062
206	0x3d832db1	0.06405199
207	0x3d77c0f2	0.06048674
208	0x3e0203ce	0.12696764
209	0x39dc6dc4	0.00042043452
210	0x3d45fbc5	0.04833581
211	0x3de2a22f	0.1106609
212	0xbdc45ab5	-0.095876135
213	0x3db89253	0.09012284
214	0x3d8c7e0a	0.068599775
215	0x3c2297ff	0.009923934
216	0xbcc38d9f	-0.023871241
217	0x3c858b40	0.016301751
218	0x3d9f1ac9	0.07768781
219	0x3ca9922b	0.020699581
220	0xbd077bff	-0.033077236
221	0xbbf6503f	-0.0075168903
222	0x3dbae3d3	0.09125485
223	0x3b3d2cfe	0.0028865929
224	0xbd7ae289	-0.061251197
225	0x3d040912	0.032235213
226	0x3dbb72f5	0.09152786
227	0x3cab0b1c	0.02087932
228	0xbc187bce	-0.009306861
229	0xbd95ea83	-0.0732012
230	0x3cfc701f	0.030815182
231	0x3cf06a01	0.029347422
232	0x3d3bee1a	0.04588137
233	0x3d56c4f5	0.052433927
234	0x3daa1c27	0.08306151
235	0x3dafbfff	0.08581542
236	0xbc24914d	-0.010044408
237	0x3c6593e7	0.014012313
238	0x3d35b415	0.044361193
239	0x3e0a82fe	0.13526532
240	0x3e283d2a	0.16429582
241	0x3db4f7f0	0.08836353
242	0x3d6e6339	0.058200095
243	0x3db6726f	0.08908545
244	0xbd9e91bc	-0.077426404
245	0x3d81b7ce	0.06333886
246	0x3daec7d7	0.0853421
247	0xbde42dc2	-0.1114154
248	0xbdb96f28	-0.090544045
249	0xbd769546	-0.060200952
250	0x3d0c8686	0.03430798
251	0xbc88c9cb	-0.016697785
252	0x3db35603	0.0875664
253	0x3dbe6aad	0.092976905
254	0xbc070b3c	-0.008242425
255	0x3ddf4394	0.109015614

onnx::LSTM_183_quantized i1 [1, 9, 512]
0	0xfe	-2
1	0x02	2
2	0x09	9
3	0x01	1
4	0xfd	-3
5	0xf3	-13
6	0x36	54
7	0x06	6
8	0x10	16
9	0x0d	13
10	0x01	1
11	0x25	37
12	0xf5	-11
13	0xfd	-3
14	0x1c	28
15	0xf8	-8
16	0x01	1
17	0x03	3
18	0xe7	-25
19	0xe4	-28
20	0x0a	10
21	0xfe	-2
22	0xec	-20
23	0xdd	-35
24	0x0f	15
25	0x10	16
26	0x14	20
27	0x16	22
28	0xe2	-30
29	0xc7	-57
30	0x31	49
31	0xf8	-8
32	0x02	2
33	0xf3	-13
34	0xf9	-7
35	0xfc	-4
36	0xf9	-7
37	0x06	6
38	0xfd	-3
39	0xda	-38
40	0xd8	-40
41	0x2b	43
42	0xe5	-27
43	0xf7	-9
44	0xfc	-4
45	0x0d	13
46	0xce	-50
47	0xd7	-41
48	0x00	0
49	0x2d	45
50	0xdb	-37
51	0x05	5
52	0xee	-18
53	0x07	7
54	0x13	19
55	0xfc	-4
56	0xf3	-13
57	0xcf	-49
58	0xf3	-13
59	0xc8	-56
60	0xcc	-52
61	0xf6	-10
62	0x1a	26
63	0xed	-19
64	0xec	-20
65	0xf7	-9
66	0xd2	-46
67	0x19	25
68	0x1c	28
69	0xf7	-9
70	0xfb	-5
71	0x02	2
72	0x18	24
73	0xf7	-9
74	0xd3	-45
75	0x00	0
76	0xf5	-11
77	0xda	-38
78	0x09	9
79	0x09	9
80	0x0e	14
81	0xef	-17
82	0x12	18
83	0xe6	-26
84	0x1c	28
85	0xff	-1
86	0xfd	-3
87	0x1b	27
88	0xd4	-44
89	0xfc	-4
90	0x12	18
91	0x14	20
92	0x0a	10
93	0xec	-20
94	0xfd	-3
95	0x01	1
96	0x06	6
97	0xfb	-5
98	0x0f	15
99	0x0f	15
100	0xd9	-39
101	0xee	-18
102	0x19	25
103	0xe1	-31
104	0xfc	-4
105	0xf2	-14
106	0x08	8
107	0x02	2
108	0xd7	-41
109	0x10	16
110	0x06	6
111	0xee	-18
112	0xe4	-28
113	0x00	0
114	0x06	6
115	0x15	21
116	0x0b	11
117	0xeb	-21
118	0x06	6
119	0xf4	-12
120	0xec	-20
121	0x01	1
122	0x06	6
123	0x19	25
124	0x20	32
125	0xe0	-32
126	0xde	-34
127	0x25	37
128	0x07	7
129	0x08	8
130	0xf4	-12
131	0x01	1
132	0xde	-34
133	0xea	-22
134	0x23	35
135	0x0d	13
136	0x14	20
137	0xfd	-3
138	0x18	24
139	0x13	19
140	0xf2	-14
141	0xe4	-28
142	0x06	6
143	0x19	25
144	0xec	-20
145	0x07	7
146	0xfc	-4
147	0xed	-19
148	0x02	2
149	0xfb	-5
150	0xf7	-9
151	0xf8	-8
152	0xff	-1
153	0xf2	-14
154	0x0d	13
155	0x16	22
156	0xf4	-12
157	0xe0	-32
158	0x2b	43
159	0x0e	14
160	0x09	9
161	0x0d	13
162	0xe0	-32
163	0x1e	30
164	0xfc	-4
165	0xfa	-6
166	0x08	8
167	0xf8	-8
168	0xf8	-8
169	0x0f	15
170	0xe7	-25
171	0xda	-38
172	0xfd	-3
173	0x14	20
174	0xfa	-6
175	0xe1	-31
176	0x06	6
177	0x26	38
178	0xeb	-21
179	0x08	8
180	0xfc	-4
181	0x0b	11
182	0x18	24
183	0xf4	-12
184	0xfc	-4
185	0xf1	-15
186	0x06	6
187	0xef	-17
188	0xcf	-49
189	0xce	-50
190	0x06	6
191	0x01	1
192	0x0e	14
193	0xef	-17
194	0x08	8
195	0xfa	-6
196	0xfc	-4
197	0xf0	-16
198	0xf3	-13
199	0x14	20
200	0x07	7
201	0xd9	-39
202	0xe2	-30
203	0xfd	-3
204	0xfc	-4
205	0x05	5
206	0x10	16
207	0xd1	-47
208	0x10	16
209	0xee	-18
210	0x08	8
211	0x0a	10
212	0x07	7
213	0x07	7
214	0xfe	-2
215	0x18	24
216	0xf4	-12
217	0x06	6
218	0x08	8
219	0x09	9
220	0x07	7
221	0xf2	-14
222	0xf0	-16
223	0xfb	-5
224	0x18	24
225	0xfa	-6
226	0xf8	-8
227	0x1b	27
228	0x04	4
229	0xe3	-29
230	0x0e	14
231	0xe9	-23
232	0x04	4
233	0xe6	-26
234	0x07	7
235	0x08	8
236	0xdb	-37
237	0xf0	-16
238	0xfe	-2
239	0xea	-22
240	0x02	2
241	0x10	16
242	0x03	3
243	0x1b	27
244	0x0e	14
245	0x03	3
246	0xfc	-4
247	0xdb	-37
248	0xe9	-23
249	0x05	5
250	0x04	4
251	0x0e	14
252	0x1f	31
253	0xf4	-12
254	0xf4	-12
255	0x17	23

onnx::LSTM_184_quantized i1 [1, 128, 512]
0	0x01	1
1	0xf5	-11
2	0x01	1
3	0x1d	29
4	0x09	9
5	0x38	56
6	0xeb	-21
7	0x42	66
8	0x29	41
9	0xbf	-65
10	0x0e	14
11	0x02	2
12	0xeb	-21
13	0x31	49
14	0xfe	-2
15	0xcf	-49
16	0x06	6
17	0x01	1
18	0xf1	-15
19	0xfe	-2
20	0x00	0
21	0xd9	-39
22	0xff	-1
23	0x0e	14
24	0x23	35
25	0x0c	12
26	0x19	25
27	0xf6	-10
28	0x0f	15
29	0x12	18
30	0x27	39
31	0x2c	44
32	0x21	33
33	0x07	7
34	0x14	20
35	0xfd	-3
36	0x11	17
37	0x08	8
38	0x02	2
39	0x20	32
40	0x66	102
41	0x09	9
42	0xea	-22
43	0x1a	26
44	0x11	17
45	0xe5	-27
46	0x43	67
47	0xee	-18
48	0x00	0
49	0x26	38
50	0x18	24
51	0x1f	31
52	0xcf	-49
53	0x27	39
54	0xea	-22
55	0x20	32
56	0x32	50
57	0x22	34
58	0x18	24
59	0x24	36
60	0x15	21
61	0x34	52
62	0x07	7
63	0x03	3
64	0xf8	-8
65	0x3a	58
66	0x2a	42
67	0x06	6
68	0x1e	30
69	0xf5	-11
70	0x44	68
71	0xf5	-11
72	0x1b	27
73	0xf5	-11
74	0x37	55
75	0xe8	-24
76	0xf6	-10
77	0x48	72
78	0x00	0
79	0x1f	31
80	0xe7	-25
81	0xfc	-4
82	0xe9	-23
83	0x2d	45
84	0xfb	-5
85	0xf5	-11
86	0x12	18
87	0x05	5
88	0x29	41
89	0xf6	-10
90	0x38	56
91	0x2b	43
92	0x05	5
93	0x1d	29
94	0x25	37
95	0x06	6
96	0x00	0
97	0xf8	-8
98	0x1f	31
99	0x06	6
100	0x44	68
101	0xfe	-2
102	0xf3	-13
103	0xe2	-30
104	0x1f	31
105	0x15	21
106	0x2d	45
107	0x00	0
108	0x2c	44
109	0xfe	-2
110	0x13	19
111	0x2d	45
112	0x07	7
113	0x2b	43
114	0xfa	-6
115	0x1f	31
116	0xf1	-15
117	0x04	4
118	0xe7	-25
119	0xcc	-52
120	0x26	38
121	0xe2	-30
122	0x0d	13
123	0x0d	13
124	0xfb	-5
125	0x4e	78
126	0xf0	-16
127	0x2d	45
128	0x21	33
129	0x13	19
130	0x09	9
131	0xf7	-9
132	0xfc	-4
133	0xf8	-8
134	0xc8	-56
135	0x35	53
136	0x1a	26
137	0xce	-50
138	0x00	0
139	0xee	-18
140	0xbd	-67
141	0x0b	11
142	0x31	49
143	0x00	0
144	0xda	-38
145	0x35	53
146	0x09	9
147	0x0e	14
148	0x09	9
149	0xf8	-8
150	0xee	-18
151	0x44	68
152	0xf8	-8
153	0xd2	-46
154	0x05	5
155	0xe6	-26
156	0x18	24
157	0x57	87
158	0x13	19
159	0xff	-1
160	0x0c	12
161	0x36	54
162	0x17	23
163	0xfe	-2
164	0x23	35
165	0xff	-1
166	0xf9	-7
167	0x23	35
168	0xf4	-12
169	0xf3	-13
170	0x13	19
171	0x03	3
172	0x14	20
173	0xed	-19
174	0x1b	27
175	0x33	51
176	0x3b	59
177	0xde	-34
178	0xf1	-15
179	0x3d	61
180	0x08	8
181	0x24	36
182	0x0b	11
183	0xfa	-6
184	0x12	18
185	0x24	36
186	0x0f	15
187	0xea	-22
188	0x44	68
189	0x43	67
190	0xf2	-14
191	0x2d	45
192	0x24	36
193	0x33	51
194	0x16	22
195	0xf6	-10
196	0xfd	-3
197	0xfc	-4
198	0xf8	-8
199	0x19	25
200	0x43	67
201	0xdf	-33
202	0x16	22
203	0x21	33
204	0x20	32
205	0x0d	13
206	0x12	18
207	0x10	16
208	0x0b	11
209	0x21	33
210	0x0d	13
211	0x33	51
212	0xe8	-24
213	0xf6	-10
214	0xfe	-2
215	0xe9	-23
216	0xf3	-13
217	0x0b	11
218	0xda	-38
219	0xf1	-15
220	0xf5	-11
221	0x1a	26
222	0x2a	42
223	0x15	21
224	0x12	18
225	0x18	24
226	0xfa	-6
227	0xec	-20
228	0x0d	13
229	0xdf	-33
230	0xff	-1
231	0xe6	-26
232	0x35	53
233	0x1c	28
234	0x23	35
235	0xf1	-15
236	0x0b	11
237	0x08	8
238	0x09	9
239	0x1e	30
240	0x2b	43
241	0x22	34
242	0x11	17
243	0x11	17
244	0xf3	-13
245	0xf2	-14
246	0x15	21
247	0xfd	-3
248	0x30	48
249	0x15	21
250	0x13	19
251	0xeb	-21
252	0x10	16
253	0x46	70
254	0x14	20
255	0x20	32

onnx::LSTM_203_quantized i1 [1, 128, 512]
0	0xef	-17
1	0xde	-34
2	0x0f	15
3	0xf9	-7
4	0xec	-20
5	0xe9	-23
6	0xe9	-23
7	0xe7	-25
8	0x01	1
9	0xf0	-16
10	0xfd	-3
11	0xfc	-4
12	0xfd	-3
13	0x01	1
14	0x01	1
15	0xf8	-8
16	0xc9	-55
17	0xf6	-10
18	0xe8	-24
19	0xff	-1
20	0xea	-22
21	0xf9	-7
22	0x10	16
23	0xfc	-4
24	0x0c	12
25	0x1a	26
26	0x01	1
27	0x0d	13
28	0xe3	-29
29	0x1e	30
30	0xf4	-12
31	0xfe	-2
32	0xfd	-3
33	0x06	6
34	0xe8	-24
35	0x02	2
36	0x0d	13
37	0xf9	-7
38	0x01	1
39	0xf3	-13
40	0x1c	28
41	0x04	4
42	0x00	0
43	0x0d	13
44	0xfa	-6
45	0x28	40
46	0x03	3
47	0xf8	-8
48	0x0d	13
49	0x0c	12
50	0xf2	-14
51	0x00	0
52	0xff	-1
53	0x03	3
54	0x07	7
55	0xfd	-3
56	0x03	3
57	0xe4	-28
58	0xfe	-2
59	0x0c	12
60	0x10	16
61	0x04	4
62	0x06	6
63	0x24	36
64	0x00	0
65	0xff	-1
66	0xee	-18
67	0x10	16
68	0xf0	-16
69	0xfe	-2
70	0x14	20
71	0xf8	-8
72	0x0a	10
73	0x04	4
74	0xfc	-4
75	0xf5	-11
76	0x0c	12
77	0x01	1
78	0xef	-17
79	0x17	23
80	0xfd	-3
81	0x03	3
82	0x00	0
83	0xe5	-27
84	0x03	3
85	0x0a	10
86	0xe5	-27
87	0xfb	-5
88	0xe9	-23
89	0xf8	-8
90	0xf3	-13
91	0xf4	-12
92	0xfe	-2
93	0x11	17
94	0xfd	-3
95	0x0a	10
96	0xe4	-28
97	0xee	-18
98	0xea	-22
99	0x28	40
100	0xfe	-2
101	0xf9	-7
102	0xed	-19
103	0x0c	12
104	0xe9	-23
105	0x03	3
106	0xf5	-11
107	0xe7	-25
108	0xf4	-12
109	0xfd	-3
110	0xdd	-35
111	0xfe	-2
112	0xf2	-14
113	0x07	7
114	0xf4	-12
115	0x06	6
116	0xeb	-21
117	0x00	0
118	0x14	20
119	0x04	4
120	0xe5	-27
121	0x06	6
122	0x0a	10
123	0x03	3
124	0xfb	-5
125	0xe8	-24
126	0x12	18
127	0x26	38
128	0x08	8
129	0xef	-17
130	0x17	23
131	0x1c	28
132	0x08	8
133	0x02	2
134	0xf7	-9
135	0xff	-1
136	0xf8	-8
137	0xff	-1
138	0x02	2
139	0xf6	-10
140	0xfd	-3
141	0x03	3
142	0x15	21
143	0x0e	14
144	0xe2	-30
145	0xfa	-6
146	0xf1	-15
147	0x08	8
148	0x03	3
149	0xf4	-12
150	0x2e	46
151	0x03	3
152	0x01	1
153	0x24	36
154	0xed	-19
155	0x20	32
156	0x0b	11
157	0x0b	11
158	0x19	25
159	0xec	-20
160	0xe6	-26
161	0x0f	15
162	0x1a	26
163	0x2c	44
164	0x15	21
165	0x0c	12
166	0x06	6
167	0xf3	-13
168	0x05	5
169	0xe0	-32
170	0xf4	-12
171	0xfc	-4
172	0x17	23
173	0x0b	11
174	0xed	-19
175	0x08	8
176	0xea	-22
177	0xed	-19
178	0x28	40
179	0x0a	10
180	0xf1	-15
181	0x26	38
182	0xfe	-2
183	0x15	21
184	0x00	0
185	0xf3	-13
186	0x03	3
187	0x10	16
188	0xf4	-12
189	0x05	5
190	0xe3	-29
191	0x05	5
192	0xff	-1
193	0x16	22
194	0xf0	-16
195	0xf5	-11
196	0x0d	13
197	0x14	20
198	0x13	19
199	0x11	17
200	0x0f	15
201	0x14	20
202	0x0e	14
203	0x1c	28
204	0x0c	12
205	0xf2	-14
206	0xf9	-7
207	0x15	21
208	0x02	2
209	0xf2	-14
210	0x00	0
211	0x11	17
212	0xed	-19
213	0xf5	-11
214	0x02	2
215	0x09	9
216	0xea	-22
217	0xfd	-3
218	0x18	24
219	0x01	1
220	0xf4	-12
221	0x20	32
222	0x16	22
223	0x02	2
224	0xfa	-6
225	0x0a	10
226	0x05	5
227	0x1c	28
228	0x24	36
229	0xf1	-15
230	0x10	16
231	0x24	36
232	0x00	0
233	0x1b	27
234	0x33	51
235	0x03	3
236	0xec	-20
237	0xeb	-21
238	0x0c	12
239	0x09	9
240	0xf8	-8
241	0x09	9
242	0x08	8
243	0x1b	27
244	0xf7	-9
245	0x1d	29
246	0x0f	15
247	0xf9	-7
248	0xfe	-2
249	0x03	3
250	0x0c	12
251	0xf6	-10
252	0x0d	13
253	0xf1	-15
254	0x17	23
255	0x0d	13

onnx::LSTM_204_quantized i1 [1, 128, 512]
0	0x07	7
1	0x08	8
2	0xde	-34
3	0x00	0
4	0xff	-1
5	0x03	3
6	0x0a	10
7	0xfe	-2
8	0x1a	26
9	0x07	7
10	0x1a	26
11	0x0d	13
12	0x0c	12
13	0x08	8
14	0x13	19
15	0xfd	-3
16	0xf2	-14
17	0xfb	-5
18	0x16	22
19	0x12	18
20	0xe9	-23
21	0x22	34
22	0xf1	-15
23	0x23	35
24	0xfc	-4
25	0xf3	-13
26	0x11	17
27	0xff	-1
28	0xf9	-7
29	0x10	16
30	0x0b	11
31	0xf3	-13
32	0xf5	-11
33	0x0d	13
34	0x17	23
35	0x0d	13
36	0x1c	28
37	0x1e	30
38	0x13	19
39	0xef	-17
40	0x0d	13
41	0xf8	-8
42	0xed	-19
43	0x12	18
44	0x0d	13
45	0x1a	26
46	0x07	7
47	0x0c	12
48	0x19	25
49	0xee	-18
50	0x14	20
51	0x09	9
52	0x05	5
53	0xee	-18
54	0xde	-34
55	0x02	2
56	0x0f	15
57	0xe9	-23
58	0x16	22
59	0x08	8
60	0x1b	27
61	0x03	3
62	0xf2	-14
63	0xea	-22
64	0x07	7
65	0xef	-17
66	0x12	18
67	0x1f	31
68	0x16	22
69	0xeb	-21
70	0x03	3
71	0xf5	-11
72	0xf4	-12
73	0xfc	-4
74	0xf7	-9
75	0x13	19
76	0xd9	-39
77	0x10	16
78	0x1a	26
79	0x11	17
80	0xfd	-3
81	0x1d	29
82	0x09	9
83	0x02	2
84	0x1d	29
85	0x12	18
86	0x2b	43
87	0x03	3
88	0x12	18
89	0x0a	10
90	0x17	23
91	0xf3	-13
92	0x04	4
93	0xed	-19
94	0xff	-1
95	0xf8	-8
96	0x0e	14
97	0x00	0
98	0x18	24
99	0xfe	-2
100	0x07	7
101	0xe4	-28
102	0xf2	-14
103	0x0f	15
104	0x06	6
105	0x1d	29
106	0x05	5
107	0xf9	-7
108	0xfc	-4
109	0x07	7
110	0x0a	10
111	0x08	8
112	0x10	16
113	0xe5	-27
114	0xee	-18
115	0xf8	-8
116	0x1a	26
117	0x23	35
118	0x1b	27
119	0x0a	10
120	0x17	23
121	0x12	18
122	0xf2	-14
123	0xe6	-26
124	0xfd	-3
125	0x08	8
126	0xe8	-24
127	0xfd	-3
128	0xf0	-16
129	0x0e	14
130	0xfa	-6
131	0x18	24
132	0xeb	-21
133	0xf5	-11
134	0x0c	12
135	0x0d	13
136	0xe3	-29
137	0xfd	-3
138	0xf2	-14
139	0xf0	-16
140	0x14	20
141	0xfd	-3
142	0xef	-17
143	0xe8	-24
144	0xf8	-8
145	0xfc	-4
146	0x1d	29
147	0xe8	-24
148	0xee	-18
149	0x13	19
150	0xd9	-39
151	0x12	18
152	0xff	-1
153	0xfa	-6
154	0x11	17
155	0x0a	10
156	0xf8	-8
157	0x15	21
158	0x02	2
159	0xe9	-23
160	0x06	6
161	0x16	22
162	0x00	0
163	0x1c	28
164	0xcc	-52
165	0x13	19
166	0x05	5
167	0xf0	-16
168	0x0e	14
169	0x12	18
170	0x09	9
171	0xeb	-21
172	0x04	4
173	0xd0	-48
174	0x0f	15
175	0x17	23
176	0x1b	27
177	0xe8	-24
178	0x1c	28
179	0x27	39
180	0xf0	-16
181	0x03	3
182	0xed	-19
183	0x19	25
184	0xfc	-4
185	0xeb	-21
186	0xfa	-6
187	0x0a	10
188	0x06	6
189	0x00	0
190	0x1b	27
191	0x0c	12
192	0xed	-19
193	0x04	4
194	0xee	-18
195	0x19	25
196	0xf8	-8
197	0xe5	-27
198	0x1c	28
199	0xf9	-7
200	0x04	4
201	0x0a	10
202	0x0f	15
203	0xf3	-13
204	0x0c	12
205	0xf3	-13
206	0x0f	15
207	0xfd	-3
208	0xed	-19
209	0x00	0
210	0xfb	-5
211	0x0c	12
212	0x1f	31
213	0xf8	-8
214	0x06	6
215	0xea	-22
216	0xf2	-14
217	0x15	21
218	0xf0	-16
219	0xdc	-36
220	0x0e	14
221	0x08	8
222	0x03	3
223	0xfe	-2
224	0x02	2
225	0x03	3
226	0x12	18
227	0x0b	11
228	0xed	-19
229	0xf6	-10
230	0xdf	-33
231	0xf6	-10
232	0x01	1
233	0x06	6
234	0xe0	-32
235	0xcd	-51
236	0xf1	-15
237	0xe5	-27
238	0x22	34
239	0xfc	-4
240	0x0d	13
241	0x02	2
242	0x00	0
243	0xf5	-11
244	0xf9	-7
245	0x26	38
246	0xf0	-16
247	0x09	9
248	0x00	0
249	0xf1	-15
250	0x17	23
251	0xe4	-28
252	0x0b	11
253	0xfa	-6
254	0xef	-17
255	0xea	-22

fc.weight_quantized u1 [128, 3]
0	0x5a	90
1	0x4e	78
2	0x9d	157
3	0x89	137
4	0x62	98
5	0x4f	79
6	0x84	132
7	0x6e	110
8	0x35	53
9	0x53	83
10	0x6f	111
11	0x6f	111
12	0x7a	122
13	0x4a	74
14	0x9e	158
15	0x6d	109
16	0x6b	107
17	0x47	71
18	0x67	103
19	0xa8	168
20	0x62	98
21	0x54	84
22	0x73	115
23	0x87	135
24	0x81	129
25	0x5c	92
26	0x71	113
27	0x54	84
28	0x8e	142
29	0x64	100
30	0x64	100
31	0x5f	95
32	0x4c	76
33	0x69	105
34	0x70	112
35	0x56	86
36	0x6c	108
37	0x49	73
38	0x51	81
39	0x75	117
40	0x7d	125
41	0x37	55
42	0x3b	59
43	0xb0	176
44	0x65	101
45	0x82	130
46	0x5e	94
47	0x67	103
48	0x7c	124
49	0x4a	74
50	0x75	117
51	0x70	112
52	0x5a	90
53	0xb5	181
54	0x47	71
55	0x73	115
56	0x8c	140
57	0x87	135
58	0x55	85
59	0x63	99
60	0x62	98
61	0x4a	74
62	0x8d	141
63	0x49	73
64	0x6e	110
65	0x58	88
66	0x91	145
67	0x00	0
68	0x94	148
69	0x81	129
70	0x35	53
71	0x5c	92
72	0x74	116
73	0x7a	122
74	0x34	52
75	0x84	132
76	0x73	115
77	0x41	65
78	0x5c	92
79	0x4a	74
80	0x85	133
81	0x86	134
82	0x54	84
83	0x39	57
84	0x4e	78
85	0x64	100
86	0x4d	77
87	0x4b	75
88	0x7b	123
89	0x82	130
90	0x87	135
91	0x4a	74
92	0x5e	94
93	0x85	133
94	0x73	115
95	0x46	70
96	0x45	69
97	0x74	116
98	0x68	104
99	0x7c	124
100	0x60	96
101	0x52	82
102	0x59	89
103	0x91	145
104	0x47	71
105	0x59	89
106	0x54	84
107	0x90	144
108	0x3a	58
109	0xff	255
110	0x48	72
111	0x51	81
112	0x8b	139
113	0x5a	90
114	0x77	119
115	0x7a	122
116	0x54	84
117	0x4f	79
118	0x43	67
119	0x9c	156
120	0x50	80
121	0x84	132
122	0x50	80
123	0x76	118
124	0x69	105
125	0x6e	110
126	0x84	132
127	0x7c	124
128	0x43	67
129	0x4e	78
130	0x81	129
131	0x82	130
132	0x76	118
133	0x57	87
134	0x5f	95
135	0x99	153
136	0x1a	26
137	0x76	118
138	0x68	104
139	0x37	55
140	0x65	101
141	0x51	81
142	0x68	104
143	0x87	135
144	0x78	120
145	0x5d	93
146	0x51	81
147	0x50	80
148	0x8c	140
149	0x62	98
150	0x5f	95
151	0x60	96
152	0x0d	13
153	0x6e	110
154	0x75	117
155	0x28	40
156	0x50	80
157	0x5d	93
158	0x72	114
159	0x83	131
160	0x1f	31
161	0x8a	138
162	0x44	68
163	0x64	100
164	0x80	128
165	0x75	117
166	0x5c	92
167	0x3a	58
168	0x55	85
169	0x69	105
170	0x76	118
171	0x7d	125
172	0x72	114
173	0x2c	44
174	0x6f	111
175	0x63	99
176	0xad	173
177	0x6c	108
178	0x7e	126
179	0x4e	78
180	0x6f	111
181	0x7e	126
182	0x4b	75
183	0x78	120
184	0x6d	109
185	0x3f	63
186	0x6d	109
187	0x5e	94
188	0x8e	142
189	0x49	73
190	0x60	96
191	0x99	153
192	0x50	80
193	0x54	84
194	0xa1	161
195	0x5f	95
196	0x85	133
197	0x74	116
198	0x52	82
199	0x74	116
200	0x83	131
201	0x54	84
202	0x7d	125
203	0x5c	92
204	0x5c	92
205	0x50	80
206	0xaf	175
207	0x54	84
208	0x64	100
209	0xad	173
210	0x56	86
211	0x69	105
212	0xa1	161
213	0x90	144
214	0x85	133
215	0x18	24
216	0x80	128
217	0x3f	63
218	0x73	115
219	0x72	114
220	0x74	116
221	0x81	129
222	0x62	98
223	0x6e	110
224	0x79	121
225	0x54	84
226	0x7a	122
227	0x85	133
228	0x51	81
229	0x73	115
230	0x85	133
231	0x5d	93
232	0x4f	79
233	0x6b	107
234	0x76	118
235	0x37	55
236	0x76	118
237	0x63	99
238	0x78	120
239	0x31	49
240	0x4c	76
241	0xaa	170
242	0x59	89
243	0x53	83
244	0x7b	123
245	0x84	132
246	0x3f	63
247	0x4e	78
248	0xaf	175
249	0xa5	165
250	0x64	100
251	0x23	35
252	0x71	113
253	0x79	121
254	0x66	102
255	0x7c	124
