model.onnx (onnx, 818375 bytes, 8 tensors)

fc.weight f4 [3, 128]
0	0xbdd80eb8	-0.105496824
1	0x3dc990a5	0.09842042
2	0xbba49113	-0.005022177
3	0xba2db571	-0.0006626463
4	0x3b01c71f	0.0019802523
5	0x3e1f0e86	0.15532884
6	0x3deb7c38	0.11498302
7	0xbd8f178c	-0.06986913
8	0x3e0a0bdb	0.13481085
9	0xbc6f5c7c	-0.014609452
10	0x3cc8a8a7	0.024494482
11	0x3e181153	0.14850359
12	0xbe3d1e2c	-0.18468541
13	0x3d95d273	0.07315531
14	0xbd7661cc	-0.06015186
15	0x3d68eed0	0.056868374
16	0xbd9e1924	-0.07719639
17	0x3b86b3e1	0.0041107987
18	0x3e004ab7	0.12528501
19	0xbcb3210f	-0.02186635
20	0x3e269b66	0.16270217
21	0x3d87a6ac	0.06623587
22	0x3d92a51f	0.071604006
23	0xbe018a53	-0.12650423
24	0x3d8407e9	0.06446821
25	0x3daf111a	0.08548184
26	0xbda4db17	-0.080496006
27	0x3e06c061	0.13159324
28	0xbdf407c0	-0.11915541
29	0xbdc31ab3	-0.09526577
30	0xbc85df96	-0.016341966
31	0x3e0c467c	0.13698763
32	0x3db88664	0.09010008
33	0xbd82ba1a	-0.06383152
34	0x3dc4fc02	0.09618379
35	0x3e1a771f	0.15084504
36	0x3d5239ec	0.05132477
37	0x3c8b2acf	0.016988186
38	0xbdd7201e	-0.10504173
39	0x3cfe03b5	0.031007627
40	0x3ca4112c	0.02002772
41	0xbd1ee3ef	-0.038791593
42	0x3dcd4ee7	0.10024815
43	0x3e1a7332	0.15083006
44	0xbe078826	-0.1323553
45	0x3c16bcb0	0.00920026
46	0xbcd8787e	-0.026424643
47	0x3d8f3f22	0.069944635
48	0x3d6f893f	0.058480497
49	0x3da2e396	0.07953565
50	0x3d31b779	0.043387864
51	0x3d7e0faf	0.062026676
52	0x3d8fe612	0.07026304
53	0x3e13f55b	0.14449064
54	0x3e0fa090	0.14026093
55	0x3d37717e	0.04478597
56	0x3deb0c41	0.114769466
57	0xbe012553	-0.12611894
58	0xbdf8ad3e	-0.12142418
59	0x3e2b27e1	0.16714431
60	0x3d0c6f87	0.03428605
61	0x3d7b87b4	0.061408713
62	0x3c729a44	0.014807288
63	0x3c7c044d	0.015381885
64	0x3e28c8ac	0.164828
65	0x3e33324b	0.17499654
66	0x3d22ef6c	0.03977911
67	0x3dd00a6a	0.10158236
68	0x3d7751b2	0.060380645
69	0x3d53c808	0.051704437
70	0xbd8e48cb	-0.06947478
71	0xbcd068b3	-0.02544055
72	0x3e32d9c8	0.1746589
73	0x3d6e1727	0.05812755
74	0xbcb067a8	-0.021533802
75	0xbd6bc79b	-0.057563405
76	0x3e0cebe9	0.13761868
77	0xbe2546bb	-0.16140263
78	0xbd9d341c	-0.07675955
79	0x3dd66aed	0.10469613
80	0xbda1a844	-0.07893422
81	0xbe58fe54	-0.21190768
82	0x3d976a72	0.0739335
83	0xbd578f3f	-0.052626844
84	0xbd676aa4	-0.056498185
85	0xbdde9e68	-0.10870057
86	0x3d863fdc	0.06555149
87	0xbd23f71e	-0.04003059
88	0x3e129721	0.14315464
89	0x3dc944fd	0.098276116
90	0x3d917afc	0.071035355
91	0xbc64ca89	-0.013964304
92	0x3d08170f	0.033225115
93	0xbdc7dc60	-0.0975883
94	0x3d978a1a	0.07399388
95	0xbe13fb15	-0.14451249
96	0x3d21cf84	0.039504543
97	0xbae20a6a	-0.0017245535
98	0xbcc86802	-0.024463657
99	0x3e29db3e	0.1658754
100	0x3d42fb23	0.047602784
101	0xbe1525c0	-0.14565182
102	0x3dc3225c	0.09528038
103	0xbdc8efb7	-0.09811347
104	0x3cbc0349	0.022950785
105	0x3d1aca1a	0.037790395
106	0x3d60ff5a	0.054931022
107	0x3de333b9	0.1109385
108	0x3c4ef723	0.012632164
109	0xbd58038d	-0.05273776
110	0xbcbaa8d0	-0.022785574
111	0xbd501285	-0.05079891
112	0xbc2c680c	-0.010522854
113	0xbdceab94	-0.1009132
114	0xbdf5b2cb	-0.11996993
115	0x3c0ee7bc	0.008722242
116	0xbd826be3	-0.06368234
117	0x3c94f5af	0.018183557
118	0xbc8d950a	-0.017282981
119	0xbd4084c0	-0.0470016
120	0xbe1b00f8	-0.15137088
121	0x3db825a4	0.089915544
122	0xbdf07964	-0.117419034
123	0xbda8bafe	-0.08238791
124	0x3e1fad3c	0.15593427
125	0xbe1e73d7	-0.15473877
126	0x3e0e239d	0.13880773
127	0x3da3c534	0.07996598
128	0x3e3d4936	0.18484959
129	0xbe65162e	-0.22371742
130	0xbe4db198	-0.20087278
131	0x3dca6e19	0.09884281
132	0xbd36e473	-0.04465146
133	0x3db982f8	0.090581834
134	0xbdc889e1	-0.09791923
135	0x3e3d10da	0.1846346
136	0xbe8d984a	-0.2765525
137	0xbc36cf57	-0.011157832
138	0xbdbdb42e	-0.09262882
139	0xbe406247	-0.1878749
140	0x3dd6ef93	0.10494914
141	0xbd82d12b	-0.06387552
142	0x3a28d05e	0.00064397405
143	0x3d9a8a5f	0.075459234
144	0x3ddaa37f	0.10675716
145	0x3e6d9503	0.23201375
146	0x3c7cdc5a	0.015433395
147	0x3e257c8e	0.16160795
148	0xbced8455	-0.028993765
149	0xbdc13116	-0.094331905
150	0xbd493f7f	-0.04913282
151	0x3d839328	0.06424552
152	0xbe33426d	-0.17505808
153	0xbc910119	-0.017700719
154	0x3dda4f0a	0.10659607
155	0x3d5f11da	0.054460384
156	0xbd370e80	-0.044691563
157	0xbd074f01	-0.03303433
158	0xbd85439e	-0.065070376
159	0xbe62db9f	-0.22154091
160	0xbccc5416	-0.024942439
161	0x3dce5738	0.100752294
162	0xbe2443e0	-0.16041517
163	0xbd8fa6cc	-0.07014236
164	0xbe09d2ef	-0.13459371
165	0x3e5c940e	0.21540853
166	0x3e03bd9f	0.12865303
167	0x3ea211b4	0.3165413
168	0xbdf9a329	-0.121893235
169	0x3e378fe6	0.17925987
170	0xbd83cfac	-0.06436095
171	0xbcea9c06	-0.02863885
172	0xbce572e6	-0.02800889
173	0xbe0c1a21	-0.13681842
174	0x3c0e4cc8	0.008685298
175	0x3d610750	0.054938614
176	0xbc99e7ce	-0.01878729
177	0x3de80c87	0.113305144
178	0xbdc95d54	-0.09832254
179	0x3bdb5679	0.006693658
180	0xbdf09b33	-0.11748352
181	0x3d8c835d	0.06860993
182	0xbcbf4df4	-0.0233526
183	0xbe0f39a5	-0.13986833
184	0xbe203f9d	-0.15649267
185	0x3e2b1c31	0.16709973
186	0xbd131538	-0.035908908
187	0x3d774aad	0.06037395
188	0x3e18f427	0.14936887
189	0xbc4ce446	-0.0125055965
190	0x3d9cbc14	0.076530606
191	0x3c49fda8	0.012328543
192	0xbdfc9849	-0.123337336
193	0xbe20d295	-0.1570533
194	0x3e00e407	0.12586986
195	0xbd569474	-0.05238767
196	0x3d3cacff	0.04606342
197	0xbe0296aa	-0.12752786
198	0x3d36b1c7	0.044603135
199	0xbd72667a	-0.05917976
200	0xbdd694d6	-0.10477607
201	0xbdc73d9b	-0.09728547
202	0x3e70bd02	0.23509601
203	0x3d76f048	0.060287744
204	0xbd41e06e	-0.047333173
205	0x3da31ec3	0.07964852
206	0x3e35d093	0.17755346
207	0x3d356991	0.04429013
208	0xbd4e7624	-0.050405636
209	0x3ea479a3	0.3212405
210	0xbe2392f4	-0.15974027
211	0x3ca1ec3a	0.019765962
212	0x3ceb153d	0.02869665
213	0x3d93267b	0.07185074
214	0x3d852d0f	0.06502735
215	0x3e855ae1	0.26045898
216	0xbe10fb40	-0.14158344
217	0xbd511fa1	-0.051055554
218	0x3d1c1357	0.03810438
219	0xbd72ba56	-0.059259735
220	0x3e5b9161	0.21442176
221	0x3e75a9af	0.2399051
222	0x3ce295b1	0.027659269
223	0x3e124bf2	0.14286783
224	0xbe0c03dc	-0.13673347
225	0xba296c78	-0.00064630015
226	0xbc49acec	-0.012309294
227	0xbdf19a98	-0.117970645
228	0x3e065fea	0.13122526
229	0x3dd6522b	0.10464891
230	0xbde29507	-0.11063581
231	0x3e07bd23	0.13255744
232	0xbdeec972	-0.116595164
233	0x3d10ada5	0.03532185
234	0xbbc07dce	-0.005874372
235	0x3d3e291c	0.046425924
236	0x3d607f6f	0.05480903
237	0x3e969e1c	0.29417503
238	0xbce60295	-0.028077403
239	0x3ae6f934	0.0017621876
240	0xbc613df7	-0.013747684
241	0x3e3ecaef	0.186321
242	0x3e171c89	0.14756979
243	0xbe0b5678	-0.13607204
244	0x3dfbc541	0.122934826
245	0xbdf8bbb1	-0.12145174
246	0x3ae44840	0.0017416552
247	0xbd3c2149	-0.04593018
248	0x3e367eba	0.1782178
249	0x3d1cdf66	0.038298987
250	0x3dde3a2f	0.108509414
251	0x3c4fdf99	0.012687587
252	0xbe021755	-0.12704213
253	0x3d88139e	0.06644367
254	0x3bac660c	0.0052611884
255	0x3c59b605	0.013288026

fc.bias f4 [3]
0	0x3d9719f6	0.073779985
1	0xbb83625b	-0.0040095276
2	0xbb262f96	-0.0025357953

onnx::LSTM_183 f4 [1, 512, 9]
0	0xbd9fd1be	-0.07803677
1	0xbe4948be	-0.19656655
2	0xbd6bd067	-0.057571795
3	0xbde8451f	-0.11341309
4	0x3e8d4e4b	0.27598795
5	0x3e2cb3fd	0.16865535
6	0xbcef74b6	-0.029230457
7	0x3dea1417	0.11429613
8	0xbd93b67a	-0.07212539
9	0xbc85d512	-0.016336951
10	0xbe6124c4	-0.21986681
11	0xbc702db9	-0.014659339
12	0x3eac97c6	0.33709544
13	0xbcf7b443	-0.030237323
14	0x3e4a3030	0.19744945
15	0x3c3317b4	0.010930944
16	0x3d8f04c5	0.069833316
17	0xbe384edf	-0.17998837
18	0x3d6792f7	0.05653664
19	0xbdbbffb2	-0.091796294
20	0x3d49eeff	0.04930019
21	0xbd8e1067	-0.06936722
22	0x3d9a985d	0.07548592
23	0x3d8d92e2	0.06912781
24	0xbe740285	-0.23829086
25	0x3dec582d	0.11540256
26	0x3e526e3a	0.2054986
27	0x3df38484	0.1189051
28	0x3d9ca351	0.07648338
29	0x3d062d07	0.032757785
30	0x3c70f915	0.014707823
31	0x3e37d654	0.17952853
32	0xbdd8929a	-0.10574837
33	0x3d3fb397	0.04680213
34	0xbc0d2042	-0.008613648
35	0x3e4075fd	0.18795009
36	0x3dd4b9a8	0.103869736
37	0xbc828b97	-0.015935702
38	0x3b7943c7	0.0038034783
39	0xbd3c5062	-0.045975097
40	0x3d33cdb0	0.04389733
41	0xbcacb53c	-0.021082513
42	0xbe24e313	-0.16102247
43	0x3d7d9e9f	0.06191885
44	0x3ca545c0	0.020174861
45	0x3da17a0e	0.07884608
46	0x3eb5a591	0.3547788
47	0x3d4f4fe3	0.050613295
48	0x3cf33581	0.029688599
49	0xbd0bba76	-0.03411337
50	0x3e6acd62	0.2292991
51	0x3dcae7f3	0.09907522
52	0xbab95f60	-0.0014142804
53	0x3c951110	0.018196613
54	0xbcbecb68	-0.023290351
55	0xbc0da445	-0.008645122
56	0xbd40df30	-0.04708785
57	0xbdbc1a90	-0.09184754
58	0xbd0e5022	-0.03474439
59	0x3e101f57	0.14074455
60	0xbdf2e6db	-0.118604384
61	0xbbe467e2	-0.0069703916
62	0xbd127fea	-0.03576652
63	0x3d9168b9	0.071000524
64	0xbd948b16	-0.07253091
65	0xbe187842	-0.14889625
66	0x3df9d56c	0.1219891
67	0x3e10eaa0	0.14152002
68	0x3de2526c	0.11050877
69	0x3db0306a	0.08602984
70	0xbd99581a	-0.07487507
71	0x3e559854	0.2085889
72	0xbd414c07	-0.047191646
73	0xbded5f2a	-0.11590417
74	0x3dba7b4a	0.09105547
75	0xbd230879	-0.039803002
76	0x3d07da48	0.033167154
77	0x3d18f0aa	0.03733889
78	0x3c2faff2	0.010723101
79	0x3e1e6d0b	0.15471284
80	0x3e0f03f6	0.13966355
81	0xbbc1a6db	-0.0059097833
82	0x3e21d0d2	0.15802315
83	0x3e05804f	0.13037227
84	0xbb890863	-0.004181908
85	0xbd5508e4	-0.052010432
86	0x3b940092	0.0045166695
87	0xbb81ec1e	-0.003964915
88	0xbc981a38	-0.01856719
89	0x3e234dd0	0.15947652
90	0xbe20b9b5	-0.15695842
91	0xbe2c0871	-0.16800095
92	0xbcb223aa	-0.021745522
93	0xbdfbc7e0	-0.122939825
94	0xbd6969c6	-0.05698564
95	0x3d4286a4	0.047491685
96	0x3adbd68c	0.0016772314
97	0x3e181350	0.14851117
98	0xbc3090bb	-0.010776694
99	0xbe343d3c	-0.17601484
100	0xbdcc6486	-0.09980111
101	0x3db13e9e	0.086545214
102	0xbd58c845	-0.052925367
103	0x3e134bdb	0.14384405
104	0xbe864052	-0.26220948
105	0x3df2e233	0.1185955
106	0x3dfaaa15	0.12239472
107	0xbd26fdee	-0.04076951
108	0x3e64c213	0.22339658
109	0xbdc9b13d	-0.09848259
110	0x3ebba98f	0.366528
111	0x3e48eaf2	0.19620875
112	0x3ceeb64c	0.02913966
113	0x3c572127	0.013130463
114	0x3e3a0768	0.18166888
115	0xbe464155	-0.1936086
116	0x3e88144a	0.2657798
117	0xbdf8b72a	-0.12144311
118	0x3c2e3b0f	0.010634198
119	0xbc867b33	-0.016416168
120	0xbd55967b	-0.052145462
121	0xbc147e69	-0.009063342
122	0x3d1e150c	0.03859429
123	0xbd7fb42d	-0.06242769
124	0x3dbcda1a	0.09221287
125	0x3e4baed9	0.19890918
126	0x3cd2fbab	0.02575477
127	0xbd820722	-0.06349017
128	0x3e1260df	0.14294766
129	0x3ea8a06b	0.3293489
130	0xbe095e16	-0.13414797
131	0x3e283a1e	0.1642842
132	0x3e30bc74	0.17259389
133	0xbdac4f9b	-0.08413621
134	0x3e969254	0.29408514
135	0xbe8d7e45	-0.27635399
136	0xbd4cc3b1	-0.049991313
137	0x3cb4dfcf	0.022079377
138	0xbe2f43a3	-0.17115645
139	0xbd11d245	-0.03560092
140	0xbd05306d	-0.032516886
141	0x3e6a1c94	0.22862464
142	0x3da16a13	0.0788156
143	0xbca50564	-0.020144172
144	0x3da39960	0.07988238
145	0xbdf00e8e	-0.11721526
146	0xbbb3730f	-0.0054763625
147	0xbe4cd4ee	-0.20003101
148	0x3d090da8	0.03346029
149	0xbc8f3c47	-0.017484797
150	0xbd8bf93a	-0.068346456
151	0xbd96728c	-0.07346067
152	0xbdbf6990	-0.09346306
153	0x3e1b327e	0.1515598
154	0x3a26afb8	0.00063585816
155	0xbcebcb51	-0.028783472
156	0x3d6dd240	0.05806184
157	0xbd15033d	-0.03638004
158	0x3daaddff	0.08343124
159	0xbc992ac8	-0.018697158
160	0xbdf4a8b8	-0.11946243
161	0x3ddf200b	0.108947836
162	0x3dfaf687	0.122540526
163	0x3cc54255	0.024079481
164	0x3d921bbd	0.07134197
165	0xbddde4ce	-0.10834657
166	0xbe0a7831	-0.13522412
167	0x3e20da5c	0.15708297
168	0xbd438642	-0.04773546
169	0x3dc6d72e	0.09709011
170	0x3e0e40d6	0.1389192
171	0xbe02b303	-0.127636
172	0xbd1cbf61	-0.03826845
173	0x3ce736b9	0.028224336
174	0x3da91ab3	0.082570456
175	0xbd00984e	-0.03139525
176	0xbd99b0dc	-0.075044364
177	0xbdb48ded	-0.08816133
178	0x3dc97637	0.09837001
179	0x3d4c8c3c	0.049938425
180	0x3bc3069e	0.0059517166
181	0x3d50f8e2	0.051018603
182	0x3d33affa	0.043868996
183	0x3cb78522	0.02240235
184	0x3bbba9c5	0.005727025
185	0x3d74eaf0	0.059794366
186	0x3d4a8e97	0.04945239
187	0xbe141678	-0.14461696
188	0xbd1f832d	-0.03894346
189	0xba30df80	-0.0006747171
190	0xbd212cb8	-0.039349288
191	0x3c88ba3c	0.016690366
192	0x3e1ad1b6	0.15119061
193	0xbe988462	-0.297885
194	0xbd216d9a	-0.039411165
195	0xbdbbf1b8	-0.091769636
196	0xbddca7cb	-0.107741915
197	0xbcd361b6	-0.025803428
198	0xbdcde311	-0.10053075
199	0xbd024205	-0.031801242
200	0xbdfe8139	-0.12426991
201	0x3e99ad7a	0.30015165
202	0xbd9b2a11	-0.07576383
203	0x3e24f794	0.16110069
204	0xbde75c82	-0.11296941
205	0xbc0ac35c	-0.008469429
206	0x3e126312	0.14295605
207	0xbced0953	-0.02893511
208	0xbe13a5eb	-0.14418761
209	0xbdebd6e0	-0.115155935
210	0xbd433799	-0.047660444
211	0xbe1f7d4b	-0.15575139
212	0x3acd0dfb	0.0015644425
213	0xbe19b58e	-0.15010664
214	0xbda89459	-0.0823142
215	0xbdbba2cc	-0.091619104
216	0x3d69cd1c	0.057080373
217	0x3e0e1dac	0.13878506
218	0xbbaf3b03	-0.005347611
219	0xbe220dfe	-0.1582565
220	0x3cece2da	0.028916765
221	0xbd29c698	-0.04144916
222	0xbd922f74	-0.07137957
223	0xbdf721de	-0.120670065
224	0xbd0e73f4	-0.03477855
225	0x3cefd44e	0.02927604
226	0x3e196dfa	0.14983359
227	0x3da63190	0.08114922
228	0xbe07129a	-0.1319069
229	0x3cb04fcc	0.021522425
230	0x3d768642	0.060186632
231	0x3c74a98e	0.014933003
232	0xbd905509	-0.07047469
233	0x3c904d5c	0.017615013
234	0xbd513252	-0.05107338
235	0x3d2a179c	0.041526422
236	0xbe150f72	-0.14556673
237	0xbc647c9a	-0.013945723
238	0xbc9c6f77	-0.01909612
239	0x3dbc56d8	0.09196252
240	0xbd6944dd	-0.05695044
241	0x3ca992c1	0.02069986
242	0xbe4927ea	-0.19644132
243	0xbe0d5c72	-0.13804796
244	0xbdcbb2c2	-0.09946205
245	0xbde431e3	-0.11142328
246	0x3d1a95a3	0.03774036
247	0xbde66798	-0.11250228
248	0x3b7d118a	0.003861519
249	0xbdca7eeb	-0.09887489
250	0x3b76d557	0.0037663782
251	0x3c38a343	0.011269393
252	0x3d62eb10	0.055399954
253	0x3cfffabe	0.031247493
254	0xbdcbcaa7	-0.09950762
255	0x3d9ae604	0.07563403

onnx::LSTM_184 f4 [1, 512, 128]
0	0x3d22d281	0.039751533
1	0xbcbe0a72	-0.02319834
2	0xbc8243d8	-0.015901491
3	0x3d317811	0.043327395
4	0x3e07c1b9	0.13257493
5	0xbc00efac	-0.007869642
6	0xbdee3682	-0.1163149
7	0xbd86a9ba	-0.065753415
8	0xbd699ce4	-0.05703439
9	0xbd86b42a	-0.06577332
10	0xbcc663aa	-0.024217445
11	0x3c11aeca	0.008891771
12	0x3c4016a1	0.011724145
13	0x3d55888a	0.052132167
14	0x3cdc8d65	0.02692289
15	0xbb1ec60c	-0.0024226932
16	0xbdb51486	-0.08841805
17	0xbb1bca49	-0.0023771694
18	0x3ce5ab85	0.028035888
19	0xbe1056ae	-0.14095566
20	0xbbf4f0aa	-0.0074749785
21	0x3adab2db	0.0016685383
22	0xbd9f7e5a	-0.077877715
23	0xbd7681cb	-0.060182374
24	0x3d569691	0.052389685
25	0x3d2d504a	0.042312898
26	0x3d5fa6b5	0.054602344
27	0x3caef60c	0.021357559
28	0x3da72264	0.08160856
29	0xbd871970	-0.06596649
30	0xbc55745b	-0.01302823
31	0x3e14aff4	0.14520246
32	0xbd68e19d	-0.056855787
33	0x3e01a17c	0.12659258
34	0x3dcb930d	0.09940157
35	0x3d41000c	0.047119185
36	0xbc4bfc46	-0.012450283
37	0xbe1f4e1e	-0.15557143
38	0x3b8f2064	0.004367875
39	0x3dbc4af4	0.09193984
40	0xbd90ab1c	-0.070638865
41	0x3d3470ab	0.04405276
42	0xbd3f2fda	-0.046676494
43	0xbd360cc9	-0.044445787
44	0x3cdb4428	0.026765898
45	0x3d0cf211	0.03441054
46	0x3d53c595	0.0517021
47	0x3da9ce14	0.082912594
48	0x3d756519	0.059910867
49	0xbd655726	-0.055991314
50	0xbdfc059c	-0.123057574
51	0x3cd4659d	0.02592736
52	0x3daab220	0.08334756
53	0x3b9d6dc0	0.004804343
54	0xbcc5c616	-0.024142306
55	0x3cbfd8bf	0.023418782
56	0x3d99adf8	0.07503885
57	0x3d39a179	0.045320008
58	0xbe359feb	-0.17736785
59	0xbd552018	-0.05203256
60	0x3be43797	0.0069646346
61	0xbcba4da0	-0.022742093
62	0xbd8d7402	-0.06906892
63	0xbe31f390	-0.17378068
64	0x3cbdce10	0.023169547
65	0xbe31222a	-0.17298189
66	0xbd9564c9	-0.07294614
67	0x3c8a9b8a	0.01691987
68	0x3c34ea61	0.011042208
69	0xbe0f889b	-0.14016955
70	0x3d575bfd	0.05257796
71	0xbc9d7bc5	-0.019224057
72	0xbdf57d84	-0.11986831
73	0x3da58f31	0.08083952
74	0x3c013057	0.00788506
75	0x3d50efca	0.05100993
76	0xbd3bccb4	-0.045849517
77	0x3e29333b	0.16523449
78	0x3c748ffe	0.014926909
79	0xbc17ee02	-0.009273054
80	0x3e10bee5	0.1413532
81	0xbc1cf652	-0.009580212
82	0x3cfebfcd	0.031097317
83	0xbcf0206d	-0.029312337
84	0xb84142c0	-4.607695e-05
85	0x3c7ad4e0	0.015309542
86	0xbc980bf1	-0.018560382
87	0x3e0e30da	0.13885823
88	0xbd03ec73	-0.032207917
89	0xbdd16eec	-0.10226235
90	0x3daa5c28	0.08318359
91	0x3dadfaa4	0.084950715
92	0x3d7ff8a4	0.06249298
93	0x3d95e417	0.07318895
94	0xbbf9fa3c	-0.007628707
95	0xbd8d8952	-0.069109574
96	0x3d5e98b7	0.05434486
97	0xbd67dc3f	-0.056606527
98	0x3e1c1259	0.15241374
99	0x3d9d4618	0.07679385
100	0x3cef67b7	0.02922426
101	0x3a9b058f	0.0011827218
102	0xbcea485a	-0.028598953
103	0x3dddb3a1	0.10825277
104	0xbceab4cc	-0.028650664
105	0x3d52568b	0.051352065
106	0x3d8f46f3	0.06995954
107	0xbc1ad2e9	-0.009449699
108	0x3e336a1f	0.1752095
109	0x3d065260	0.032793403
110	0xbe1398c8	-0.1441375
111	0x3d9cad44	0.07650235
112	0x3d8c5fe7	0.068542294
113	0xbd62b319	-0.055346582
114	0x3df5c9f7	0.12001412
115	0xbd2edac9	-0.04268912
116	0x3d748db1	0.05970544
117	0x3d0ce64d	0.03439932
118	0xbbb12812	-0.005406388
119	0xbd4b8f14	-0.049696997
120	0x3d956f4a	0.07296617
121	0xbd990d77	-0.07473271
122	0x3c921753	0.017833387
123	0xbdb9e60d	-0.09077082
124	0xbcf4db0a	-0.029889602
125	0xbcc8b2e1	-0.024499359
126	0xbd026311	-0.03183276
127	0x3d80bc81	0.06285954
128	0x3daf6a39	0.08565182
129	0x3dee67db	0.116409026
130	0xbd8dd22b	-0.06924852
131	0x3de7bf7b	0.11315819
132	0xbbef7b26	-0.0073083816
133	0xbdf06e1c	-0.11739752
134	0x3df411c4	0.11917451
135	0xbddac354	-0.10681787
136	0x3dc9527c	0.09830186
137	0x3d131430	0.035907924
138	0x3d4f8948	0.05066803
139	0xbc8a8f90	-0.016914159
140	0xbcfddced	-0.030989135
141	0x3da0b278	0.0784654
142	0xbde45b96	-0.11150281
143	0x3cd579d8	0.026059076
144	0xbc422b18	-0.011851095
145	0x3e50f9b6	0.20407757
146	0xbd4f354c	-0.050587937
147	0xbd0886b5	-0.03333159
148	0xbe0c17ac	-0.13680905
149	0x3da1d880	0.07902622
150	0xbd858db3	-0.065211676
151	0xbda6ac39	-0.081383176
152	0x3e6e61e7	0.23279534
153	0xbd34f918	-0.044182867
154	0x3cd1f7e1	0.025630893
155	0x3cec84af	0.028871862
156	0xbd10c96f	-0.035348352
157	0x3d06c66f	0.032904085
158	0xbcc506a4	-0.024051018
159	0xbd92682e	-0.07148777
160	0x3d687344	0.05675055
161	0x3d830a8f	0.06398498
162	0x3bb4a7f4	0.0055131856
163	0xbe02e3c8	-0.12782204
164	0x3bb9b3d7	0.0056671905
165	0x3dae152f	0.08500134
166	0x3d37d5b8	0.044881552
167	0x3c03ad10	0.008036867
168	0xbd121d16	-0.03567227
169	0x3c9ffc28	0.019529417
170	0x3b43bf3f	0.002986863
171	0x3c7f37a4	0.015577231
172	0xbbb7b108	-0.0056058206
173	0xbcfcfffc	-0.030883782
174	0xbdae60f0	-0.08514583
175	0xbd85f0c6	-0.065400645
176	0xbcb01526	-0.02149446
177	0xbd175a86	-0.036951564
178	0x3c9c4e4b	0.019080302
179	0x3bf0baee	0.0073465025
180	0x3ca2a312	0.019853149
181	0xbc2d43a9	-0.0105752135
182	0x3d757844	0.059929147
183	0xbdb0ff15	-0.08642403
184	0xbdc5d406	-0.09659581
185	0xbc145a8c	-0.009054791
186	0xbdba9bad	-0.09111724
187	0x3bcb1622	0.006197707
188	0xbd8d69a9	-0.06904919
189	0xbc963098	-0.018333718
190	0x3db65783	0.0890341
191	0x3c999d0d	0.018751645
192	0xbcfa95a3	-0.03058893
193	0xbe17824b	-0.14795797
194	0xbbdfb7cc	-0.00682733
195	0xbc926468	-0.017870143
196	0xbc0e9265	-0.008701895
197	0xbd728f08	-0.059218436
198	0xbd947a53	-0.07249894
199	0x3c123ec0	0.008926094
200	0xbde6240f	-0.112373464
201	0x3e0e0189	0.13867773
202	0x3d566e2c	0.05235116
203	0xbd8cbe64	-0.06872252
204	0x3db59729	0.08866722
205	0x3df3ece1	0.119104154
206	0xbba770c2	-0.0051098773
207	0xbcd1d858	-0.025615856
208	0x3e12bb6d	0.1432931
209	0xbbafcbaf	-0.005364857
210	0xbd3573f6	-0.044300042
211	0x3d451cb3	0.048123073
212	0xbbdb3b89	-0.0066904468
213	0xbd861b3d	-0.06548164
214	0x3d9490bf	0.072541706
215	0xbcfd1a9b	-0.030896476
216	0xbc74ec64	-0.014948938
217	0x3dd2e4b5	0.10297529
218	0x3e3792e6	0.17927131
219	0x3db4b58f	0.08823692
220	0xbcb4a0c4	-0.022049315
221	0x3d9646cf	0.073377244
222	0xbad03f93	-0.0015888087
223	0xbcb83d26	-0.022490095
224	0xbd213b27	-0.039363053
225	0xbd71ba9f	-0.059015866
226	0x3e29d583	0.16585355
227	0x3d48d739	0.049033377
228	0xbc5c8d09	-0.01346136
229	0xbd2a67e7	-0.041602995
230	0xbdf1d7b8	-0.11808723
231	0x3df55369	0.119788
232	0xbd7b0b46	-0.061290048
233	0xbbc3671e	-0.0059632203
234	0xbdaa2ed1	-0.08309711
235	0xbd3c4b78	-0.04597041
236	0x3dba5ba6	0.09099512
237	0xbcc0709a	-0.023491193
238	0xbc9d792e	-0.019222822
239	0xbd758db9	-0.05994961
240	0x3dab2734	0.08357087
241	0x3dacc4c0	0.084359646
242	0x3d2db3d3	0.042407822
243	0xbc0b3ca7	-0.008498347
244	0xbdc89f22	-0.09795977
245	0x3bea85af	0.0071570496
246	0x3dda0a4a	0.10646494
247	0xbdd7b630	-0.105327964
248	0xbc824e72	-0.015906546
249	0x3e01608d	0.12634487
250	0xbadce93e	-0.001685418
251	0xbdfb6f95	-0.12277142
252	0x3d14bddd	0.03631388
253	0xbdbf086f	-0.093277805
254	0xbbc58c7f	-0.0060287113
255	0xbc5ddff9	-0.013542169

onnx::LSTM_185 f4 [1, 1024]
0	0xbd3e500e	-0.046463065
1	0xbe132ab7	-0.14371763
2	0xbd5d98e0	-0.05410087
3	0xbd392467	-0.04520073
4	0xbe18b593	-0.14913015
5	0xbe0d922c	-0.13825291
6	0x3dff17b3	0.12455692
7	0xbe302d85	-0.17204864
8	0xbd7bb329	-0.061450157
9	0xbd1a0793	-0.03760488
10	0xbca2617d	-0.019821877
11	0xbd8070e9	-0.06271536
12	0xbe2a2a02	-0.16617587
13	0xbd3b4d9f	-0.045728322
14	0xbd56add7	-0.05241188
15	0xbddb1f48	-0.10699326
16	0xbd0eedf6	-0.034894906
17	0xbdaf0e7b	-0.08547684
18	0xbe07c1e6	-0.1325756
19	0xbca6014e	-0.020264294
20	0xbdd237af	-0.10264527
21	0xbdbded4f	-0.09273779
22	0x3d8111c2	0.06302215
23	0x3c5e8618	0.013581775
24	0xbe1856fe	-0.14876935
25	0x3cfebded	0.031096423
26	0xbe4cffbb	-0.20019428
27	0x3bf72933	0.007542753
28	0x3ca6b0fc	0.020348065
29	0xba3eff5f	-0.0007285978
30	0xbde92e98	-0.1138584
31	0xbdcd4942	-0.100237384
32	0xbe1549cd	-0.14578934
33	0xbdb6f6c4	-0.089337856
34	0xbdd23317	-0.10263651
35	0x3ca1cf30	0.019752115
36	0xbd4abd0d	-0.0494967
37	0xbd85d84f	-0.06535398
38	0xbbc322c1	-0.0059550707
39	0xbd192333	-0.037387084
40	0xbd562f5b	-0.052291255
41	0xbc740f1a	-0.014896179
42	0x3d6bb232	0.057542987
43	0x3dfe2995	0.12410275
44	0xbd47f9eb	-0.048822325
45	0x3cf3b304	0.029748447
46	0x3bc40fbd	0.0059833215
47	0xbe2b6f97	-0.16741787
48	0xbdda4d8b	-0.106593214
49	0xbd01df6e	-0.03170722
50	0x3d3d71fc	0.046251282
51	0xbd460690	-0.048346102
52	0xbcf6bc8e	-0.030119207
53	0xbd8295aa	-0.063762024
54	0x3ba781d9	0.0051119146
55	0x3d12e6d2	0.03586466
56	0xbcc5c50e	-0.024141815
57	0xbc66047e	-0.014039157
58	0x3c6927de	0.0142306965
59	0x3d2f9684	0.042868152
60	0x3d2d34d6	0.042286716
61	0xbdf9f2b9	-0.12204499
62	0xbd89e092	-0.067322865
63	0xbdf7d35a	-0.12100859
64	0xbd947718	-0.07249278
65	0xbca0d416	-0.01963238
66	0xbc0b39cc	-0.008497667
67	0xbcaf971e	-0.021434363
68	0xbd1f5118	-0.038895696
69	0xbc8877c7	-0.016658677
70	0xbde5e23d	-0.11224792
71	0x3d70fff2	0.05883784
72	0xbe0aa54c	-0.13539618
73	0x3d8c3f85	0.06848053
74	0x3c7f7e85	0.015594129
75	0xbdfed061	-0.12442089
76	0xbd4d9e0f	-0.050199565
77	0xbd19e282	-0.03756953
78	0x3ccb52df	0.02481979
79	0xbc800747	-0.01562847
80	0x3b7607a4	0.0037541175
81	0xbc96222b	-0.01832684
82	0xbcc90c3b	-0.024541965
83	0x3d4fd322	0.05073846
84	0x3d8d0766	0.06886177
85	0x3cfc8c20	0.030828536
86	0xbc77415b	-0.015091266
87	0xbdc6f3dc	-0.09714481
88	0xbd9dfd02	-0.07714273
89	0x3d5f2abc	0.054484114
90	0x3da49263	0.080357336
91	0x3d4fe481	0.050755028
92	0x3c8444d2	0.016146097
93	0xbe106ec3	-0.14104752
94	0xbcd6a737	-0.026202781
95	0xbde4c61b	-0.11170598
96	0x3ad4cfc2	0.0016236233
97	0xbd68316d	-0.05668776
98	0xbdfe89e6	-0.12428646
99	0xbe4c06eb	-0.19924514
100	0xbcae770a	-0.021296997
101	0x3d12064b	0.035650533
102	0x3b898944	0.0041972715
103	0x3dbd2b27	0.09236746
104	0xbbd99ca4	-0.0066409875
105	0xbd980a5a	-0.074238494
106	0x3b8b3d21	0.0042492305
107	0xbd1918a2	-0.037377007
108	0x3d04d3b7	0.03242847
109	0xbd921ad5	-0.07134024
110	0xbc0a7cb8	-0.008452587
111	0x3c37226c	0.01117764
112	0x3c7d24e7	0.015450693
113	0xbd4764c6	-0.04868009
114	0x3d7cd95d	0.06173073
115	0x3dba5512	0.09098257
116	0x3dc4aace	0.09602891
117	0xbd314cd7	-0.04328617
118	0x3b4f7e71	0.0031661058
119	0xbda1a1e8	-0.07892209
120	0xbe2a8feb	-0.16656463
121	0x3ce04c0c	0.027380012
122	0xbdb12127	-0.086489014
123	0x3e064932	0.1311386
124	0xbdc2bd0d	-0.09508715
125	0xbdc5845d	-0.09644387
126	0xbdee2316	-0.11627786
127	0xbdaa09fa	-0.08302684
128	0xbd89e5cf	-0.06733286
129	0xbd3349a1	-0.04377139
130	0x3da9fe38	0.083004415
131	0xbd91edc8	-0.07125431
132	0xbe46ea58	-0.19425333
133	0xbe05cb7c	-0.13065904
134	0x3d2bdccf	0.041958626
135	0xbdb786c7	-0.089612536
136	0xbe4a7c40	-0.1977396
137	0x3c88d820	0.016704619
138	0x3ac4aa22	0.0015004317
139	0x3d0920df	0.033478614
140	0xbe295175	-0.1653498
141	0x3b63bc88	0.0034749825
142	0x3d8d3916	0.06895654
143	0xbc21bffd	-0.009872434
144	0xbda324be	-0.079659924
145	0x3c3158a5	0.010824357
146	0xbdfccb69	-0.12343485
147	0xbe021c2b	-0.12706058
148	0xbd7d5d0e	-0.061856322
149	0xbd93c636	-0.0721554
150	0xbb4ded5e	-0.0031422
151	0xbd033e2c	-0.032041714
152	0x3bc368b8	0.005963411
153	0x3d0b7138	0.03404352
154	0xbcd05f81	-0.025436165
155	0xbd15ed99	-0.036603544
156	0xbcc95b7a	-0.024579752
157	0xbcb75725	-0.022380421
158	0x3dbbe191	0.09173883
159	0xbdb61943	-0.08891537
160	0xbd2c4dc5	-0.042066354
161	0x3cd155ed	0.025553668
162	0x3d01ca72	0.031687208
163	0xbb8e3f61	-0.0043410514
164	0xbd245561	-0.040120486
165	0x3d5bf5c8	0.053701192
166	0xbcb97bb1	-0.022641988
167	0xbd0dd2ac	-0.03462474
168	0xbd153c37	-0.03643438
169	0xbddc8931	-0.10768355
170	0x3d60a595	0.05484541
171	0xbc9f57a9	-0.01945098
172	0x3a71cb78	0.00092237396
173	0xbc80a72e	-0.015704717
174	0x3c59d516	0.013295433
175	0xbe1efa25	-0.1552511
176	0xbd4e5400	-0.050373077
177	0xbe0483ed	-0.1294095
178	0x3dd56b12	0.10420813
179	0xba182e27	-0.0005805217
180	0xbdf42468	-0.119210064
181	0x3b93b26f	0.004507355
182	0x3c909845	0.017650733
183	0x3d38f9d9	0.04516015
184	0x3dfb6345	0.122747935
185	0x3d68a7b8	0.056800574
186	0xbd9a7310	-0.07541478
187	0x3d1de389	0.038547073
188	0xbd92690b	-0.071489416
189	0xbdc8463c	-0.09779021
190	0xbd1c86f1	-0.038214628
191	0xbd96e4ce	-0.0736786
192	0x3cc4cce3	0.024023479
193	0xbd51adcb	-0.051191133
194	0xbe0118e8	-0.12607157
195	0xbd9a3af3	-0.07530775
196	0xbdeaf396	-0.114722416
197	0xbc640ceb	-0.0139190955
198	0xbdb4a82e	-0.0882114
199	0xbcd46327	-0.025926186
200	0xbdc1fb31	-0.09471739
201	0x3d20a74f	0.039222058
202	0x3d062593	0.032750677
203	0xbdd9bb03	-0.10631373
204	0xbd6ca9af	-0.05777901
205	0xbcc85d68	-0.024458602
206	0x3d3d954f	0.04628497
207	0xbcc0ba4f	-0.023526339
208	0xbdfbbad4	-0.12291494
209	0xbde06a56	-0.10957782
210	0xbd2aeaed	-0.04172795
211	0x3e03fb88	0.1288892
212	0xbc571af6	-0.013128987
213	0x3dea48b6	0.1143965
214	0x3db5769b	0.08860513
215	0xbdbc3a39	-0.091907926
216	0x3c1cd41d	0.009572056
217	0xbcffb559	-0.031214403
218	0x3d9720b4	0.073792845
219	0x3ce9161d	0.028452927
220	0x3d3ea2b8	0.0465419
221	0xbd6e3d93	-0.05816419
222	0x3d1751b0	0.036943138
223	0x3d011852	0.031517334
224	0xbd995afa	-0.074880555
225	0xbdf00c13	-0.11721053
226	0xbd467df3	-0.04845996
227	0xbe04805f	-0.12939595
228	0xbe01b983	-0.12668423
229	0xbc295e7e	-0.01033747
230	0xbdfbc123	-0.12292697
231	0x3df7b05b	0.12094184
232	0xbc3d8ef4	-0.011569727
233	0xbd620123	-0.055176865
234	0x3d99deb1	0.07513178
235	0xbda2b09e	-0.07943843
236	0xbce95d9b	-0.028487017
237	0xbd5e0153	-0.05420048
238	0xbe12e0af	-0.14343522
239	0xbd1755c3	-0.036947023
240	0xbe05221b	-0.13001291
241	0xbdb9c6c5	-0.090711154
242	0x3cc99763	0.02460832
243	0x3bf3ff4d	0.0074462057
244	0x3e2ab6b9	0.16671266
245	0xbdc80622	-0.09766795
246	0xbdc0e6e0	-0.09419036
247	0x3b911784	0.004427852
248	0xbe1257d0	-0.1429131
249	0xbc9d438d	-0.01919725
250	0xbe15f852	-0.14645508
251	0x39217865	0.00015399007
252	0xbd88b8e1	-0.06675888
253	0xbd5bf9d1	-0.05370504
254	0xbdcb98d7	-0.09941261
255	0xbdc2f0a8	-0.09518558

onnx::LSTM_203 f4 [1, 512, 128]
0	0xbce6c6b6	-0.028170925
1	0xbd677f0a	-0.05651764
2	0xbdb510ce	-0.08841096
3	0x3d55a101	0.0521555
4	0x3e036e63	0.12835078
5	0xbe282e0b	-0.16423814
6	0x3e67cf15	0.2263759
7	0xbd1fe43b	-0.039036017
8	0x3b70eacb	0.0036761041
9	0xbe05126d	-0.1299531
10	0x3d2bedb4	0.04197474
11	0x3d506d02	0.050885208
12	0xbe004fe7	-0.1253048
13	0x3e139cc6	0.14415273
14	0x3e4d519f	0.20050667
15	0xbe500ad1	-0.20316626
16	0xbe04d067	-0.12970124
17	0x3d23609f	0.039887067
18	0xbe16c720	-0.14724398
19	0x3dbea9e2	0.09309746
20	0xbe06dd2d	-0.1317031
21	0x3e49b657	0.19698463
22	0x3e1ff5ab	0.15621059
23	0xbe4777e6	-0.19479331
24	0x3d099362	0.03358782
25	0xbc8f72cc	-0.017510794
26	0x3d304d27	0.04304233
27	0x3d3ec418	0.04657373
28	0x3cbf47a7	0.023349596
29	0x3e25f835	0.16207965
30	0xbcb3fc05	-0.021970758
31	0xbe227b82	-0.15867427
32	0x3d9f5cad	0.077813484
33	0x3ca4dc31	0.020124527
34	0x3d00a782	0.031409748
35	0x3cfb4583	0.030672794
36	0xbd896d63	-0.06710317
37	0x3d0d35f1	0.03447527
38	0x3c026a87	0.007959968
39	0xbdb85e6f	-0.09002387
40	0xbd28c58a	-0.041204013
41	0xbe083ae1	-0.1330371
42	0xbd9f0b61	-0.07765842
43	0x3dcaa2b9	0.09894318
44	0xbd502c5d	-0.050823558
45	0xbdc3502e	-0.095367774
46	0xbdeee482	-0.11664678
47	0x3e414293	0.18873052
48	0xbbc9b93a	-0.006156114
49	0x3e3e4210	0.18579888
50	0x3d974297	0.07385748
51	0x3d21b6a7	0.03948083
52	0x3e28d831	0.1648872
53	0xbe37496d	-0.17899103
54	0x3cbd1121	0.023079457
55	0x3df7bf4d	0.120970346
56	0xbd4481b2	-0.04797525
57	0xbd37cfaa	-0.04487578
58	0x3d92439e	0.07141803
59	0xbd581b68	-0.05276051
60	0xbdfb2ed8	-0.12264794
61	0xbd90e1b4	-0.070742995
62	0x3e07d13f	0.13263415
63	0x3e233630	0.1593864
64	0x3d1c2110	0.03811747
65	0xbdab59cf	-0.08366739
66	0x3db475c5	0.08811525
67	0xbd07fe5b	-0.033201557
68	0xbd7287ea	-0.05921165
69	0x3da6a05e	0.08136056
70	0xbcf010e2	-0.029304925
71	0x3c521d84	0.01282442
72	0xbc9c2e3b	-0.019065013
73	0xbced9c23	-0.029005116
74	0x3dae5433	0.085121535
75	0xbd956cbf	-0.07296132
76	0x3c5a9241	0.013340534
77	0x3b368b4f	0.002785403
78	0xbc728496	-0.014802119
79	0x3d45b712	0.048270293
80	0xbd838ef0	-0.064237475
81	0xbe0b381a	-0.1359562
82	0xbe15ebe2	-0.14640763
83	0x3e2b0c70	0.16703963
84	0x3d66db33	0.05636139
85	0x3c8cdf87	0.01719643
86	0xbdc60be2	-0.09670235
87	0xbd807eda	-0.06274195
88	0xbe05373f	-0.13009356
89	0x3dab186e	0.08354269
90	0xbc78638b	-0.015160452
91	0x3bcec782	0.0063104043
92	0xbdd4c504	-0.1038914
93	0x3d3a6aa7	0.045511868
94	0xbcd4991c	-0.025951914
95	0xbca3ee01	-0.02001095
96	0x3d0d05a9	0.034429226
97	0xbe411060	-0.18853903
98	0x3e03d10d	0.12872715
99	0xbdd092dd	-0.10184262
100	0x3d8dbd7b	0.06920906
101	0xbdb6488f	-0.08900558
102	0xbc89c334	-0.016816713
103	0x3d94bf65	0.07263068
104	0x3e2fb10f	0.17157386
105	0xbe072aa9	-0.13199867
106	0x3d9d556b	0.07682308
107	0x3e3103aa	0.17286554
108	0x3cc51a5b	0.024060419
109	0xbc719d3a	-0.014746958
110	0x3e03daf3	0.12876491
111	0xbd8ee2f7	-0.06976884
112	0x3da456a8	0.08024341
113	0xbbeacd7b	-0.0071656085
114	0xbd500539	-0.05078623
115	0x3d93d079	0.072174974
116	0x3b0eb33b	0.002177431
117	0x3d61bd8a	0.0551124
118	0x3cf8cf26	0.030372214
119	0xbcb4f031	-0.022087188
120	0x3bc0224c	0.0058634635
121	0x3d80f39a	0.06296463
122	0xbd0a4e66	-0.033766173
123	0x3c1e5fff	0.009666442
124	0xbd9133dd	-0.0708997
125	0x3d3bcf9b	0.045852285
126	0xbb985450	-0.0046487227
127	0xbe6fb106	-0.23407373
128	0xbd1ef04c	-0.038803384
129	0xbcf8a3a6	-0.030351471
130	0x3b779110	0.0037775673
131	0xbe04b260	-0.1295867
132	0x3c1c376e	0.0095347
133	0x3d9879bd	0.07445095
134	0x3e4cd4b9	0.20003022
135	0xbe0cfdb2	-0.13768652
136	0x3cbb508b	0.022865554
137	0xbc820659	-0.015872167
138	0xbdae812b	-0.085207306
139	0x3e0f09fb	0.13968651
140	0x3ca2567d	0.019816631
141	0x3d91a05e	0.07110666
142	0xbe37b607	-0.17940532
143	0x3ab972ba	0.0014148571
144	0xbe2e000e	-0.16992208
145	0x3dac946a	0.08426745
146	0x3d10144c	0.035175607
147	0xbb83325e	-0.004003807
148	0x39826b9d	0.0002487571
149	0x3e02d02f	0.12774728
150	0x3d6a575f	0.05721223
151	0xbd515640	-0.051107645
152	0x3cf69653	0.030100977
153	0xbdbe3650	-0.09287703
154	0xbd9f5432	-0.07779731
155	0x3d1a6591	0.037694518
156	0x3d768752	0.060187645
157	0x3e36464d	0.17800255
158	0xbce3ba75	-0.02779887
159	0x3dc7e9f5	0.09761421
160	0x3d224863	0.039619815
161	0xbdc462d2	-0.09589161
162	0xbcbd0754	-0.023074783
163	0x3e106f6a	0.14105001
164	0x3befda0a	0.0073196935
165	0x3c95e113	0.0182958
166	0x3ce42de1	0.027853908
167	0x3dc41eee	0.09576212
168	0xbddb2315	-0.10700051
169	0x3d8ced27	0.06881171
170	0x3b2c8604	0.0026324997
171	0x3c113617	0.008862994
172	0x3cef50e7	0.029213382
173	0x3d117b76	0.035518132
174	0x3dd59726	0.1042922
175	0x3c1a7fba	0.009429866
176	0x3c8ce108	0.017197147
177	0x3cd49c9c	0.025953583
178	0x3b6cbe49	0.003612416
179	0x3ce567da	0.028003622
180	0x3d9a93e7	0.075477414
181	0xbdd8c080	-0.105835915
182	0xbcfa08ad	-0.030521715
183	0x3df5aa79	0.11995406
184	0xbde2bc3a	-0.110710576
185	0x3dab1bf6	0.083549425
186	0xbbefe59c	-0.0073210727
187	0xbd9bd00e	-0.07608043
188	0xbc307e66	-0.010772323
189	0x3da83072	0.08212365
190	0x3d89eacb	0.06734236
191	0xbd35efa1	-0.04441798
192	0xbc5d14ca	-0.013493726
193	0x3d7c7e47	0.061643865
194	0x3ddc90fd	0.10769842
195	0xbb52cb22	-0.0032164534
196	0x3cadd968	0.021221831
197	0xbd999175	-0.07498447
198	0xbc948d35	-0.018133739
199	0xbe67c764	-0.22634655
200	0xbdeb8d8f	-0.115016095
201	0xbcdb1718	-0.02674441
202	0x3d6a3f2e	0.05718916
203	0x3d09acdf	0.03361213
204	0x3e72dac1	0.2371626
205	0x3dc5ccc0	0.096581936
206	0x3e3cd5d8	0.1844095
207	0xbdd38b74	-0.10329333
208	0xbd361dec	-0.04446213
209	0xbe207e5a	-0.156732
210	0x3ce626cd	0.028094674
211	0x3e36c10d	0.1784708
212	0x3de7c912	0.11317648
213	0x3de65428	0.1124652
214	0x3dd276e1	0.102765806
215	0xbda5ef07	-0.081022315
216	0xbdbc759a	-0.09202118
217	0x3de3aa9d	0.11116526
218	0x3df86ef8	0.121305406
219	0x3d912f86	0.070891425
220	0x3da9dca7	0.08294039
221	0x3dc1c175	0.09460727
222	0xbdf4ae21	-0.11947275
223	0xbdd02f2a	-0.10165246
224	0x3d21944f	0.03944808
225	0x3d1d675b	0.038428646
226	0x3e2a1c06	0.16612253
227	0xbcfe361e	-0.031031664
228	0xbd987f8a	-0.07446201
229	0x3d48ea0e	0.049051337
230	0xbdcccc6d	-0.099999286
231	0x3c4bc121	0.012436182
232	0x3dc2bc79	0.095086046
233	0xbd68ed21	-0.05686677
234	0x3c42ef8f	0.0118979355
235	0xbd11aa3c	-0.03556274
236	0xbda5da4a	-0.08098276
237	0xbc3a3160	-0.011364311
238	0x3c162ef1	0.009166465
239	0xbce38b73	-0.027776456
240	0x3d2aaa15	0.04166611
241	0xbdf34a9b	-0.11879464
242	0xbc5248d9	-0.012834751
243	0xbd97c287	-0.0741015
244	0x3da7c10c	0.08191118
245	0x3e12ffbf	0.14355372
246	0x3d6fd315	0.058550913
247	0xbdd73a0c	-0.105091184
248	0xbdcc60ed	-0.099794246
249	0xbd76baf4	-0.060236886
250	0x3d835b30	0.06413877
251	0xba197252	-0.0005853522
252	0x3d035d01	0.032071117
253	0x3db31266	0.087437436
254	0xbe065075	-0.1311663
255	0xbe1eeb84	-0.1551953

onnx::LSTM_204 f4 [1, 512, 128]
0	0xbc6c25b9	-0.014413291
1	0x3b05c88d	0.0020413727
2	0xbd3bf521	-0.04588807
3	0xbd0539cf	-0.032525834
4	0xbcc69fa1	-0.024246039
5	0xbd095fa4	-0.033538476
6	0xbd9f1ed6	-0.07769553
7	0x3dd45dfa	0.10369487
8	0xbd33b6dc	-0.04387556
9	0x3dfa1056	0.12210147
10	0x3d6f6228	0.05844322
11	0xbc26b6d9	-0.01017543
12	0x3e069d9d	0.13146062
13	0xbdd281bd	-0.10278652
14	0x3e375b3f	0.17905901
15	0xbd394003	-0.045227062
16	0xbd9becc0	-0.07613516
17	0xbd1faee5	-0.03898515
18	0xbd970722	-0.07374407
19	0x3c223d71	0.009902344
20	0xbe2ac405	-0.16676338
21	0xbdd5318b	-0.1040984
22	0xbc95b178	-0.0182731
23	0x3d5b9113	0.05360515
24	0xbdb939e5	-0.09044246
25	0x3cd96726	0.026538443
26	0x3dbb568f	0.09147369
27	0x3c0406e9	0.008058288
28	0x3d5a612b	0.053315323
29	0x3d84e7d2	0.06489529
30	0xbd962953	-0.07332101
31	0xbdf74008	-0.1207276
32	0xbe05e875	-0.13076957
33	0x3dc9e245	0.098576106
34	0xbd819c34	-0.063286215
35	0xbd8c293f	-0.068438046
36	0xbd9ca9ce	-0.07649575
37	0xbdaf5066	-0.08560257
38	0x3c748e9b	0.014926578
39	0x3d2d6d87	0.04234078
40	0x3da0ecde	0.07857679
41	0x3ca680dc	0.020325117
42	0x3bf46c1e	0.0074591776
43	0xbbf6d196	-0.007532309
44	0x3d201ef5	0.039092023
45	0x3d94433f	0.07239389
46	0xbcd2791e	-0.025692519
47	0x3d10cdb0	0.03535241
48	0x3cf37b49	0.029721873
49	0x3d64846f	0.05579036
50	0xbd11b324	-0.035571232
51	0xbcaac041	-0.020843627
52	0x3d052a24	0.03251089
53	0xbe10ff93	-0.14159994
54	0xbdf791a9	-0.12088329
55	0x3d97c2fd	0.07410238
56	0xbdaa6eb0	-0.08321893
57	0x3db94895	0.09047047
58	0x3d3a32f6	0.045458756
59	0xbe01fb08	-0.12693417
60	0xbdb25f09	-0.08709533
61	0xbcf2010f	-0.02954152
62	0xbd5d0ede	-0.053969257
63	0xbd9e1ea7	-0.0772069
64	0xbd43d41d	-0.04780971
65	0xbd913e5e	-0.07091974
66	0xbd78766e	-0.06065982
67	0x3d28dcdf	0.041226264
68	0xbde11d5b	-0.10991927
69	0x3d741c2c	0.05959718
70	0x3dc401dc	0.09570667
71	0x3d880a1b	0.066425525
72	0xbdb30869	-0.087418385
73	0x3d38760c	0.045034453
74	0x3c14fb3c	0.009093102
75	0x3bf9573c	0.007609276
76	0xbb1e8dd8	-0.0024193432
77	0xbcac429c	-0.021027856
78	0x3d692a42	0.056925066
79	0x3a812e45	0.0009855708
80	0xbc38a963	-0.011270854
81	0xbd349cbf	-0.044094797
82	0xbdb57b60	-0.088614225
83	0x3d12a346	0.03580024
84	0x3dc21a3c	0.0947766
85	0x3d0b33c6	0.033984922
86	0x3ce7f2b6	0.028313976
87	0xbd1e21f3	-0.038606595
88	0xbdad5729	-0.0846389
89	0xbc033e58	-0.008010469
90	0xba70cf3b	-0.0009186153
91	0xbd464531	-0.04840583
92	0xbdeabcc8	-0.114617884
93	0xbd90b033	-0.07064857
94	0xbd38a35e	-0.045077674
95	0xbd4488ec	-0.04798214
96	0xbd84d849	-0.064865656
97	0xbdb99b6d	-0.09062848
98	0xbd6ba37e	-0.057528965
99	0xbcc2a62b	-0.023760876
100	0xbd0b7ef1	-0.034056608
101	0x3d76d41a	0.06026087
102	0xbd2727b7	-0.04080936
103	0x3d06ff32	0.032958217
104	0x3d92da85	0.071705855
105	0x3e0c11a2	0.13678601
106	0x3bb23096	0.005437921
107	0xbda701cc	-0.081546396
108	0xbd7ae1a2	-0.061250336
109	0xbd7632ba	-0.06010697
110	0x3d73571b	0.059409242
111	0x3d8b7104	0.068086654
112	0xbd9b1433	-0.07572212
113	0x3daabbe7	0.08336621
114	0xbb8e8e33	-0.0043504476
115	0x3def3025	0.11679105
116	0xbca64c88	-0.020300165
117	0xbd1079e2	-0.035272487
118	0x3df9c8a4	0.12196472
119	0xbd4e86f8	-0.050421685
120	0xbca1866c	-0.019717418
121	0xbdd7b147	-0.1053186
122	0x3defb12e	0.11703716
123	0x3b422a94	0.002962743
124	0xbd34d3d6	-0.044147335
125	0xbd6794fe	-0.056538574
126	0xbcd56888	-0.026050821
127	0x3cd348a9	0.025791483
128	0xbe1efb7b	-0.1552562
129	0xbbd7e8d5	-0.006589035
130	0x3de28445	0.11060385
131	0xbc429d51	-0.0118783275
132	0x3d9548aa	0.0728925
133	0x3ca40b47	0.020024909
134	0xbcd1a164	-0.025589652
135	0xbd989689	-0.07450587
136	0x3e8ca2e0	0.27468014
137	0x3d494d62	0.049146064
138	0x3d508223	0.050905358
139	0x3def8fa4	0.11697319
140	0x3c04bfe4	0.008102391
141	0x3d88b27b	0.066746674
142	0xbda7741c	-0.08176443
143	0xbdb5b72b	-0.08872827
144	0xbd7556d6	-0.059897266
145	0xbe0fdbde	-0.14048716
146	0xbbf53609	-0.007483248
147	0xbe3b0392	-0.1826308
148	0xbd9efacc	-0.077626795
149	0x3d9030b9	0.07040543
150	0xbd3154a6	-0.043293618
151	0xbde3bacb	-0.11119612
152	0x3de38ca6	0.11110811
153	0xbd8df9ec	-0.069324344
154	0xbd6eb19d	-0.058274854
155	0xbd954469	-0.07288439
156	0xbd9099af	-0.07060563
157	0x3c6e2f93	0.01453771
158	0x3d864410	0.06555951
159	0xbd24cc7a	-0.040234067
160	0x3d7ae6de	0.06125533
161	0xbd1be35d	-0.038058627
162	0x3b865427	0.004099387
163	0x3e044a0d	0.12918873
164	0xbd40dd5b	-0.0470861
165	0xbd290999	-0.04126892
166	0x3c8bfbf1	0.017087908
167	0xbe6e44d2	-0.2326844
168	0x3d61839e	0.05505716
169	0xbd4e48f1	-0.05036253
170	0x3d9ca65c	0.07648918
171	0x3e0f9e14	0.14025146
172	0x3b7a63b2	0.0038206396
173	0x3d6f2ee6	0.058394335
174	0xbccda7ac	-0.025104366
175	0x3d49b78e	0.049247317
176	0x3dac3657	0.08408802
177	0xbd612952	-0.054971047
178	0x3dc7e519	0.09760494
179	0xbd30a7dd	-0.043128837
180	0x3dcd8716	0.10035531
181	0xbd5df818	-0.05419168
182	0x3d6bf791	0.057609145
183	0x3d7123e8	0.058872133
184	0x3aa2f7a5	0.0012433423
185	0xbd4488e2	-0.047982104
186	0xbd841401	-0.06449128
187	0xbd7c0202	-0.061525352
188	0xbe1c45c6	-0.15260991
189	0x3dafb836	0.08580057
190	0x3cb41a17	0.021985097
191	0xbc3d0774	-0.0115374215
192	0x3d7532b8	0.059862822
193	0x3dc2b65a	0.09507437
194	0xbd2c1dc4	-0.042020574
195	0x3d87e070	0.06634605
196	0x3d916ea9	0.07101185
197	0x3d7f9b19	0.062403772
198	0xbda64773	-0.081190966
199	0x3d9494f7	0.07254975
200	0x3d4c4417	0.049869623
201	0xbc8d7582	-0.017267946
202	0xbe00539d	-0.12531896
203	0xbd5bf74e	-0.053702645
204	0x3e122d47	0.14275084
205	0xbd021dc6	-0.031766675
206	0x3d91c158	0.071169555
207	0x3d66b4de	0.056324832
208	0x3c9792e1	0.018502655
209	0x3e86f380	0.2635765
210	0x3d60d077	0.054886308
211	0xbd31f2f3	-0.043444585
212	0xbdae5a2b	-0.08513292
213	0xbd1b7f6c	-0.037963316
214	0x3d81fe31	0.06347311
215	0xbe2d7b72	-0.16941622
216	0xbd0ecc79	-0.03486297
217	0xbc2d6efe	-0.010585545
218	0x3d2b8953	0.04187901
219	0xbc05c506	-0.00816465
220	0x3cfe3d6f	0.031035153
221	0x3ccf4fda	0.02530663
222	0x3dcc6986	0.099810645
223	0xbdfa2388	-0.12213808
224	0x3c041408	0.008061416
225	0x3cb6f47f	0.022333382
226	0xbd881488	-0.06644541
227	0x3db39f8e	0.08770667
228	0x3aed92e2	0.001812544
229	0xbd61c619	-0.05512056
230	0xbda7317f	-0.081637375
231	0x3b9265c2	0.004467697
232	0x3dd07919	0.101793475
233	0xbd974d31	-0.0738777
234	0xbd1f2cd4	-0.03886111
235	0x3cdafa5d	0.02673071
236	0x3d4a8c58	0.04945025
237	0xbe301727	-0.17196332
238	0xbc9d74f4	-0.019220807
239	0x3c50e47d	0.012749788
240	0xbd7bfb4e	-0.06151896
241	0xbe265796	-0.16244349
242	0x3d9b3730	0.075788856
243	0x3dfce149	0.12347657
244	0xbd881dd4	-0.06646314
245	0x3dcc794f	0.09984075
246	0xbd4353c5	-0.04768731
247	0x3d2b4e6b	0.041822832
248	0xbd15f804	-0.03661348
249	0x3d054026	0.03253188
250	0xbdd2839e	-0.1027901
251	0x3c90aedc	0.017661504
252	0x3997981c	0.00028914295
253	0xbd03af01	-0.03214932
254	0xbca077d9	-0.019588398
255	0x3dabf45d	0.08396218

onnx::LSTM_205 f4 [1, 1024]
0	0xbdbe087a	-0.092789605
1	0x3d7baf5a	0.061446525
2	0x3d6cfb4d	0.057856847
3	0x3c9ac7af	0.018894045
4	0xbba7f0e6	-0.005125153
5	0x3e468e3b	0.19390194
6	0xbd5620e7	-0.052277472
7	0xbdc5d7ad	-0.096602775
8	0xbd8adb71	-0.067801364
9	0x3e0d58da	0.13803425
10	0x3db1ddac	0.08684859
11	0xbd8943f5	-0.06702415
12	0xbdc2e4a8	-0.09516269
13	0x3d9181c9	0.07104833
14	0x3d632714	0.05545719
15	0x3cdbaa4f	0.026814608
16	0xbd3bc022	-0.04583753
17	0xbd872463	-0.06598737
18	0x3d97a3ae	0.07404266
19	0x3d8ff656	0.07029407
20	0xbdaee549	-0.085398264
21	0xbd37cfde	-0.044875972
22	0xbd018453	-0.031620335
23	0xbcc4c375	-0.024018982
24	0x3b6bf413	0.0036003634
25	0xbe03f35e	-0.12885806
26	0xbcad4977	-0.021153195
27	0x3d342f5d	0.04399048
28	0xbdd462ca	-0.10370405
29	0xbd06fa0e	-0.032953314
30	0x3d8b9c85	0.06816963
31	0x3d9d297b	0.076739274
32	0xbc06357f	-0.008191465
33	0xbd850dac	-0.06496748
34	0xbd22f231	-0.039781753
35	0x3be5abc6	0.0070090024
36	0x3caa6d99	0.020804213
37	0xbbbce38b	-0.00576443
38	0xbcad4aaa	-0.021153767
39	0xbc9cba9d	-0.019131953
40	0xbcdf1b3c	-0.027234666
41	0xbd681ca2	-0.05666793
42	0xbb8ab15d	-0.004232569
43	0xbd6ce3d1	-0.05783445
44	0x3d3491cf	0.044084366
45	0x3d767491	0.06016976
46	0x3d85e7b8	0.065383375
47	0x3d5f479f	0.054511663
48	0x3cfaa7f7	0.03059767
49	0x3d7d77ee	0.061881952
50	0x3d50c248	0.05096653
51	0x3dd94ea7	0.10610705
52	0xbdb5ff48	-0.08886582
53	0x3d832228	0.06402999
54	0x3d8a0581	0.06739331
55	0x3d701f46	0.058623575
56	0x3d1ef37b	0.03880642
57	0xbcd61243	-0.026131755
58	0x3cc8650b	0.024462244
59	0x3e12e1bb	0.14343922
60	0xbb8b7e5b	-0.004257006
61	0xbc9def1f	-0.01927906
62	0xbd4ab5df	-0.049489852
63	0xbd745de9	-0.059659872
64	0xbcc35bc4	-0.023847468
65	0xbd2fed4a	-0.042950906
66	0x3dc38bd8	0.095481575
67	0xbce24ca0	-0.027624428
68	0x3db712b6	0.08939116
69	0xbd36e8a2	-0.04465545
70	0x3d063f84	0.032775417
71	0x3d1007bc	0.035163626
72	0xbcd6a8cc	-0.026203535
73	0xbc1c459a	-0.009538079
74	0x3c67652e	0.014123244
75	0x3c202a39	0.009775692
76	0xbd409a80	-0.047022343
77	0xbd758c48	-0.059948236
78	0xbd1450ea	-0.03620998
79	0xbc574a87	-0.013140327
80	0xbd6ece16	-0.058302008
81	0xbd8f8e65	-0.070095815
82	0x3d89f766	0.06736641
83	0x3d2de1e4	0.042451754
84	0x3c10349a	0.008801604
85	0x3c929273	0.017892098
86	0xbb8aa960	-0.004231617
87	0x3be3ca0f	0.0069515775
88	0x3c903a08	0.017605796
89	0x3cd99a5b	0.02656286
90	0xbd27da34	-0.04097958
91	0xbbb8a20f	-0.0056345533
92	0x3dd28f85	0.102812804
93	0x3d784710	0.060614645
94	0xbdb598ca	-0.08867033
95	0xbb503fe9	-0.0031776375
96	0x3c37381c	0.011182811
97	0xbdb710ad	-0.089387275
98	0x3d23c27e	0.039980404
99	0xbd382995	-0.04496153
100	0x3db40d6d	0.08791623
101	0x3d8c14ea	0.068399265
102	0x399d0ae8	0.000299535
103	0x3d2019db	0.039087158
104	0x3d028a12	0.031869955
105	0xbda718f5	-0.08159057
106	0x3d41db0d	0.047328044
107	0x3dab39f7	0.08360665
108	0x3cde0c40	0.02710545
109	0xbc04697c	-0.00808179
110	0xbc066d8f	-0.008204832
111	0x3c2a1885	0.0103818225
112	0xbd6e8a4a	-0.05823735
113	0xbdeb7ee7	-0.11498814
114	0xbd835714	-0.06413093
115	0x3d6fb077	0.0585179
116	0xbd14a8af	-0.03629368
117	0xbdf3193e	-0.11870049
118	0x3d90ae09	0.070644446
119	0x3daa1352	0.08304466
120	0xbd307cc0	-0.04308772
121	0x3d31c01a	0.043396093
122	0xbddb4943	-0.10707333
123	0xbd370b14	-0.0446883
124	0xbbe6abe6	-0.007039535
125	0x3d4dfa55	0.050287563
126	0xbd18180f	-0.03713232
127	0x3d8bdb61	0.068289526
128	0xbe1c85f2	-0.15285471
129	0x3dab7788	0.08372408
130	0x3cf995af	0.030466883
131	0xbdc51398	-0.09622878
132	0x3d375957	0.044762935
133	0x3bbe04a4	0.005798893
134	0x3d11adc7	0.035566118
135	0xbcad9535	-0.021189312
136	0xbd51bea4	-0.0512072
137	0x3e11c37f	0.14234732
138	0x3decafc2	0.11556961
139	0x3d591ebf	0.053007837
140	0x3de94fd1	0.11392177
141	0x3d99ca30	0.07509267
142	0xba158f9f	-0.00057053
143	0x3dc0d1c5	0.0941501
144	0xbd655ee8	-0.055998713
145	0x3d6a6f08	0.057234794
146	0xbca01bbf	-0.01954448
147	0xbd71e422	-0.059055455
148	0x3db22cc1	0.086999424
149	0x3dcf52a8	0.10123187
150	0xbd1652df	-0.036700126
151	0xbd4ac8bc	-0.04950784
152	0x3de8c2ce	0.11365281
153	0xbd2931b9	-0.041307185
154	0x3d8a8d47	0.06765228
155	0x3ded9541	0.116007335
156	0x3d31d121	0.04341233
157	0xbd1a9920	-0.037743688
158	0xbcdf5bef	-0.027265517
159	0x3daa670a	0.083204344
160	0xbdc1bffe	-0.09460448
161	0xbd222820	-0.039589047
162	0xbd79a54a	-0.060948648
163	0x3dab116b	0.083529316
164	0x3da1941f	0.0788958
165	0x3d968d6a	0.07351191
166	0xbd62d8cc	-0.055382535
167	0x3cb9d86e	0.02268621
168	0x3d24f2c1	0.04027057
169	0xbd9b502d	-0.07583652
170	0xbc949ca3	-0.018141096
171	0x3d811128	0.063021004
172	0x3beedbcc	0.0072893854
173	0xbc008d8e	-0.007846249
174	0x3ad44eaa	0.001619776
175	0x3d279ff7	0.04092404
176	0x3db37ef4	0.08764449
177	0x3e01a4ca	0.12660518
178	0xbca1901b	-0.019722035
179	0xbd6b61ac	-0.057466194
180	0xbde3fc92	-0.11132158
181	0x3e04cccb	0.12968747
182	0x3d779bad	0.0604512
183	0xbde2c86a	-0.11073382
184	0xbc9d3d83	-0.01919437
185	0x3e576fc4	0.21038729
186	0xbdad15dd	-0.08451436
187	0x3de00c2b	0.10939821
188	0x3dbec9bd	0.09315822
189	0xbd87140a	-0.06595619
190	0xbd49940f	-0.049213465
191	0xbd8223d7	-0.06354492
192	0xbc31201d	-0.010810879
193	0x3dc05a83	0.09392264
194	0x3d384298	0.044985384
195	0xbc3ba1f1	-0.011452184
196	0x3cb52cd7	0.022116108
197	0xbd7e98f4	-0.062157586
198	0xbd9e134d	-0.07718525
199	0xbd022a72	-0.03177876
200	0xbcc376e4	-0.023860402
201	0xbc62d270	-0.0138441175
202	0xbd049aa5	-0.032374043
203	0xbd536c39	-0.05161688
204	0x3c847ca6	0.016172718
205	0xbb96129b	-0.0045798547
206	0xbd994e21	-0.07485605
207	0xbe042076	-0.12903008
208	0x3c4525d8	0.012032948
209	0x3dab7554	0.08371988
210	0xbc9a930f	-0.018868951
211	0xbda73b46	-0.081656024
212	0x3cd79114	0.026314296
213	0x3d518ae1	0.051157836
214	0x3d39ff79	0.045409653
215	0xbc5dd2c7	-0.013539023
216	0xbd421756	-0.047385536
217	0x3d199f30	0.03750533
218	0x3dedb7ba	0.11607309
219	0x3cc7cacb	0.024388691
220	0x3dad8157	0.08471935
221	0x3d8d00df	0.06884932
222	0xbdbd6ebc	-0.092496365
223	0xba8af908	-0.0010602782
224	0xbe07b253	-0.13251619
225	0xb91f5ead	-0.00015198691
226	0xbda2930b	-0.079382025
227	0xbd85a21f	-0.06525063
228	0x3d0f43f4	0.034976915
229	0x3da0a6fc	0.0784435
230	0x3d240d24	0.040051594
231	0xbcf1e6d4	-0.029529013
232	0x3d224f19	0.039626215
233	0xbd8183d3	-0.063239716
234	0x3d9596a5	0.07304124
235	0xbbe6d5b3	-0.007044518
236	0x3da872bc	0.08225009
237	0x3c37faec	0.011229258
238	0x3d2e88ad	0.042610813
239	0x37e704e0	2.7539616e-05
240	0xbabc138a	-0.0014349085
241	0xbdaf4a3f	-0.08559083
242	0x3dc7313e	0.09726189
243	0xbd339ce5	-0.0438508
244	0x3c5f9d7c	0.013648387
245	0x3ccb2977	0.024800045
246	0x3d44b41f	0.04802334
247	0xbb69cdc2	-0.003567562
248	0x3dc00e77	0.09377759
249	0xbd60c250	-0.05487281
250	0xbd4a3882	-0.049370296
251	0xbddbbd77	-0.10729497
252	0x3d9cdd16	0.07659356
253	0xbd056f82	-0.032577045
254	0xbcc44744	-0.023959763
255	0x3d96fc6f	0.07372367
