model_q.onnx (onnx, 216683 bytes, 8 tensors)

fc.bias f4 [2]
-0.044115514 0.0012796066
00000000: 78b2 34bd 79b8 a73a

onnx::LSTM_185 f4 [1, 1024]
0.025705298 -0.13378452 -0.018137237 -0.05557198 0.047606565 0.044208214 0.09233801 -0.060509697
-0.036241524 0.03381152 0.01703042 -0.041210826 -0.029046617 -0.053735223 -0.04088916 0.049123354
-0.0016525411 -0.07971846 0.043493655 -0.026836239 0.116439305 0.112035654 0.024970159 -0.057868633
-0.0027690611 0.06545747 -0.05578245 -0.021601217 -0.05041239 0.13395086 -0.0147801135 -0.07217295
0.01852327 0.06426396 0.013610451 -0.05370272 -0.06752454 0.124262124 -0.035897583 -0.036308303
-0.044804025 0.01490675 -0.06750263 0.061633408 -0.038791306 -0.051657878 -0.046858862 -0.07548117
-0.01691177 -0.052522153 -0.0030117703 0.01698326 -0.06503566 -0.057453394 -0.08859194 0.034966763
0.08124539 0.06774078 0.009131421 0.009683392 0.10488837 -0.008211395 -0.014971966 0.076847695
-0.050198823 0.0029737696 0.039633982 0.03386001 0.01984899 0.0023620785 0.022566145 0.016816508
-0.018281057 0.005877157 -0.07246322 0.0009181097 0.01942883 -0.069828756 0.087683864 0.0743454
-0.008902832 0.025337463 0.10965788 0.040134933 -0.10095326 0.055898424 -0.08260566 -0.029215932
-0.04564269 -0.02781428 0.08710159 0.057383418 0.01662934 -0.10553793 0.025261547 0.015686207
-0.038673434 0.038776528 -0.024434349 0.014381709 0.010725989 0.11434062 -0.055169523 -0.0006015709
-0.05767879 -0.076704524 -0.06859841 -0.08459472 -0.062448762 -0.034878124 0.060587943 0.051291175
0.035318017 -0.011367638 -0.0017095085 0.048072364 0.0704587 -0.06748366 -0.08982131 0.06087232
-0.01960403 -0.076061875 0.034070905 0.0839807 -0.0064616934 0.07878772 -0.081336506 -0.039286565
-0.06347138 -0.10058413 -0.057228282 0.0020063326 0.018894872 -0.00312718 -0.006722732 0.08298728
0.05221099 0.06681176 -0.0067011626 0.01791326 0.014541376 -0.021945136 -0.046793513 -0.0007962139
-0.020245148 0.07258827 -0.056890566 -0.09969335 0.04758246 0.04326009 0.034671884 -0.008276584
0.13656011 0.0019383196 0.051194318 0.06756697 -0.07703789 -0.005515711 0.043569088 -0.043055702
-0.078100614 0.0016877905 -0.04052639 0.046024285 -0.03862484 0.17112662 0.009270023 -0.028600752
0.025694327 -0.087734714 0.05227987 0.12896033 -0.00541015 -0.020001398 -0.07493901 0.028203811
-0.060863633 0.033348337 -0.072747156 -0.00509444 0.005447867 -0.034702286 -0.08810404 -0.10086889
-0.09049806 -0.050160885 0.0056903674 0.024027348 0.12199363 0.0036883976 0.032655306 0.017891213
-0.05348266 -0.028282361 0.068786494 -0.09968442 0.050983746 -0.046643827 -0.10012529 -0.0119682485
0.05765062 -0.0039940947 0.029334607 0.005164921 0.0083946735 0.05838166 -0.027577013 -0.07342352
0.108510256 0.12408515 0.067436 0.019744104 0.02274849 -0.014372437 0.009656844 -0.04765977
0.0072562853 -0.06290286 -0.073094964 0.007411318 0.075312 -0.051960066 0.06553955 -0.037835818
-0.0150476 0.07365103 0.10801207 -0.078459814 -0.0124348 -0.05192197 -0.08349298 0.0014116368
0.10283957 0.08902527 -0.04904344 -0.082623705 0.01787423 -0.039034687 0.03802839 -0.03815016
-0.021106154 0.045374837 -0.0017548073 0.069820926 -0.029990206 0.07575935 0.031484406 0.022355856
0.013163026 0.0250207 -0.07048607 0.09403154 -0.08691221 0.025329022 0.08929506 -0.012174797
00000000: eb93 d23c cffe 08be 8b94 94bc 729f 63bd
00000010: 1aff 423d ac13 353d b61b bd3d 04d9 77bd
00000020: fe71 14bd f37d 0a3d 6183 8b3c afcc 28bd
00000030: 2cf3 edbc 7719 5cbd 647b 27bd 9235 493d
00000040: 149a d8ba 6f43 a3bd 6726 323d acd7 dbbc
00000050: bb77 ee3d f372 e53d 388e cc3c a907 6dbd
00000060: 2379 35bb 910e 863d 237c 64bd 09f5 b0bc
00000070: 397d 4ebd 6a2a 093e 4a28 72bc 69cf 93bd
00000080: 1dbe 973c d39c 833d 5efe 5e3c 62f7 5bbd
00000090: 4e4a 8abd 247d fe3d 5809 13bd 04b8 14bd
000000a0: 6d84 37bd 713b 743c d23e 8abd 5073 7c3d
000000b0: a2e3 1ebd 3697 53bd 14ef 3fbd df95 9abd
000000c0: 8d8a 8abc 7821 57bd 1f61 45bb 7a20 8b3c
000000d0: 6b31 85bd 4054 6bbd b16f b5bd 4f39 0f3d
000000e0: fc63 a63d aebb 8a3d f59b 153c 17a7 1e3c
000000f0: b7cf d63d 1689 06bc fa4c 75bc 5362 9d3d
00000100: 489d 4dbd 93e3 423b 3e57 223d cbb0 0a3d
00000110: 599a a23c 1acd 1a3b a3dc b83c c6c2 893c
00000120: 28c2 95bc 2b95 c03b 9967 94bd 4dad 703a
00000130: 3629 9f3c 6102 8fbd 9993 b33d 6742 983d
00000140: 2fdd 11bc 8390 cf3c 5094 e03d 8764 243d
00000150: 95c0 cebd bff5 643d 282d a9bd 4056 efbc
00000160: d4f3 3abd c6da e3bc 5262 b23d e00a 6b3d
00000170: 413a 883c 4524 d8bd 4ef1 ce3c 5c80 803c
00000180: 0968 1ebd 23d4 1e3d 8b2a c8bc 42a1 6b3c
00000190: 0fbc 2f3c 6a2b ea3d 70f9 61bd bdb2 1dba
000001a0: 9840 6cbd 4317 9dbd 537d 8cbd ff3f adbd
000001b0: 46ca 7fbd 5ddc 0ebd 102b 783d b216 523d
000001c0: a0a9 103d 543f 3abc 9611 e0ba 87e7 443d
000001d0: a74c 903d e034 8abd 3cf4 b7bd 4155 793d
000001e0: a198 a0bc 54c6 9bbd ef8d 0b3d 13fe ab3d
000001f0: 9dbc d3bb 755b a13d c193 a6bd f3ea 20bd
00000200: 48fd 81bd 0dff cdbd 3468 6abd ad7c 033b
00000210: 6bc9 9a3c 60f1 4cbb 5d4a dcbb 3cf5 a93d
00000220: 31db 553d 9bd4 883d 6d95 dbbb d4be 923c
00000230: f43e 6e3c 49c6 b3bc 8eaa 3fbd 03b9 50ba
00000240: 27d9 a5bc 29a9 943d 1506 69bd 072c ccbd
00000250: d3e5 423d 7e31 313d 1b04 0e3d 829a 07bc
00000260: 6ad6 0b3e 370f fe3a 22b1 513d 8d60 8a3d
00000270: 0bc6 9dbd 23bd b4bb 8075 323d 2d5b 30bd
00000280: 37f3 9fbd da38 dd3a 00ff 25bd f683 3c3d
00000290: 1535 1ebd d13b 2f3e 4be1 173c 204c eabc
000002a0: e97c d23c 42ae b3bd 6b23 563d 2d0e 043e
000002b0: a147 b1bb f9d9 a3bc a079 99bd ae0b e73c
000002c0: 254c 79bd 4498 083d 76fc 94bd 43ef a6bb
000002d0: 0584 b23b fc23 0ebd e46f b4bd 5994 cebd
000002e0: 0c57 b9bd 8075 4dbd 4376 ba3b 00d5 c43c
000002f0: ccd7 f93d 0bb9 713b 92c1 053d 9890 923c
00000300: a210 5bbd 69b0 e7bc efdf 8c3d 5827 ccbd
00000310: 55d4 503d 990d 3fbd 7d0e cdbd 7916 44bc
00000320: 0e23 6c3d e5e0 82bb 214f f03c 7f3e a93b
00000330: d089 093c 9c21 6f3d 30e9 e1bc 125f 96bd
00000340: a03a de3d 5b20 fe3d e31b 8a3d 63be a13c
00000350: 0b5b ba3c 5f7a 6bbc bd37 1e3c e436 43bd
00000360: 22c6 ed3b 37d3 80bd d0b2 95bd a4da f23b
00000370: 2e3d 9a3d 14d4 54bd 9939 863d bbf9 1abd
00000380: 358a 76bc 5ad6 963d 6f35 dd3d 8aaf a0bd
00000390: 55bb 4bbc 22ac 54bd 5efe aabd ac06 b93a
000003a0: 8d9d d23d e152 b63d c6e1 48bd 9e36 a9bd
000003b0: fa6c 923c d6e2 1fbd a8c3 1b3d 5843 1cbd
000003c0: d0e6 acbc f7da 393d 9001 e6ba 46fe 8e3d
000003d0: 05ae f5bc b827 9b3d cbf5 003d a123 b73c
000003e0: bca9 573c 36f8 cc3c 005b 90bd 9c93 c03d
000003f0: 07ff b1bd cf7e cf3c 54e0 b63d cd78 47bc

onnx::LSTM_205 f4 [1, 1024]
-0.053580288 -0.07584739 -0.04228606 -0.118042156 -0.04812431 0.014987727 -0.023971025 -0.0668343
-0.04749857 -0.09566934 0.022275029 -0.025982918 -0.11125429 -0.0981546 0.08353831 -0.07662101
-0.036657576 0.07029916 -0.08173847 0.06349474 -0.06485767 -0.1383679 0.07488656 -0.070546776
-0.029256145 -0.0396301 0.07234295 0.0422011 -0.11917935 -0.030468648 0.007123262 0.050912153
-0.0023736586 -0.038033776 -0.029605648 0.02462575 -0.05910283 -0.099446625 -0.009190682 -0.0736217
-0.04203553 0.05891332 -0.06898032 0.025232667 0.03562979 0.007301885 0.02560001 -0.051559165
-0.04665693 0.0032946502 -0.0860468 -0.07899241 -0.027738279 0.06804636 -0.014344261 -0.020657973
-0.064771205 -0.07655352 0.06188382 -0.0574527 -0.023427108 0.039054375 0.026151957 -0.11445459
0.0015944515 0.04454691 0.020636369 -0.00079179707 -0.06971859 -0.094171524 -0.010053303 -0.08218203
-0.10388735 -0.069571234 -0.0011005498 -0.032799482 0.028718911 0.06916398 0.027815307 0.026418056
-0.036325596 0.035510544 0.08493217 -0.064459614 0.030078607 0.06406132 -0.05338021 -0.005608943
-0.03221328 0.076426424 -0.029155416 0.07213032 -0.0655469 -0.13959491 -0.09784496 -0.085403144
-0.091562234 -0.062079784 0.07346437 -0.013938099 -0.102273196 -0.0022596694 -0.001125225 -0.017463155
-0.047063865 -0.035905816 0.10055912 -0.0116201015 -0.123541065 -0.024677828 -0.022537377 -0.08104669
-0.101228975 -0.08182941 -0.08559468 -0.064879686 0.011427445 0.0426555 0.021515992 -0.039803635
-0.032455698 -0.055706102 -0.06041633 0.014797029 -0.009311606 -0.07171438 0.06843428 0.058232434
-0.023312997 -0.046806403 -0.10480541 -0.09282928 0.0023423512 0.052729942 -0.0039733015 -0.014939204
0.010792038 0.04950693 -0.041559726 -0.02684747 0.029979648 -0.051352035 -0.07853966 0.06705452
0.021194836 -0.081042625 -0.039398365 0.013880404 0.053652056 -0.12451921 0.04701867 0.026128655
-0.068262115 -0.114232376 -0.028262772 -0.020438408 0.028869687 0.014161756 0.0539547 0.053693645
0.024118189 -0.105465256 -0.006670837 -0.022117915 -0.03721403 0.034477282 -0.06826237 -0.05113789
-0.056429878 0.03388928 -0.039678857 0.018319143 -0.109767385 -0.031741202 -0.0027948928 -0.031905644
-0.014622818 -0.006735455 0.013804886 -0.11132673 -0.03645701 0.048710708 0.045773327 0.025397263
0.019286202 0.041256834 -0.043318585 -0.022839291 -0.012397243 0.037804488 -0.06249807 0.011208696
-0.013245239 -0.015100443 -0.009869296 0.04289343 0.024763353 -0.039048843 0.13443117 0.0019189459
0.049631413 -0.099310964 0.16176066 0.03728646 -0.0571388 -0.05541339 0.089067675 0.028706875
0.11072593 -0.05277836 0.059161153 -0.08351715 0.0017750402 0.0051836753 -0.019317662 -0.031991217
-0.023014056 0.0901729 -0.03520428 0.05227878 -0.03353622 -0.07694653 0.0062308833 0.040871296
0.023982638 -0.043845262 0.020005096 -0.03496552 -0.09274927 -0.081309214 -0.014008621 0.03613537
0.06118174 0.07408938 0.0015928367 0.011539071 -0.118049264 -0.03711711 -0.0055439617 -0.031373516
-0.06998032 -0.0587 0.009485311 0.042098425 0.05228243 0.15595528 0.06165646 0.064764716
-0.10998068 -0.022810953 0.007750595 -0.0963893 -0.021634683 0.054749455 -0.007766012 -0.024823645
00000000: 0177 5bbd e055 9bbd 2634 2dbd 16c0 f1bd
00000010: ff1d 45bd 158f 753c e25e c4bc 6ce0 88bd
00000020: dc8d 42bd 49ee c3bd 1f7a b63c 21da d4bc
00000030: 4ad9 e3bd 4705 c9bd 2216 ab3d 7aeb 9cbd
00000040: 4126 16bd 02f9 8f3d 8066 a7bd 8809 823d
00000050: 19d4 84bd 51b0 0dbe 205e 993d d47a 90bd
00000060: 95aa efbc 2c53 22bd 8a28 943d 10db 2c3d
00000070: 4e14 f4bd 6399 f9bc 416a e93b 4389 503d
00000080: 628f 1bbb 4ec9 1bbd 8b87 f2bc f1bb c93c
00000090: cf15 72bd acaa cbbd 8494 16bc f9c6 96bd
000000a0: 732d 2cbd 184f 713d 8e45 8dbd bdb4 ce3c
000000b0: 8bf0 113d a744 ef3b 1db7 d13c b42f 53bd
000000c0: 561b 3fbd 0feb 573b 4e39 b0bd c6c6 a1bd
000000d0: 633b e3bc e45b 8b3d 3104 6bbc e93a a9bc
000000e0: c4a6 84bd 18c8 9cbd e379 7d3d 8653 6bbd
000000f0: 35ea bfbc 7bf7 1f3d a13c d63c 2b67 eabd
00000100: eafc d03a d276 363d 9a0d a93c 9a90 4fba
00000110: 9fc8 8ebd 00dd c0bd 9cb6 24bc 0d4f a8bd
00000120: e4c2 d4bd 5d7b 8ebd 5340 90ba c058 06bd
00000130: ec43 eb3c d8a5 8d3d eddc e33c ae6a d83c
00000140: 26ca 14bd 8173 113d ebf0 ad3d 6703 84bd
00000150: 6967 f63c 9532 833d 35a5 5abd 39cb b7bb
00000160: 13f2 03bd 7585 9c3d 57d7 eebc 10b9 933d
00000170: 743d 86bd f8f1 0ebe f062 c8bd d8e7 aebd
00000180: fb84 bbbd 5f47 7ebd 7d74 963d a05c 64bc
00000190: 9c74 d1bd f616 14bb 497c 93ba e40e 8fbc
000001a0: 0ac6 40bd fa11 13bd f1f1 cd3d 3d62 3ebc
000001b0: 1903 fdbd 2829 cabc 4ea0 b8bc cffb a5bd
000001c0: 2351 cfbd 2d96 a7bd 434c afbd a4df 84bd
000001d0: 2e3a 3b3c 89b7 2e3d 4e42 b03c 2309 23bd
000001e0: 44f0 04bd 152c 64bd 1d77 77bd 3d6f 723c
000001f0: b58f 18bc fdde 92bd 4627 8c3d 2285 6e3d
00000200: e6fa bebc 12b8 3fbd 38a4 d6bd 471d bebd
00000210: 2282 193b 5afb 573d 7832 82bb 90c3 74bc
00000220: 17d1 303c c7c7 4a3d 883a 2abd 3aef dbbc
00000230: e197 f53c 8356 52bd 67d9 a0bd e153 893d
00000240: cba0 ad3c adf9 a5bd 2e60 21bd a26a 633c
00000250: 42c2 5b3d ed03 ffbd a696 403d c30b d63c
00000260: 02cd 8bbd aaf2 e9bd 5487 e7bc 736e a7bc
00000270: 1f80 ec3c b606 683c 9aff 5c3d deed 5b3d
00000280: 8293 c53c 2bfe d7bd 0997 dabb a130 b5bc
00000290: bd6d 18bd 0d38 0d3d 24cd 8bbd f775 51bd
000002a0: 0423 67bd 7ccf 0a3d 4c86 22bd 0712 963c
000002b0: b9cd e0bd 1003 02bd 852a 37bb 7eaf 02bd
000002c0: 8b94 6fbc 17b5 dcbb e32d 623c 45ff e3bd
000002d0: f253 15bd e184 473d d07c 3b3d ec0d d03c
000002e0: 19fe 9d3c edfc 283d d46e 31bd 7719 bbbc
000002f0: ce1d 4bbc e1d8 1a3d fafd 7fbd aea4 373c
00000300: 8f02 59bc d967 77bc d4b2 21bc 05b1 2f3d
00000310: 84dc ca3c aef1 1fbd 53a8 093e 2485 fb3a
00000320: 4f4a 4b3d 8c63 cbbd 96a4 253e b0b9 183d
00000330: 600a 6abd 27f9 62bd 1d69 b63d ae2a eb3c
00000340: 47c4 e23d 1f2e 58bd f752 723d 0a0b abbd
00000350: 77a8 e83a d2db a93b 1340 9ebc 3909 03bd
00000360: f987 bcbc 92ac b83d 5d32 10bd 4622 563d
00000370: 475d 09bd 2496 9dbd 702c cc3b a968 273d
00000380: 3d77 c43c 1797 33bd bae1 a33c 0138 0fbd
00000390: 54f3 bdbd 7285 a6bd 6a84 65bc af02 143d
000003a0: b499 7a3d 2cbc 973d bbc6 d03a 5f0e 3d3c
000003b0: d0c3 f1bd 1c08 18bd 1faa b5bb 8481 00bd
000003c0: d851 8fbd 696f 70bd 4768 1b3c 666f 2c3d
000003d0: 1a26 563d beb2 1f3e 7c8b 7c3d 5da3 843d
000003e0: 8d3d e1bd 09de babc b4f8 fd3b c167 c5bd
000003f0: 383b b1bc f740 603d 087a febb f55a cbbc

onnx::LSTM_183_quantized i1 [1, 9, 512]
7 -64 -23 26 0 -12 -32 -9
-40 -60 5 34 15 12 -13 -28
6 -18 3 34 43 16 17 108
-58 16 -6 2 -23 -14 22 -45
-11 -25 20 -75 27 -57 24 -52
43 10 -47 -78 14 52 -12 22
-83 -22 8 34 -58 -31 -12 2
29 -44 -4 17 75 -13 16 -14
40 -7 4 -46 -2 -34 -11 24
6 -5 36 -28 -68 15 -12 19
2 -58 -75 -36 -29 -5 10 -27
-8 -45 17 18 -12 4 -9 -28
73 20 -28 17 9 -7 -13 -67
-34 16 25 -69 -27 13 12 9
35 2 -2 -18 21 2 7 18
-12 55 28 -52 -17 -37 -40 -53
-20 -20 -34 23 -2 -51 -64 -54
-28 -49 21 -25 36 22 5 -53
3 -41 9 61 47 -15 12 17
-26 25 -2 10 8 -60 60 -67
-8 26 33 -52 11 -11 9 -40
42 44 -52 -59 7 23 -40 -2
-69 -30 34 42 -34 -15 -22 12
22 -38 0 16 50 13 49 -36
33 8 37 -39 -43 -40 60 1
-14 -3 31 -3 -72 31 -36 41
26 -40 -30 -55 -25 -36 -32 -68
-10 -53 26 -6 -2 -4 44 -28
45 -44 -3 39 -11 2 -12 -77
-8 15 32 -63 1 -28 40 3
12 -9 -14 -10 -3 -67 26 -1
-5 30 14 -44 -29 -7 -19 -10
00000000: 07c0 e91a 00f4 e0f7 d8c4 0522 0f0c f3e4
00000010: 06ee 0322 2b10 116c c610 fa02 e9f2 16d3
00000020: f5e7 14b5 1bc7 18cc 2b0a d1b2 0e34 f416
00000030: adea 0822 c6e1 f402 1dd4 fc11 4bf3 10f2
00000040: 28f9 04d2 fede f518 06fb 24e4 bc0f f413
00000050: 02c6 b5dc e3fb 0ae5 f8d3 1112 f404 f7e4
00000060: 4914 e411 09f9 f3bd de10 19bb e50d 0c09
00000070: 2302 feee 1502 0712 f437 1ccc efdb d8cb
00000080: ecec de17 fecd c0ca e4cf 15e7 2416 05cb
00000090: 03d7 093d 2ff1 0c11 e619 fe0a 08c4 3cbd
000000a0: f81a 21cc 0bf5 09d8 2a2c ccc5 0717 d8fe
000000b0: bbe2 222a def1 ea0c 16da 0010 320d 31dc
000000c0: 2108 25d9 d5d8 3c01 f2fd 1ffd b81f dc29
000000d0: 1ad8 e2c9 e7dc e0bc f6cb 1afa fefc 2ce4
000000e0: 2dd4 fd27 f502 f4b3 f80f 20c1 01e4 2803
000000f0: 0cf7 f2f6 fdbd 1aff fb1e 0ed4 e3f9 edf6

onnx::LSTM_184_quantized i1 [1, 128, 512]
2 26 -14 13 -19 -14 -17 14
-15 -19 16 -8 -13 -30 -12 11
8 -22 -7 -6 10 -29 -11 2
-20 -20 -7 -20 -16 -14 -19 1
-14 28 10 50 -22 -9 6 27
-32 10 28 -22 5 -20 -11 -14
-12 -9 17 14 -14 -11 -10 9
9 21 0 5 11 -12 3 -24
-18 -29 4 -14 20 -1 16 2
-8 -3 21 20 24 2 -17 -9
-8 -9 8 -5 12 -9 -8 -8
-20 -19 -27 -10 -25 -5 17 -4
-42 25 29 4 -16 -4 24 -25
14 -9 12 37 17 3 -5 17
2 20 15 -9 19 -13 28 -8
3 -7 17 -17 5 1 -21 -3
-9 14 -4 -26 21 22 5 -16
-28 14 17 4 1 -22 -11 6
-9 -3 -15 -2 -13 5 -12 -29
-23 -10 -38 -27 7 0 14 11
-14 -5 7 5 -8 -30 -16 2
-34 10 21 16 3 -5 -2 0
-3 17 18 11 17 -19 -4 17
1 -11 -28 -5 -40 4 7 -25
23 6 -1 23 28 14 16 -14
-6 -10 0 3 21 -3 26 12
-9 0 -24 14 16 -5 4 -20
-13 7 -21 -23 -31 1 15 -10
-42 -4 9 28 -13 -16 11 -11
-13 13 8 1 11 -6 17 0
3 7 -1 11 7 0 5 19
11 27 15 13 21 11 -14 15
00000000: 021a f20d edf2 ef0e f1ed 10f8 f3e2 f40b
00000010: 08ea f9fa 0ae3 f502 ecec f9ec f0f2 ed01
00000020: f21c 0a32 eaf7 061b e00a 1cea 05ec f5f2
00000030: f4f7 110e f2f5 f609 0915 0005 0bf4 03e8
00000040: eee3 04f2 14ff 1002 f8fd 1514 1802 eff7
00000050: f8f7 08fb 0cf7 f8f8 eced e5f6 e7fb 11fc
00000060: d619 1d04 f0fc 18e7 0ef7 0c25 1103 fb11
00000070: 0214 0ff7 13f3 1cf8 03f9 11ef 0501 ebfd
00000080: f70e fce6 1516 05f0 e40e 1104 01ea f506
00000090: f7fd f1fe f305 f4e3 e9f6 dae5 0700 0e0b
000000a0: f2fb 0705 f8e2 f002 de0a 1510 03fb fe00
000000b0: fd11 120b 11ed fc11 01f5 e4fb d804 07e7
000000c0: 1706 ff17 1c0e 10f2 faf6 0003 15fd 1a0c
000000d0: f700 e80e 10fb 04ec f307 ebe9 e101 0ff6
000000e0: d6fc 091c f3f0 0bf5 f30d 0801 0bfa 1100
000000f0: 0307 ff0b 0700 0513 0b1b 0f0d 150b f20f

onnx::LSTM_203_quantized i1 [1, 128, 512]
13 -28 -25 29 26 34 -9 12
32 -29 16 7 -4 5 -16 16
-1 24 5 38 -10 21 28 19
24 -2 3 5 38 12 28 -2
-3 20 18 17 6 5 20 2
19 -5 -5 -35 52 -17 19 -4
-13 -11 7 11 -13 -11 -20 -40
-27 4 -16 -13 27 15 -6 5
2 -4 2 -24 31 -2 -19 -16
13 14 20 -31 -10 -9 7 2
3 9 4 -8 -21 -36 -16 -17
-24 -32 -4 0 -10 -2 -19 -32
-7 -23 -2 -18 -6 -8 17 34
-16 -5 -36 7 -10 -30 12 12
7 -30 -17 35 7 -26 -11 0
22 -37 28 19 -11 12 -25 -1
6 -32 -17 46 -20 32 -11 0
25 -1 -14 0 -2 -17 21 -6
-66 17 4 20 0 20 -31 -5
32 24 -15 -7 30 44 -8 -59
6 -1 -6 4 23 -9 -4 30
27 7 -22 7 7 -1 -10 6
17 -23 1 23 -4 -8 -34 -71
-7 -55 -4 5 14 0 -23 -14
-23 20 13 10 -19 -2 -32 -15
23 -27 -39 -30 -11 -21 -22 -15
-16 -15 7 -3 -10 -23 9 -31
12 -24 -23 22 14 -19 2 -57
6 16 0 1 -25 37 32 35
-19 31 -34 -6 35 -16 10 8
15 0 0 -12 -24 -53 -13 -15
-7 -27 18 12 -7 -28 -14 21
00000000: 0de4 e71d 1a22 f70c 20e3 1007 fc05 f010
00000010: ff18 0526 f615 1c13 18fe 0305 260c 1cfe
00000020: fd14 1211 0605 1402 13fb fbdd 34ef 13fc
00000030: f3f5 070b f3f5 ecd8 e504 f0f3 1b0f fa05
00000040: 02fc 02e8 1ffe edf0 0d0e 14e1 f6f7 0702
00000050: 0309 04f8 ebdc f0ef e8e0 fc00 f6fe ede0
00000060: f9e9 feee faf8 1122 f0fb dc07 f6e2 0c0c
00000070: 07e2 ef23 07e6 f500 16db 1c13 f50c e7ff
00000080: 06e0 ef2e ec20 f500 19ff f200 feef 15fa
00000090: be11 0414 0014 e1fb 2018 f1f9 1e2c f8c5
000000a0: 06ff fa04 17f7 fc1e 1b07 ea07 07ff f606
000000b0: 11e9 0117 fcf8 deb9 f9c9 fc05 0e00 e9f2
000000c0: e914 0d0a edfe e0f1 17e5 d9e2 f5eb eaf1
000000d0: f0f1 07fd f6e9 09e1 0ce8 e916 0eed 02c7
000000e0: 0610 0001 e725 2023 ed1f defa 23f0 0a08
000000f0: 0f00 00f4 e8cb f3f1 f9e5 120c f9e4 f215

onnx::LSTM_204_quantized i1 [1, 128, 512]
-10 -10 -14 -7 -14 -40 -31 15
-8 -9 -20 1 -24 6 -27 4
23 36 -30 -1 24 -14 -10 -2
-36 10 -19 6 -31 -15 -50 33
-1 -22 -11 10 -10 16 -11 -7
-14 7 22 -24 -34 17 -27 8
19 -34 -25 14 -19 -16 30 36
-11 -12 25 -21 -51 -31 -26 -19
-22 4 -26 15 38 6 57 -14
27 -9 24 34 15 16 42 18
10 2 28 -22 -10 -17 -20 24
18 11 -11 -4 21 13 2 -29
12 26 -22 -24 -7 -38 -32 -41
32 -34 20 32 -42 22 -17 -11
-34 -29 -30 17 -10 45 -22 12
-62 -17 -28 -44 17 6 -6 2
8 26 -23 -27 33 2 -41 4
14 -14 -41 13 -41 14 -2 -19
17 -10 -17 -42 -27 -31 -21 -24
23 -32 -19 12 -20 -26 -55 37
20 12 29 -20 20 -20 -33 -32
-11 -20 -4 9 -6 -16 14 20
16 -34 21 -25 -11 -9 35 4
-16 12 -15 28 -18 13 -8 5
-32 -10 -56 -6 -12 -7 26 -30
30 14 -12 22 -1 21 21 -48
24 -16 30 -17 -12 -14 21 7
30 2 -42 -19 -25 -1 -26 -21
-25 -18 10 9 -7 -8 -44 -28
-5 -12 -2 -19 -19 13 17 -3
-7 2 18 29 -14 7 17 9
-53 13 -27 -22 -11 -32 -4 6
00000000: f6f6 f2f9 f2d8 e10f f8f7 ec01 e806 e504
00000010: 1724 e2ff 18f2 f6fe dc0a ed06 e1f1 ce21
00000020: ffea f50a f610 f5f9 f207 16e8 de11 e508
00000030: 13de e70e edf0 1e24 f5f4 19eb cde1 e6ed
00000040: ea04 e60f 2606 39f2 1bf7 1822 0f10 2a12
00000050: 0a02 1cea f6ef ec18 120b f5fc 150d 02e3
00000060: 0c1a eae8 f9da e0d7 20de 1420 d616 eff5
00000070: dee3 e211 f62d ea0c c2ef e4d4 1106 fa02
00000080: 081a e9e5 2102 d704 0ef2 d70d d70e feed
00000090: 11f6 efd6 e5e1 ebe8 17e0 ed0c ece6 c925
000000a0: 140c 1dec 14ec dfe0 f5ec fc09 faf0 0e14
000000b0: 10de 15e7 f5f7 2304 f00c f11c ee0d f805
000000c0: e0f6 c8fa f4f9 1ae2 1e0e f416 ff15 15d0
000000d0: 18f0 1eef f4f2 1507 1e02 d6ed e7ff e6eb
000000e0: e7ee 0a09 f9f8 d4e4 fbf4 feed ed0d 11fd
000000f0: f902 121d f207 1109 cb0d e5ea f5e0 fc06

fc.weight_quantized u1 [128, 2]
126 77 161 93 109 107 106 161
178 62 116 100 76 124 63 167
86 139 183 68 164 114 157 162
164 161 139 78 142 100 159 102
56 219 191 33 144 127 163 117
93 173 127 158 84 163 118 172
107 97 172 160 129 117 128 163
103 190 94 145 81 145 62 255
135 99 118 145 145 163 124 115
131 144 151 144 152 121 132 108
120 109 159 134 182 116 117 98
56 128 99 161 86 121 87 131
75 136 147 96 116 113 112 101
98 238 166 105 204 78 226 0
161 112 50 212 155 138 180 87
133 122 128 175 89 164 181 86
116 127 97 195 160 150 171 70
99 187 186 84 244 78 137 150
249 69 138 174 32 254 52 191
110 134 162 110 93 180 104 162
80 208 146 86 59 170 111 101
138 90 198 77 153 84 215 89
136 135 77 150 185 85 169 96
93 192 144 113 133 170 130 89
149 144 56 136 155 168 111 87
117 145 103 98 67 159 132 109
162 79 134 110 30 246 68 210
75 123 169 127 205 117 77 111
158 139 61 210 94 92 94 169
81 160 243 78 81 108 178 56
107 161 69 145 92 129 144 144
135 111 113 150 137 126 88 160
00000000: 7e4d a15d 6d6b 6aa1 b23e 7464 4c7c 3fa7
00000010: 568b b744 a472 9da2 a4a1 8b4e 8e64 9f66
00000020: 38db bf21 907f a375 5dad 7f9e 54a3 76ac
00000030: 6b61 aca0 8175 80a3 67be 5e91 5191 3eff
00000040: 8763 7691 91a3 7c73 8390 9790 9879 846c
00000050: 786d 9f86 b674 7562 3880 63a1 5679 5783
00000060: 4b88 9360 7471 7065 62ee a669 cc4e e200
00000070: a170 32d4 9b8a b457 857a 80af 59a4 b556
00000080: 747f 61c3 a096 ab46 63bb ba54 f44e 8996
00000090: f945 8aae 20fe 34bf 6e86 a26e 5db4 68a2
000000a0: 50d0 9256 3baa 6f65 8a5a c64d 9954 d759
000000b0: 8887 4d96 b955 a960 5dc0 9071 85aa 8259
000000c0: 9590 3888 9ba8 6f57 7591 6762 439f 846d
000000d0: a24f 866e 1ef6 44d2 4b7b a97f cd75 4d6f
000000e0: 9e8b 3dd2 5e5c 5ea9 51a0 f34e 516c b238
000000f0: 6ba1 4591 5c81 9090 876f 7196 897e 58a0
